FE+DQN_demo/results/best_dqn_model.pth (torch, 21326 bytes, 6 tensors)

fc1.weight f4 [64, 3]
0	0xbf0eec2c	-0.5582912
1	0xbec8bf6a	-0.39208537
2	0xbe7c0cf8	-0.24614322
3	0x3e363eda	0.17797413
4	0x3f5b2653	0.85605353
5	0xc00dc8c0	-2.2153778
6	0xbf2b4ba7	-0.6691231
7	0x3f58fb9f	0.84758943
8	0x3f050816	0.51965463
9	0x3f0d95a8	0.5530648
10	0xbf1a5d3c	-0.60298514
11	0x3f28988d	0.65857774
12	0x3f57a4d9	0.8423591
13	0xbf09ec18	-0.53875875
14	0x3edc68f1	0.43048814
15	0x3d2f9c4f	0.042873677
16	0x3f6ab365	0.91679984
17	0xc014570b	-2.3178127
18	0x3dc70ce8	0.097192585
19	0xbecce8d4	-0.40021384
20	0xbe155d30	-0.1458633
21	0xbf1bca30	-0.6085539
22	0x3f2a5e77	0.6655039
23	0x3edae173	0.4275013
24	0x3f8d7876	1.1052387
25	0xbf389e4d	-0.7211655
26	0x3ed94bc8	0.4244063
27	0xbf65ed88	-0.8981557
28	0x3f6997cc	0.9124725
29	0x3f0994bb	0.5374257
30	0x3ddd22b6	0.10797636
31	0x3fa12074	1.2588029
32	0xbff22851	-1.8918554
33	0xbe2ee910	-0.17081094
34	0x3f707019	0.9392105
35	0x3eb23559	0.34806326
36	0xbfdc4fdd	-1.7211872
37	0xbfea6742	-1.8312762
38	0x3ccd708e	0.025078084
39	0x3e248ef8	0.16070163
40	0xbe2c72f6	-0.16840729
41	0xbe8788e0	-0.26471615
42	0xbe50136a	-0.20319906
43	0x3fae5563	1.3619808
44	0x3dc7e49c	0.09760401
45	0x3d6868ae	0.056740455
46	0x3f9de957	1.2336835
47	0xc0030edc	-2.047782
48	0x3d7b2240	0.06131196
49	0xbeaed97d	-0.34150305
50	0xbe97a315	-0.2961661
51	0xbf31dc4c	-0.6947677
52	0x3f895918	1.0730314
53	0x3e664f95	0.22491296
54	0x3d4c439d	0.04986917
55	0x3f81adab	1.0131124
56	0xc0152142	-2.330155
57	0xbe1f487c	-0.15554994
58	0xbec50e8e	-0.38487667
59	0xbdb697c0	-0.08915663
60	0xbf802fd4	-1.0014596
61	0x3fc573f1	1.5426008
62	0x3c8768f6	0.016529541
63	0x3f11a3fb	0.5689084
64	0xbf0b1e1f	-0.54342836
65	0x3f2df252	0.67947876
66	0x3ea0c91f	0.31403443
67	0x3cc61f23	0.024184769
68	0xbeb2321d	-0.34803858
69	0x3f0e2ee0	0.55540276
70	0x3fe5ccd4	1.7953134
71	0xbe487096	-0.19574198
72	0xbfc3ee88	-1.5307169
73	0xbfca7d52	-1.5819495
74	0x3ca6ca97	0.020360274
75	0xbeebf609	-0.46086147
76	0x3f3e52ae	0.7434491
77	0x3f012530	0.5044737
78	0x3df3e0de	0.119081244
79	0x3fa123a9	1.2589008
80	0x3ed1f42c	0.410066
81	0x3f7378ca	0.95106184
82	0xbf1c06c5	-0.6094783
83	0x3ed8399b	0.4223145
84	0xbf011618	-0.5042434
85	0x3d5b65d0	0.053563893
86	0xbec36569	-0.38163307
87	0x3f3bf081	0.73413855
88	0xbf1aa328	-0.60405207
89	0x3f0eec5f	0.55829424
90	0xbef0a58d	-0.47001305
91	0x3f54eed2	0.8317691
92	0x3ee259d6	0.44209164
93	0x3dd35e14	0.10320678
94	0x3f91e39a	1.1397583
95	0xbfd6df44	-1.6786885
96	0x3f112046	0.5668987
97	0xbef74280	-0.48292923
98	0xbce89b20	-0.028394282
99	0xbbf04146	-0.007332
100	0x3f78543f	0.9700355
101	0xc015c4fd	-2.3401482
102	0xbea3e142	-0.32007796
103	0x3feb54c0	1.8385239
104	0xbf6aa98b	-0.9166495
105	0xbde674f8	-0.11252779
106	0xbab42e00	-0.0013746619
107	0xbee1bada	-0.4408787
108	0xbcc64d02	-0.024206642
109	0x3fbabc95	1.4588801
110	0xbfbcb464	-1.4742551
111	0xbec224f6	-0.37918824
112	0x3f97c8cd	1.1858155
113	0x3f0593ce	0.5217866
114	0x3ede7149	0.43445805
115	0xbefb3630	-0.4906478
116	0x3f2ebe30	0.68258953
117	0x3db2bc54	0.08727327
118	0x3ccb49c6	0.024815451
119	0xbd546cb6	-0.051861487
120	0x3e27a6ee	0.16372272
121	0x3f9317b3	1.1491607
122	0xbff5090c	-1.9143386
123	0x3e22f614	0.15914184
124	0x3f77519b	0.96608895
125	0xbff10dd6	-1.8832347
126	0xbffc5da5	-1.9716078
127	0xc009cb07	-2.1530168
128	0x3de20b37	0.11037295
129	0x3d67026f	0.056398805
130	0x3f9c3b0c	1.220552
131	0xc0189403	-2.384034
132	0xbd83fe35	-0.064449705
133	0x3fa04f5f	1.2524222
134	0xbfa325c6	-1.2745903
135	0xbeaebab0	-0.34126806
136	0x3fae5d7a	1.3622277
137	0x3d1f499c	0.03888856
138	0x3daecc70	0.08535087
139	0x3f886b6b	1.0657781
140	0xc00287df	-2.039543
141	0x3e9a155a	0.30094415
142	0xbeb140f2	-0.34619862
143	0xbf13040d	-0.57428056
144	0xc01f35b8	-2.4876537
145	0x3edac86f	0.42731044
146	0x3ed13ea8	0.40868115
147	0xbdb906b0	-0.09034479
148	0xbeaea94c	-0.34113538
149	0xbe82f7de	-0.25579733
150	0x3e0636a0	0.13106775
151	0xbe6a447e	-0.2287769
152	0xbe8b2c42	-0.27182204
153	0xbf6c13ca	-0.92217696
154	0x3f2334f3	0.6375267
155	0x3edc1151	0.4298196
156	0x3f8f1531	1.1178342
157	0xbf3a8e24	-0.7287314
158	0x3e5dce7e	0.21660802
159	0x3dba9931	0.0911125
160	0x3fa2c480	1.2716217
161	0x3dc3f3fa	0.09568019
162	0xbc89a353	-0.016801512
163	0x3faecc6a	1.3656132
164	0xbfd51b1b	-1.6648897
165	0xbeb193a7	-0.34682962
166	0x3f5d9835	0.86560374
167	0x3e4cd113	0.2000163
168	0xbc9229a5	-0.017842123
169	0x3d1d5ba8	0.03841749
170	0xbdff75a0	-0.12473607
171	0x3f07f578	0.5310893
172	0x3fd6a84c	1.677011
173	0xbce821e4	-0.028336473
174	0xbec0016f	-0.37501094
175	0x3f911039	1.1333076
176	0x3dfb8f75	0.12283222
177	0xbf04316a	-0.516379
178	0xbe2cedaa	-0.16887537
179	0xbebad325	-0.36489215
180	0xbe8cfaf6	-0.27535218
181	0x3faf07a4	1.3674207
182	0x3e66c524	0.2253614
183	0x3ebbd50b	0.36685976
184	0xbed92dfb	-0.42417893
185	0x3f0d3ca4	0.55170655
186	0x3d9b8e90	0.07595551
187	0xbe9489a9	-0.29011276
188	0xbeff6bf5	-0.49887052
189	0xbf468669	-0.77548844
190	0x3f671247	0.90262264
191	0x3ebe6f8b	0.37194476

fc1.bias f4 [64]
0	0x3e141d98	0.14464414
1	0xbe124319	-0.14283408
2	0xbe468392	-0.19386128
3	0x3f8daeec	1.1069007
4	0x3fc88120	1.5664406
5	0xbe3788eb	-0.17923324
6	0x3e8d558c	0.2760433
7	0xbf6540e0	-0.89552116
8	0x3fba0929	1.4534045
9	0xbf93f335	-1.1558596
10	0x3f153053	0.5827686
11	0xbeb9c584	-0.36283505
12	0x3dae0009	0.084961005
13	0x3edfacc8	0.4368651
14	0xbf148b2c	-0.5802486
15	0xbc6bda81	-0.014395357
16	0x3e1a59f4	0.15073377
17	0xbf843867	-1.0329713
18	0x3e07572e	0.1321685
19	0x3e01b00c	0.12664813
20	0xbe746b84	-0.23869139
21	0x3fa9c8ae	1.3264368
22	0xbe44daea	-0.19224134
23	0xbf4737c7	-0.77819484
24	0x3f529af6	0.822677
25	0xbf5de550	-0.8667803
26	0xbf8a4c73	-1.080458
27	0x3f9714ae	1.1803186
28	0xbf075e6b	-0.52878445
29	0x3f8e4551	1.1114904
30	0xbd6c4821	-0.057685975
31	0x3f971243	1.1802448
32	0xbe4da9d6	-0.20084319
33	0xbeec72c2	-0.46181303
34	0x3fa7c434	1.3106751
35	0x3e0fafc4	0.14031893
36	0x4014c61b	2.3245914
37	0xbeb35fcb	-0.35034022
38	0x3f7ff42e	0.99981964
39	0xbeb54af6	-0.35408753
40	0x3f3a55b8	0.72787046
41	0x3f31dc53	0.69476813
42	0x400e03b0	2.218975
43	0xbf33b2d2	-0.70194733
44	0x3f5b86b2	0.85752404
45	0xbf79d4c5	-0.97590286
46	0x3cc74e81	0.024329426
47	0xbccb8ec0	-0.024848342
48	0x402de547	2.717119
49	0x3f0cce20	0.5500202
50	0x3e92659e	0.28593153
51	0xbe7c9072	-0.24664477
52	0x3f9900d9	1.1953384
53	0xbe14bb8e	-0.14524671
54	0x3f24b6bb	0.64341325
55	0xbec80f78	-0.39074302
56	0x3d09a0ae	0.0336005
57	0xbf580e93	-0.8439724
58	0x3dacaebb	0.08431765
59	0x3db2b0f0	0.087251544
60	0xbf6bd140	-0.92116165
61	0x3f83ac87	1.0287026
62	0x3e8eccfa	0.2789076
63	0xbf395cc1	-0.72407156

fc2.weight f4 [64, 64]
0	0x3c2f4250	0.0106969625
1	0x3cb9e570	0.022692412
2	0xbdb98546	-0.09058623
3	0x3d8e8b3c	0.069601506
4	0x3d3156f8	0.04329583
5	0xbdf4f586	-0.119608924
6	0x3d16bef8	0.036803216
7	0xbc24df50	-0.0100630075
8	0xbde66a92	-0.112507954
9	0xbde23942	-0.11046077
10	0x3da9b660	0.082867384
11	0xbcbdab58	-0.023152992
12	0xbb867380	-0.004103124
13	0x3dd6b0be	0.1048293
14	0x3d96db4e	0.07366048
15	0x3dca30cc	0.098725885
16	0x3cd4b498	0.02596502
17	0x3dc7ece2	0.09761979
18	0xbde8fb82	-0.11376096
19	0x3c49f7a0	0.012327105
20	0xbd8bff76	-0.06835835
21	0x3d2f931c	0.042864904
22	0xbd7f9e44	-0.062406793
23	0xbda95160	-0.08267474
24	0xbd62869c	-0.055304155
25	0xbd9e2bd8	-0.07723206
26	0xbcb121d0	-0.021622568
27	0x3cd22a20	0.025654852
28	0xbcd433a8	-0.025903538
29	0xbd8a6f60	-0.06759524
30	0x3c9aa290	0.018876344
31	0xbd96b6f6	-0.07359116
32	0xbc5e64d0	-0.01357384
33	0xba39f900	-0.0007094294
34	0x3dc9f10e	0.09860431
35	0x3d9156bc	0.070966214
36	0xbd752b10	-0.05985552
37	0xbccf51c0	-0.025307536
38	0xbd9bf464	-0.07614973
39	0xbb784400	-0.0037882328
40	0xbcf3c408	-0.02975656
41	0xbdec43c0	-0.1153636
42	0xbd2e1a24	-0.0425054
43	0x3d7ae130	0.06124991
44	0xbc889a40	-0.016675115
45	0x3ddde072	0.10833825
46	0x3d55952c	0.052144215
47	0xbcd329a0	-0.025776684
48	0xbb4a56c0	-0.003087446
49	0x3bdb4d20	0.0066925436
50	0x3c06f770	0.008237705
51	0x3dc36148	0.09540039
52	0xbdb7314a	-0.08944948
53	0x3cbbdc30	0.022932142
54	0xbd4d7cb8	-0.05016777
55	0xbc4bcb50	-0.01243861
56	0x3d57a45c	0.05264698
57	0x3c5d90b0	0.013523266
58	0x3d80fa62	0.06297757
59	0x3d657118	0.056016058
60	0xbd002584	-0.031285778
61	0x3c9b6118	0.018967196
62	0x3aa3e500	0.001250416
63	0xbd4ed814	-0.050499037
64	0x3dddaa1a	0.1082346
65	0x3dc3c326	0.09558706
66	0xbbb8c600	-0.005638838
67	0x3be4f980	0.0069877505
68	0xbdaa7b38	-0.08324283
69	0xbde92242	-0.11383487
70	0xbd9f6c9a	-0.07784386
71	0xbcd25940	-0.025677323
72	0x3de3b98a	0.11119373
73	0xbd33cf54	-0.043898895
74	0xbd2b5030	-0.04182452
75	0xbdf987e8	-0.12184125
76	0xbdafd42e	-0.08585392
77	0x3d329204	0.043596283
78	0x3dcf99d2	0.10136761
79	0xbdea318e	-0.11435233
80	0x3cfba5f0	0.030718774
81	0x3dfab34e	0.12241231
82	0xbdbbbc2c	-0.0916675
83	0x3da93e20	0.082638025
84	0xbc138c10	-0.0090055615
85	0xbdcb3c32	-0.09923591
86	0x3cf72688	0.03016974
87	0xbde0f6ce	-0.10984574
88	0xbd534944	-0.051583543
89	0xbdf3301e	-0.11874412
90	0xbcc66c78	-0.024221644
91	0x3dd83542	0.10557033
92	0x3dcad374	0.09903613
93	0x3debd6d4	0.115155846
94	0xbde02116	-0.10943811
95	0x3d5ffe5c	0.054685935
96	0x3c40e340	0.011772931
97	0xbb32d900	-0.0027289987
98	0x3d8c51b2	0.0685152
99	0x3dbf06fa	0.093275025
100	0x3da42da6	0.08016519
101	0xbd694cb8	-0.05695793
102	0xbce822a8	-0.028336838
103	0xbd992b7a	-0.074789956
104	0xbcf1c590	-0.02951315
105	0x3d68a414	0.056797102
106	0x3df77cca	0.120843485
107	0x3d62c56c	0.055364057
108	0x3dff44fa	0.12464328
109	0xbd881a88	-0.066456854
110	0xbd87a312	-0.066229
111	0xbddb476a	-0.107069805
112	0x3d34f8a0	0.04418242
113	0xbcf19d40	-0.029493928
114	0x3dbb0ab0	0.09132898
115	0xbd062d24	-0.032757893
116	0xbdaec3d0	-0.08533442
117	0xbc83d9d0	-0.016095072
118	0xbd3492ac	-0.04408519
119	0xba95fb80	-0.0011442751
120	0x3d1cb420	0.038257718
121	0xbd8b608a	-0.06805523
122	0xbb8fbe00	-0.0043866634
123	0xbca50d78	-0.020148024
124	0xbce6e0b8	-0.028183326
125	0xbd912376	-0.07086842
126	0x3dbe2894	0.092850834
127	0xbd9fd300	-0.07803917
128	0x3db695a0	0.089152575
129	0xbd639594	-0.05556257
130	0x3daa3ba6	0.08312158
131	0x3d3ca30c	0.04605393
132	0xbd32e4fc	-0.043675408
133	0x3df150d4	0.11782995
134	0x3df4e032	0.11956824
135	0xbd85bc2e	-0.06530033
136	0xbd0d05b8	-0.034429282
137	0x3c703c70	0.014662847
138	0xbdc04bbe	-0.09389447
139	0xbd56ae14	-0.052412108
140	0xbd8ea96c	-0.069659084
141	0xbdb73ea4	-0.089474946
142	0x3d96dfb4	0.07366887
143	0xbc561830	-0.01306729
144	0xbcf6b810	-0.030117065
145	0xbdbec092	-0.093140736
146	0x3dbc828e	0.09204589
147	0x3d30c3c0	0.04315543
148	0xbbfc45c0	-0.0076987445
149	0x3cd22e38	0.025656804
150	0xbdd08512	-0.10181631
151	0xbd8b34be	-0.06797169
152	0xbdaf2e52	-0.08553757
153	0x3d1ff380	0.03905058
154	0xbacbf080	-0.0015559345
155	0xbc640600	-0.013917446
156	0x3ce363a8	0.02775748
157	0xbd81a8bc	-0.06331012
158	0xbdadedb2	-0.084926024
159	0xbdaebbd0	-0.08531916
160	0xbd9e349a	-0.07724877
161	0xbdc6f1d0	-0.09714091
162	0xbc6a1d30	-0.014289185
163	0xbd75e7cc	-0.06003551
164	0x3d9d0728	0.076673806
165	0x3d0f1154	0.034928635
166	0x3df57bd4	0.11986509
167	0x3c439840	0.011938155
168	0xbdbffa9a	-0.0937397
169	0x3dc1e05a	0.0946662
170	0xbdd1fde0	-0.10253501
171	0xbd88c66a	-0.066784695
172	0xbd5faff0	-0.054611146
173	0x3d7b3238	0.06132719
174	0xbd3170b0	-0.043320358
175	0x3dc2759a	0.09495087
176	0xbcf369e8	-0.029713586
177	0x3dd84bc0	0.10561323
178	0x3dfd19f0	0.12358463
179	0xbda95e84	-0.082699805
180	0xbc6ad060	-0.014331907
181	0xbda9821e	-0.08276771
182	0xbda9557e	-0.082682595
183	0x3d666b38	0.056254596
184	0xbdbb0b14	-0.09132972
185	0x3d8d97ec	0.069137424
186	0xbdd80840	-0.105484486
187	0xba259200	-0.0006316006
188	0xbde083b8	-0.10962623
189	0xbd162bd0	-0.036662877
190	0xbdb8d96a	-0.090258434
191	0x3d4c0984	0.049813762
192	0xbd740108	-0.059571296
193	0xc03620a8	-2.8457432
194	0xbe764873	-0.24051075
195	0xbf8290cb	-1.0200437
196	0xbf5046af	-0.81357855
197	0xbfa97568	-1.3238955
198	0x3da041a8	0.07825023
199	0xbe21b6f3	-0.15792446
200	0xbf577dc4	-0.8417628
201	0xbe895214	-0.26820433
202	0x3eca51c0	0.39515495
203	0xbca3c21d	-0.019990021
204	0xbf39646f	-0.72418875
205	0x3de7bd46	0.11315398
206	0x3f222ce9	0.6334978
207	0x3edcc4b7	0.43118832
208	0xbd4d10e0	-0.05006492
209	0x3e4029ce	0.18765947
210	0xbf8ab068	-1.0835085
211	0xbc8e76c8	-0.017390624
212	0x3fa126c1	1.2589952
213	0xbf807a2e	-1.0037286
214	0x3db0a8f8	0.08625978
215	0x3f9b07c1	1.2111741
216	0xbf15df37	-0.58543724
217	0xbe646e6c	-0.22307748
218	0xbd88eb8b	-0.06685551
219	0xbf85771a	-1.0426972
220	0x3d08334c	0.033252046
221	0xbf635c1a	-0.8881241
222	0x3c6d009e	0.014465479
223	0x3e155c19	0.14585914
224	0xbd98aa0e	-0.0745431
225	0xc02bcc92	-2.684361
226	0x40605d23	3.5056846
227	0x3dfc2468	0.123116314
228	0xbf70febb	-0.9413869
229	0x3b1312b8	0.0022441577
230	0xbf82e70a	-1.0226758
231	0x3cb1c7ae	0.02170166
232	0x3f21de1b	0.6322953
233	0x3eea4a2f	0.45759723
234	0xbfe91275	-1.8208758
235	0xbea452d2	-0.32094437
236	0xbf867600	-1.0504761
237	0x3f4d43a1	0.8018132
238	0x3da96190	0.08270562
239	0x3d669740	0.056296587
240	0xc0072ac8	-2.1119862
241	0xbd934a00	-0.07191849
242	0x3db22e8e	0.08700286
243	0xbead4e45	-0.33848777
244	0xbfda2934	-1.7043824
245	0x3f2160c2	0.63038266
246	0xbe20544e	-0.1565716
247	0x3dc791a5	0.09744576
248	0x3cb654e2	0.022257272
249	0x3fafae10	1.3724995
250	0x3f010e4a	0.5041243
251	0x3babf9c0	0.0052482784
252	0x3ecc6d71	0.39927247
253	0xbf81ee80	-1.015091
254	0x3df79ec8	0.12090832
255	0xbd32208e	-0.043488078

fc2.bias f4 [64]
0	0xbd828a44	-0.06374028
1	0xbd84f1ee	-0.06491457
2	0x3d157a0c	0.036493346
3	0x401c479d	2.441871
4	0x3fb206b3	1.3908294
5	0xbdef6e1c	-0.116909236
6	0x40a3ca7f	5.1184688
7	0xbf66d54d	-0.9016922
8	0xbc82351b	-0.015894463
9	0xbf045ae2	-0.51701176
10	0x3f95c6b1	1.1701261
11	0x3c2696b6	0.010167768
12	0xbebb8744	-0.36626637
13	0x3f8aaeb3	1.0834564
14	0xbde161c1	-0.11004973
15	0xbdf34e4b	-0.118801676
16	0xbf65c837	-0.8975863
17	0xbf824408	-1.0177011
18	0xbf1ee3b4	-0.620662
19	0x3d3d680e	0.046241812
20	0xb81ab000	-3.6880374e-05
21	0xbcfeb0c0	-0.03109014
22	0x3d2f3833	0.042778205
23	0x3fcea3d1	1.6143743
24	0xbce2df31	-0.027694317
25	0xbf811576	-1.0084674
26	0xbf01500d	-0.5051277
27	0xbcc9011f	-0.024536667
28	0xbdc15f1b	-0.09441968
29	0xbef2ff65	-0.47460476
30	0xbc5d4360	-0.013504833
31	0xbdf345b0	-0.11878526
32	0x3d9ba588	0.07599932
33	0xbf971b61	-1.180523
34	0xbf6f9759	-0.93590313
35	0xbd8cd98a	-0.0687743
36	0xbdb0fedd	-0.08642361
37	0xbf171078	-0.59009504
38	0xbf87a67b	-1.0597681
39	0xbcd1052a	-0.025515158
40	0xbedf4f40	-0.4361515
41	0x409e6078	4.949276
42	0xbdee766b	-0.1164368
43	0xbf81da70	-1.0144787
44	0xbeff2e02	-0.4983979
45	0xbf7ec2f5	-0.9951623
46	0xbf769c1c	-0.96331954
47	0xbd99f348	-0.07517105
48	0xbedf05e2	-0.43559176
49	0x3d82f420	0.063942194
50	0xbdf09eb9	-0.11749024
51	0xbf4514cc	-0.7698486
52	0x3d593500	0.05302906
53	0xbf48fdbe	-0.7851218
54	0xbdb5e22a	-0.08881028
55	0xbe019408	-0.12654126
56	0xbf727b4d	-0.9471939
57	0x3b0ec91d	0.0021787353
58	0x3f06403e	0.52441776
59	0xbf5a2a9a	-0.85221255
60	0xbf2d714e	-0.67751014
61	0xbdd03956	-0.10167186
62	0x3d97906b	0.074005924
63	0xbf6ac0bc	-0.9170034

fc3.weight f4 [4, 64]
0	0xbd7b230c	-0.06131272
1	0x3d15e674	0.03659673
2	0x3ba0f1e0	0.0049116462
3	0xc0093fc5	-2.1445172
4	0xbf9ad974	-1.2097611
5	0x3decacf4	0.11556426
6	0xc03905c9	-2.890978
7	0xbe4789a3	-0.19486098
8	0x3d246e62	0.04014433
9	0xbf98533a	-1.1900399
10	0x3ea11fe2	0.31469637
11	0xbdd5f626	-0.1044734
12	0xbf87a81e	-1.059818
13	0x3eedc72e	0.46441025
14	0x3e108c6b	0.14116065
15	0x3d89d4ff	0.06730079
16	0xbee28bb3	-0.44247207
17	0xbe8871f1	-0.2664943
18	0xbf654cbf	-0.8957023
19	0x3dcd0186	0.10010056
20	0xbdac429e	-0.08411144
21	0x3dfa6d7c	0.12227914
22	0x3d292b34	0.041300967
23	0xbfb95424	-1.4478803
24	0x3d516ccc	0.051129147
25	0x3d604ca1	0.05476058
26	0xbf8a78af	-1.081808
27	0xbdeb9e06	-0.1150475
28	0x3c86f3b8	0.016473636
29	0xbfbd896d	-1.4807564
30	0xbd5a380c	-0.053276107
31	0xbdbc2020	-0.09185815
32	0x3c8cd2f2	0.01719043
33	0xbdf5bfca	-0.119994715
34	0xbf2f9b10	-0.6859598
35	0x3d7526c4	0.059851423
36	0x3cc286b7	0.023745878
37	0xbf35858b	-0.70906895
38	0xbdcd9f9c	-0.10040209
39	0x3da9e01c	0.082946986
40	0xbfdc7bfd	-1.7225338
41	0xc062ae0e	-3.5418735
42	0x3d551331	0.052020255
43	0xbf16c5df	-0.5889568
44	0xbf8dc246	-1.1074913
45	0xbe85a42c	-0.26101816
46	0xbf00e5f2	-0.5035087
47	0x3db26c22	0.08712031
48	0xbfc75f21	-1.5575906
49	0x3d9417ac	0.072310776
50	0x3db0f90a	0.086412504
51	0xbf227dbc	-0.63473105
52	0x3bf62dc0	0.007512778
53	0xbf2a32f1	-0.6648398
54	0x3d908e60	0.07058406
55	0x3d387914	0.045037344
56	0xbeaafb7f	-0.33395
57	0x3d1b7f70	0.03796333
58	0xc03e16d0	-2.9701424
59	0xbee3e898	-0.44513392
60	0xbfc5fbe8	-1.5467501
61	0xbd7c3de4	-0.06158246
62	0xbc3c2887	-0.011484272
63	0xbee14a15	-0.44001833
64	0x3dc459ca	0.095874384
65	0x3b2ba300	0.0026189685
66	0x3d537df4	0.05163379
67	0xbf4cb1da	-0.7995888
68	0xbd29c699	-0.041449163
69	0xbc69a7d0	-0.014261201
70	0xc062f6ed	-3.5463212
71	0xbf6b2e6e	-0.9186772
72	0xbdada0d1	-0.08477939
73	0xbf04d14d	-0.5188187
74	0x3ead3266	0.33827513
75	0xbc1f1a50	-0.009710863
76	0xbf359fdd	-0.70947057
77	0x3e588f73	0.21148472
78	0x3c90f69c	0.017695718
79	0x3c9a1745	0.018809924
80	0xbf1077ff	-0.564331
81	0xbf83b845	-1.029061
82	0xbec2384c	-0.37933576
83	0xbd1817ad	-0.037131954
84	0xbbadc9a0	-0.0053035766
85	0xbd71b51c	-0.05901061
86	0x3df87d48	0.121332705
87	0x3c55492f	0.013017937
88	0x3dc79344	0.097448856
89	0xbf659a54	-0.8968861
90	0xbf32bd22	-0.69819844
91	0x3daa15f4	0.083049685
92	0xbd32628c	-0.043551013
93	0xc06980f1	-3.648495
94	0xbdcaf714	-0.09910408
95	0x3d04b3f0	0.032398164
96	0xbcc6bc90	-0.024259835
97	0xbf460d1d	-0.7736376
98	0xbf160cb5	-0.5861314
99	0xbdf0a524	-0.11750248
100	0x3d993fb8	0.074828565
101	0xbf04fc52	-0.5194751
102	0xbf3dc923	-0.74135035
103	0xbd5c7f7d	-0.05383252
104	0xc05a4f80	-3.4111023
105	0xc03e89b8	-2.9771557
106	0x3cf0e15f	0.02940434
107	0xbece78c2	-0.40326506
108	0xbf6b3d5e	-0.91890514
109	0xbf4c0782	-0.79698956
110	0xbefdc748	-0.49566102
111	0xbc2ac184	-0.010422114
112	0xbf50e206	-0.81594884
113	0xbdb39382	-0.08768369
114	0x3db5b63d	0.0887265
115	0xbf234445	-0.63776046
116	0xbdbff0e6	-0.093721196
117	0xbf21bbd9	-0.6317726
118	0x3cc56f68	0.024100974
119	0x3da7b3fa	0.08188625
120	0xbf563ac6	-0.8368343
121	0xbcbd4e28	-0.023108557
122	0xc05c66eb	-3.4437816
123	0xbf3b57d5	-0.73180896
124	0xc0637fab	-3.5546672
125	0x3c8c8940	0.01715529
126	0x3dae49aa	0.08510144
127	0xbf2796b5	-0.65464336
128	0x3d040bd4	0.032237843
129	0x3d51801c	0.051147565
130	0x3dc0a1d4	0.09405866
131	0xbfb06967	-1.3782166
132	0x3e807925	0.25092426
133	0x3c9d7d01	0.019224646
134	0xc0037879	-2.054228
135	0xbf87117f	-1.0552214
136	0x3d64bdd6	0.055845104
137	0xbf0ab2c1	-0.54179007
138	0x3ec5695d	0.38556948
139	0xbd6cdbb8	-0.057826728
140	0xbf35c657	-0.7100577
141	0x3eaff791	0.34368566
142	0x3c7ea68d	0.0155426385
143	0xbd0c6986	-0.034280322
144	0xbf449018	-0.7678237
145	0xbf85e4e1	-1.0460473
146	0xbefcdb6a	-0.4938615
147	0x3bc2706b	0.0059338114
148	0xbdf0b876	-0.11753933
149	0xbd836afe	-0.064168915
150	0x3a4d6d5f	0.0007836427
151	0x3ea92275	0.330341
152	0xbb79c927	-0.003811428
153	0xbf8635b9	-1.0485145
154	0xbf2d729e	-0.67753017
155	0x3b14c17e	0.0022698338
156	0xbc3e9a70	-0.0116335
157	0xbfc43cb2	-1.5331023
158	0xbd8dd394	-0.06925121
159	0x3ac26b8a	0.0014833075
160	0xbde5eb08	-0.11226469
161	0xbf751efb	-0.957504
162	0xbf3640aa	-0.7119242
163	0x3c685b60	0.014181942
164	0xbb6ca0a6	-0.0036106496
165	0xbf12f31f	-0.57402223
166	0xbf74d392	-0.9563533
167	0xbbbfa5f7	-0.005848642
168	0xc06a620d	-3.6622345
169	0xc03b07f5	-2.9223607
170	0xbcccfe69	-0.025023656
171	0xbf329b96	-0.69768655
172	0xbf4b8a3f	-0.7950782
173	0xbf741651	-0.9534655
174	0xbf31ed10	-0.69502354
175	0x3d4e40d8	0.05035481
176	0xbf27a3b2	-0.65484154
177	0x3d9c4144	0.07629636
178	0xbcdacf08	-0.026710048
179	0xbf230cc3	-0.6369135
180	0x3ddd3bbe	0.108024105
181	0xbf3fd499	-0.74933773
182	0xbd86a840	-0.0657506
183	0xbd1d4530	-0.03839606
184	0xbf763bc0	-0.9618492
185	0xbd063b07	-0.032771137
186	0xc00ba57f	-2.181976
187	0xbf6a7e63	-0.915991
188	0xc0176468	-2.3655033
189	0x3cbd9419	0.023141908
190	0x3d337ee0	0.04382217
191	0xbf532c90	-0.8248987
192	0xbcd15cc8	-0.025556937
193	0x3dbba6b8	0.091626585
194	0xbd214e08	-0.039381057
195	0xc001332a	-2.0187478
196	0xbfa9e5ad	-1.3273216
197	0x3d7cdaec	0.061732218
198	0xc03db265	-2.9640133
199	0xbeaba92e	-0.3352751
200	0x3dd29be1	0.10283638
201	0xbf8f2e53	-1.1186012
202	0x3ec425e3	0.38310155
203	0x3ded061a	0.115734294
204	0xbfa74033	-1.3066467
205	0x3ece1dfd	0.40257254
206	0xbd48de7c	-0.049040303
207	0x3ca99368	0.020700172
208	0xbe8aba69	-0.27095345
209	0xbef8d8b5	-0.48602834
210	0xbf3fcbe4	-0.7492049
211	0x3dc1e072	0.09466638
212	0xbda0ce94	-0.07851902
213	0x3d115dd9	0.03548989
214	0x3d9f8320	0.07788682
215	0xbfa0c996	-1.2561519
216	0x3d57e7df	0.052711364
217	0xbd5ff1d1	-0.054673973
218	0xbf9dd68f	-1.2331103
219	0x3ba0b6c0	0.004904598
220	0xbd3a600a	-0.045501746
221	0xbfe32861	-1.7746698
222	0x3c68ae20	0.014201671
223	0xbdb80754	-0.08985773
224	0x3db2b37c	0.0872564
225	0xbda9159a	-0.08256073
226	0xbf16e499	-0.5894256
227	0xbaa9e980	-0.0012963265
228	0x3dd87863	0.10569837
229	0xbf1a8203	-0.6035463
230	0xbe8f7977	-0.28022358
231	0x3c5567e7	0.0130252605
232	0xbfce9ba9	-1.6141254
233	0xc0579965	-3.3687375
234	0xbd3ae4bb	-0.04562829
235	0xbe89afea	-0.26892024
236	0xbfa05c38	-1.2528143
237	0xbe08416c	-0.13306206
238	0xbef0177a	-0.4689291
239	0x3d95bacc	0.07311019
240	0xbfdf164f	-1.7428683
241	0xbd17d540	-0.037068605
242	0x3df08c88	0.11745554
243	0xbf1f2304	-0.62162805
244	0x3d34ed8c	0.044171855
245	0xbf3155d5	-0.69271594
246	0x3d52a4ec	0.051426813
247	0x3d2e0bcc	0.04249172
248	0xbf06c4f0	-0.5264425
249	0x3d05fbdc	0.032710895
250	0xc04f9eb6	-3.244062
251	0xbf1ff477	-0.624824
252	0xbfdddb2a	-1.7332509
253	0xbd527614	-0.05138214
254	0xbd441f61	-0.047881488
255	0xbef13b68	-0.47115636

fc3.bias f4 [4]
0	0xbf4f7cf1	-0.8105002
1	0x3f70602a	0.93896735
2	0x3fe39963	1.7781185
3	0xc0320eff	-2.7821653
