FE+DQN_demo/results/dqn_model_episode_500.pth (torch, 21396 bytes, 6 tensors)

fc1.weight f4 [64, 3]
-0.5582912 -0.39208537 -0.24614322 0.3159124 0.95120525 -2.0999048 -0.5110562 0.7563226
0.5674154 0.6420716 -0.4082637 0.6940262 0.82465845 -0.41098487 0.45644632 0.5120118
1.1338236 -2.0430722 0.097192585 -0.40021384 -0.1458633 -0.4007203 0.66301036 0.49861103
1.1402476 -0.47490832 0.4615468 -0.75330275 0.8785821 0.55981547 -0.12933086 1.6201683
-1.208261 -0.055679146 0.83593005 0.39322567 -1.7211872 -1.8312762 0.025078084 0.16070163
-0.16840729 -0.26471615 -0.15451686 1.1942532 0.12276168 -0.12211748 1.5549692 -1.4563017
0.06131196 -0.34150305 -0.2961661 -0.60740507 0.9430489 0.24845493 0.11844416 1.2190188
-1.9885942 -0.15554994 -0.38487667 -0.08915663 -0.94698113 1.3254348 0.036047395 0.6233027
-0.42215997 0.71020114 0.31403443 0.024184769 -0.34803858 0.30331418 1.1107559 -0.066770196
-1.5307169 -1.5819495 0.020360274 -0.3061021 0.7207474 0.54582167 0.20121983 1.1921664
0.4316595 0.93880403 -0.40300804 0.44790328 -0.5042434 0.053563893 -0.38163307 0.77661026
-0.4261338 0.58870405 -0.29549763 0.7354448 0.5254439 -0.06474985 1.4633678 -1.0045074
0.5668987 -0.48292923 -0.028394282 0.20690401 1.0970871 -2.1872368 -0.4867797 1.054227
-0.013278259 -0.11252779 -0.0013746619 -0.4408787 0.34276602 1.1879114 -0.3298276 -0.27054664
1.1164337 0.54670507 0.44470996 -0.37279907 0.70643693 0.08727327 0.024815451 -0.051861487
0.016493626 1.4536029 -1.2977066 0.045955118 1.1751206 -1.4196764 -1.3505946 -1.5635889
0.100286245 0.043873597 1.4756112 -1.9744945 -0.052554935 1.5078291 -0.54393816 -0.29737815
1.1847986 0.062224083 -0.03365714 1.2738363 -1.5824039 0.30094415 -0.34619862 -0.57428056
-0.8155033 0.04849636 0.5570906 -0.09034479 -0.34113538 -0.25579733 0.13106775 -0.2287769
-0.27182204 -0.6971194 0.5442242 0.5009675 1.0103338 -0.38986748 0.24309017 0.13936861
1.1006482 0.13456412 -0.22538677 1.7345883 -0.9078178 -0.20612472 0.7178608 0.31209537
-0.017842123 0.03841749 -0.12473607 0.5090532 1.4723796 -0.057274614 -0.3129814 0.9357331
0.1623274 -0.516379 -0.16887537 -0.36489215 -0.20899522 1.2408687 0.24823034 0.3775855
-0.3133649 0.57604706 0.07595551 -0.29011276 -0.49887052 -0.6382155 0.8075183 0.4037388
00000000: 2cec 0ebf 6abf c8be f80c 7cbe 45bf a13e
00000010: 3082 733f d764 06c0 94d4 02bf 5c9e 413f
00000020: 2342 113f ce5e 243f f107 d1be b3ab 313f
00000030: d11c 533f 9c6c d2be 55b3 e93e 3513 033f
00000040: 2221 913f b2c1 02c0 e80c c73d d4e8 ccbe
00000050: 305d 15be 362b cdbe 0cbb 293f f249 ff3e
00000060: a2f3 913f 2f27 f3be dd4f ec3e 73d8 40bf
00000070: c2ea 603f 1150 0f3f 4f6f 04be ad61 cf3f
00000080: 4ca8 9abf d10f 64bd 83ff 553f e054 c93e
00000090: dd4f dcbf 4267 eabf 8e70 cd3c f88e 243e
000000a0: f672 2cbe e088 87be ab39 1ebe 4add 983f
000000b0: 7a6a fb3d bb18 fabd 3b09 c73f 1868 babf
000000c0: 4022 7b3d 7dd9 aebe 15a3 97be e67e 1bbf
000000d0: a76b 713f f86a 7e3e da92 f23d cf08 9c3f
000000e0: 418a febf 7c48 1fbe 8e0e c5be c097 b6bd
000000f0: 5b6d 72bf d9a7 a93f 6fa6 133d c490 1f3f
00000100: 5a25 d8be becf 353f 1fc9 a03e 231f c63c
00000110: 1d32 b2be ff4b 9b3e 402d 8e3f d0be 88bd
00000120: 88ee c3bf 527d cabf 97ca a63c 6ab9 9cbe
00000130: e782 383f f8ba 0b3f 920c 4e3e e998 983f
00000140: 7902 dd3e 7655 703f 1257 cebe 9453 e53e
00000150: 1816 01bf d065 5b3d 6965 c3be eecf 463f
00000160: 362e dabe 4fb5 163f 774b 97be 1c46 3c3f
00000170: 7e83 063f 929b 84bd a34f bb3f b393 80bf
00000180: 4620 113f 8042 f7be 209b e8bc a5de 533e
00000190: 5a6d 8c3f b0fb 0bc0 303b f9be e9f0 863f
000001a0: 0e8d 59bc f874 e6bd 002e b4ba daba e1be
000001b0: 077f af3e 7b0d 983f 2adf a8be 1785 8abe
000001c0: 4de7 8e3f ddf4 0b3f 06b1 e33e 85df bebe
000001d0: 0dd9 343f 54bc b23d c649 cb3c b66c 54bd
000001e0: a41d 873c a90f ba3f 401b a6bf 6f3b 3c3d
000001f0: 5a6a 963f f5b7 b5bf 49e0 acbf ae23 c8bf
00000200: e062 cd3d cdb4 333d d4e0 bc3f 3cbc fcbf
00000210: d843 57bd 8b00 c13f 883f 0bbf f341 98be
00000220: 7ba7 973f aede 7e3d 12dc 09bd 110d a33f
00000230: 368c cabf 5a15 9a3e f240 b1be 0d04 13bf
00000240: d3c4 50bf 1fa4 463d 7d9d 0e3f b006 b9bd
00000250: 4ca9 aebe def7 82be a036 063e 7e44 6abe
00000260: 422c 8bbe 6b76 32bf 4752 0b3f 683f 003f
00000270: 9e52 813f b69c c7be a1ec 783e a5b6 0e3e
00000280: 0ae2 8c3f 2dcb 093e cacb 66be fd06 de3f
00000290: bf66 68bf 5c12 53be bac5 373f f7ca 9f3e
000002a0: a529 92bc a85b 1d3d a075 ffbd 4f51 023f
000002b0: ef76 bc3f c998 6abd 193f a0be 348c 6f3f
000002c0: 2739 263e 6a31 04bf aaed 2cbe 25d3 babe
000002d0: d802 56be c9d4 9e3f 1830 7e3e e352 c13e
000002e0: 5d71 a0be d277 133f 908e 9b3d a989 94be
000002f0: f56b ffbe 1762 23bf 85b9 4e3f dab6 ce3e

fc1.bias f4 [64]
0.14464414 -0.0424067 0.9220077 0.29059672 0.5065798 0.034800258 0.2760433 0.38348585
0.55909026 0.077811874 1.2109607 0.7658046 0.084961005 0.4368651 0.45336854 0.5265699
0.15073377 0.05191693 0.42796326 0.12664813 0.6716636 0.36494425 -0.19224134 0.5458503
0.822677 0.4053581 0.13888931 0.17403671 -0.52878445 0.18885107 1.0630097 1.749228
-0.20084319 -0.3319661 0.6700835 0.14031893 1.6358545 0.84269685 -0.02982545 -0.35408753
1.2515539 1.0806568 2.1542916 -0.32685652 1.2417781 0.034061275 0.40966618 -0.024848342
1.6756102 0.5500202 0.28593153 0.8459374 0.449102 0.878161 1.2869147 0.62611467
0.0336005 0.4728646 1.0411631 0.087251544 0.18438882 -0.018824626 0.2789076 0.39262354
00000000: 981d 143e a6b2 2dbd b208 6c3f 18c9 943e
00000010: 37af 013f b78a 0e3d 8c55 8d3e 4258 c43e
00000020: 8a20 0f3f d55b 9f3d c300 9b3f c50b 443f
00000030: 0900 ae3d c8ac df3e ec1f e83e 49cd 063f
00000040: f459 1a3e d9a6 543d 001e db3e 0cb0 013e
00000050: 25f2 2b3f f9d9 ba3e eada 44be d8bc 0b3f
00000060: f69a 523f 198b cf3e 0039 0e3e ae36 323e
00000070: 6b5e 07bf 2d62 413e b410 883f b4e6 df3f
00000080: d6a9 4dbe 76f7 a9be 988a 2b3f c4af 0f3e
00000090: ae63 d13f fbba 573f 8154 f4bc f64a b5be
000000a0: eb32 a03f f652 8a3f eadf 0940 bd59 a7be
000000b0: 96f2 9e3f d683 0b3d c4bf d13e c08e cbbc
000000c0: 657a d63f 20ce 0c3f 9e65 923e 5a8f 583f
000000d0: b3f0 e53e 29cf 603f 9fb9 a43f 0d49 203f
000000e0: aea0 093d 4f1b f23e d544 853f f0b0 b23d
000000f0: 6cd0 3c3e 1a36 9abc facc 8e3e f405 c93e

fc2.weight f4 [64, 64]
0.0106969625 0.022692412 -0.09058623 0.069601506 0.04329583 -0.119608924 0.036803216 -0.0100630075
-0.112507954 -0.11046077 0.082867384 -0.023152992 -0.004103124 0.1048293 0.07366048 0.098725885
0.02596502 0.09761979 -0.11376096 0.012327105 -0.06835835 0.042864904 -0.062406793 -0.08267474
-0.055304155 -0.07723206 -0.021622568 0.025654852 -0.025903538 -0.06759524 0.018876344 -0.07359116
-0.01357384 -0.0007094294 0.09860431 0.070966214 -0.05985552 -0.025307536 -0.07614973 -0.0037882328
-0.02975656 -0.1153636 -0.0425054 0.06124991 -0.016675115 0.10833825 0.052144215 -0.025776684
-0.003087446 0.0066925436 0.008237705 0.09540039 -0.08944948 0.022932142 -0.05016777 -0.01243861
0.05264698 0.013523266 0.06297757 0.056016058 -0.031285778 0.018967196 0.001250416 -0.050499037
0.1082346 0.09558706 -0.005638838 0.0069877505 -0.08324283 -0.11383487 -0.07784386 -0.025677323
0.11119373 -0.043898895 -0.04182452 -0.12184125 -0.08585392 0.043596283 0.10136761 -0.11435233
0.030718774 0.12241231 -0.0916675 0.082638025 -0.0090055615 -0.09923591 0.03016974 -0.10984574
-0.051583543 -0.11874412 -0.024221644 0.10557033 0.09903613 0.115155846 -0.10943811 0.054685935
0.011772931 -0.0027289987 0.0685152 0.093275025 0.08016519 -0.05695793 -0.028336838 -0.074789956
-0.02951315 0.056797102 0.120843485 0.055364057 0.12464328 -0.066456854 -0.066229 -0.107069805
0.04418242 -0.029493928 0.09132898 -0.032757893 -0.08533442 -0.016095072 -0.04408519 -0.0011442751
0.038257718 -0.06805523 -0.0043866634 -0.020148024 -0.028183326 -0.07086842 0.092850834 -0.07803917
0.089152575 -0.05556257 0.08312158 0.04605393 -0.043675408 0.11782995 0.11956824 -0.06530033
-0.034429282 0.014662847 -0.09389447 -0.052412108 -0.069659084 -0.089474946 0.07366887 -0.01306729
-0.030117065 -0.093140736 0.09204589 0.04315543 -0.0076987445 0.025656804 -0.10181631 -0.06797169
-0.08553757 0.03905058 -0.0015559345 -0.013917446 0.02775748 -0.06331012 -0.084926024 -0.08531916
-0.07724877 -0.09714091 -0.014289185 -0.06003551 0.076673806 0.034928635 0.11986509 0.011938155
-0.0937397 0.0946662 -0.10253501 -0.066784695 -0.054611146 0.06132719 -0.043320358 0.09495087
-0.029713586 0.10561323 0.12358463 -0.082699805 -0.014331907 -0.08276771 -0.082682595 0.056254596
-0.09132972 0.069137424 -0.105484486 -0.0006316006 -0.10962623 -0.036662877 -0.090258434 0.049813762
-0.059571296 -2.9655259 -0.090223484 0.011749945 0.04114125 -1.699586 0.07825023 0.09199436
0.12978396 -0.024262479 0.29840264 -0.026423836 -0.72418875 0.11315398 0.07212563 0.30083412
-0.05006492 -0.01503541 -1.0435121 -0.017390624 -0.20993084 -0.05013116 0.08625978 0.4040306
-0.58543724 0.0326719 -0.047542486 -0.009833731 0.033252046 0.12051301 0.10885713 0.17723463
-0.0745431 -2.588281 0.36032516 0.123116314 0.021821132 0.033093184 0.0098527055 0.02170166
0.46978003 0.26760742 -1.2976865 -0.44044006 -0.85237986 0.043835353 -0.06664113 0.056296587
-0.0635787 -0.07191849 0.08700286 -0.14270806 0.11086578 0.11619541 -0.04853614 -0.024493493
0.022257272 0.51465255 -0.049290866 0.0052482784 0.14357412 0.0022978606 0.12090832 0.00049110095
00000000: 5042 2f3c 70e5 b93c 4685 b9bd 3c8b 8e3d
00000010: f856 313d 86f5 f4bd f8be 163d 50df 24bc
00000020: 926a e6bd 4239 e2bd 60b6 a93d 58ab bdbc
00000030: 8073 86bb beb0 d63d 4edb 963d cc30 ca3d
00000040: 98b4 d43c e2ec c73d 82fb e8bd a0f7 493c
00000050: 76ff 8bbd 1c93 2f3d 449e 7fbd 6051 a9bd
00000060: 9c86 62bd d82b 9ebd d021 b1bc 202a d23c
00000070: a833 d4bc 606f 8abd 90a2 9a3c f6b6 96bd
00000080: d064 5ebc 00f9 39ba 0ef1 c93d bc56 913d
00000090: 102b 75bd c051 cfbc 64f4 9bbd 0044 78bb
000000a0: 08c4 f3bc c043 ecbd 241a 2ebd 30e1 7a3d
000000b0: 409a 88bc 72e0 dd3d 2c95 553d a029 d3bc
000000c0: c056 4abb 204d db3b 70f7 063c 4861 c33d
000000d0: 4a31 b7bd 30dc bb3c b87c 4dbd 50cb 4bbc
000000e0: 5ca4 573d b090 5d3c 62fa 803d 1871 653d
000000f0: 8425 00bd 1861 9b3c 00e5 a33a 14d8 4ebd
00000100: 1aaa dd3d 26c3 c33d 00c6 b8bb 80f9 e43b
00000110: 387b aabd 4222 e9bd 9a6c 9fbd 4059 d2bc
00000120: 8ab9 e33d 54cf 33bd 3050 2bbd e887 f9bd
00000130: 2ed4 afbd 0492 323d d299 cf3d 8e31 eabd
00000140: f0a5 fb3c 4eb3 fa3d 2cbc bbbd 203e a93d
00000150: 108c 13bc 323c cbbd 8826 f73c cef6 e0bd
00000160: 4449 53bd 1e30 f3bd 786c c6bc 4235 d83d
00000170: 74d3 ca3d d4d6 eb3d 1621 e0bd 5cfe 5f3d
00000180: 40e3 403c 00d9 32bb b251 8c3d fa06 bf3d
00000190: a62d a43d b84c 69bd a822 e8bc 7a2b 99bd
000001a0: 90c5 f1bc 14a4 683d ca7c f73d 6cc5 623d
000001b0: fa44 ff3d 881a 88bd 12a3 87bd 6a47 dbbd
000001c0: a0f8 343d 409d f1bc b00a bb3d 242d 06bd
000001d0: d0c3 aebd d0d9 83bc ac92 34bd 80fb 95ba
000001e0: 20b4 1c3d 8a60 8bbd 00be 8fbb 780d a5bc
000001f0: b8e0 e6bc 7623 91bd 9428 be3d 00d3 9fbd
00000200: a095 b63d 9495 63bd a63b aa3d 0ca3 3c3d
00000210: fce4 32bd d450 f13d 32e0 f43d 2ebc 85bd
00000220: b805 0dbd 703c 703c be4b c0bd 14ae 56bd
00000230: 6ca9 8ebd a43e b7bd b4df 963d 3018 56bc
00000240: 10b8 f6bc 92c0 bebd 8e82 bc3d c0c3 303d
00000250: c045 fcbb 382e d23c 1285 d0bd be34 8bbd
00000260: 522e afbd 80f3 1f3d 80f0 cbba 0006 64bc
00000270: a863 e33c bca8 81bd b2ed adbd d0bb aebd
00000280: 9a34 9ebd d0f1 c6bd 301d 6abc cce7 75bd
00000290: 2807 9d3d 5411 0f3d d47b f53d 4098 433c
000002a0: 9afa bfbd 5ae0 c13d e0fd d1bd 6ac6 88bd
000002b0: f0af 5fbd 3832 7b3d b070 31bd 9a75 c23d
000002c0: e869 f3bc c04b d83d f019 fd3d 845e a9bd
000002d0: 60d0 6abc 1e82 a9bd 7e55 a9bd 386b 663d
000002e0: 140b bbbd ec97 8d3d 4008 d8bd 0092 25ba
000002f0: b883 e0bd d02b 16bd 6ad9 b8bd 8409 4c3d
00000300: 0801 74bd 2dcb 3dc0 17c7 b8bd d782 403c
00000310: ba83 283d 098c d9bf a841 a03d 8a67 bc3d
00000320: 16e6 043e 1bc2 c6bc 3bc8 983e cd76 d8bc
00000330: 6f64 39bf 46bd e73d 9ab6 933d ee06 9a3e
00000340: e010 4dbd 1557 76bc ce91 85bf c876 8ebc
00000350: 1cf8 56be 5556 4dbd f8a8 b03d 19dd ce3e
00000360: 37df 15bf f8d2 053d e9bb 42bd a81d 21bc
00000370: 4c33 083d 86cf f63d 7df0 de3d ff7c 353e
00000380: 0eaa 98bd 65a6 25c0 8a7c b83e 6824 fc3d
00000390: 3bc2 b23c b88c 073d 3e6d 213c aec7 b13c
000003a0: 0287 f03e d703 893e 971a a6bf 5c81 e1be
000003b0: 9135 5abf b38c 333d 257b 88bd 4097 663d
000003c0: 8d35 82bd 004a 93bd 8e2e b23d 1022 12be
000003d0: 990d e33d dcf7 ed3d d5cd 46bd 94a6 c8bc
000003e0: e254 b63c 45c0 033f 38e5 49bd c0f9 ab3b
000003f0: 1805 133e b497 163b c89e f73d 3abd 003a

fc2.bias f4 [64]
-0.06374028 -0.06491457 0.036493346 0.18696293 0.97717947 -0.116909236 0.030360917 0.38741285
-0.015894463 0.51569897 -0.017680775 0.010167768 0.727638 0.017431993 -0.0959591 -0.118801676
0.3214469 0.27682734 0.40346554 0.046241812 -3.6880374e-05 -0.03109014 0.07317814 0.9410562
-0.027694317 0.32333767 0.58801895 -0.024536667 -0.09441968 -0.4329267 -0.013504833 -0.11878526
0.07599932 0.11877304 0.21856757 -0.0687743 -0.08642361 0.55219007 0.20310426 -0.025515158
-0.47612113 3.6519704 -0.08467707 0.09263019 0.65223044 0.2990355 0.18726206 -0.07517105
0.58961165 0.063942194 -0.11749024 0.41568404 0.05302906 0.37867683 -0.08881028 -0.12654126
0.30326325 0.0021787353 1.3043123 0.3511016 -0.6979716 -0.0699064 0.074005924 0.2857787
00000000: 448a 82bd eef1 84bd 0c7a 153d 3673 3f3e
00000010: 6f28 7a3f 1c6e efbd 75b7 f83c fa5a c63e
00000020: 1b35 82bc d904 043f 46d7 90bc b696 263c
00000030: 7c46 3a3f 8acd 8e3c 3486 c4bd 4b4e f3bd
00000040: b094 a43e 50bc 8d3e 0993 ce3e 0e68 3d3d
00000050: 00b0 1ab8 c0b0 febc 6cde 953d 0fe9 703f
00000060: 31df e2bc 848c a53e 6988 163f 1f01 c9bc
00000070: 1b5f c1bd 92a8 ddbe 6043 5dbc b045 f3bd
00000080: 88a5 9b3d 483f f33d 2dd0 5f3e 8ad9 8cbd
00000090: ddfe b0bd 545c 0d3f 90fa 4f3e 2a05 d1bc
000000a0: 26c6 f3be e2b9 6940 2c6b adbd e6b4 bd3d
000000b0: 93f8 263f 2e1b 993e a0c1 3f3e 48f3 99bd
000000c0: caf0 163f 20f4 823d b99e f0bd 8ad4 d43e
000000d0: 0035 593d eee1 c13e 2ae2 b5bd 0894 01be
000000e0: 5245 9b3e 1dc9 0e3b b5f3 a63f 97c3 b33e
000000f0: 44ae 32bf 162b 8fbd 6b90 973d 9651 923e

fc3.weight f4 [4, 64]
-0.06131272 0.03659673 0.0049116462 -0.1552267 0.13329116 0.11556426 0.1143501 -0.71820265
0.04014433 -0.9163367 0.40163705 -0.1044734 -0.85425484 0.5359902 0.10939483 0.06730079
-0.64949226 -0.80362713 -0.78729695 0.10010056 -0.08411144 0.12227914 0.041300967 0.02196584
0.051129147 -0.63573295 -0.9246073 -0.1150475 0.016473636 -1.4807564 -0.053276107 -0.09185815
0.01719043 -0.6789412 -0.8414528 0.059851423 0.023745878 -0.7344294 -0.6769164 0.082946986
-1.7225338 -0.7050476 0.052020255 -0.83633244 -1.0030544 -0.77718335 -0.6834472 0.08712031
-1.1631676 0.072310776 0.086412504 -0.694605 0.007512778 -0.84541535 0.07058406 0.045037344
-0.68560135 0.03796333 -1.7658327 -0.81049573 -1.5467501 -0.06158246 -0.011484272 -0.69866705
0.095874384 0.0026189685 0.05163379 -0.017364426 -0.0036853075 -0.014261201 0.08167451 -0.7898203
-0.08477939 -0.5182122 0.36967874 -0.009710863 -0.71203053 0.25207424 0.060077026 0.018809924
-0.4945041 -0.8744763 -0.36887833 -0.037131954 -0.0053035766 -0.05901061 0.08167839 -0.020590702
0.097448856 -0.73137397 -0.681008 0.083049685 -0.043551013 -2.7803493 -0.09910408 0.032398164
-0.024259835 -0.5953039 -0.51216376 -0.11750248 0.074828565 -0.49741295 -0.59988964 -0.05383252
-2.9469955 -2.2528224 0.02940434 -0.345971 -0.8791802 -0.6616389 -0.43424982 -0.010422114
-0.8027474 -0.08768369 0.0887265 -0.57145995 -0.093721196 -0.5762712 0.024100974 0.08188625
-0.72176486 -0.023108557 -2.658347 -0.6711422 -3.0071397 0.01715529 0.08510144 -0.55458874
0.032237843 0.051147565 0.09405866 0.13047467 0.32734597 0.019224646 0.21383575 -0.98732734
0.055845104 -0.49971905 0.40584087 -0.057826728 -0.64391017 0.37068394 0.0497666 -0.034280322
-0.70427996 -0.96036017 -0.48483127 0.0059338114 -0.11753933 -0.064168915 -0.01836144 0.3137368
-0.003811428 -1.0040902 -0.586903 0.0022698338 -0.0116335 -1.6722887 -0.06925121 0.0014833075
-0.11226469 -0.8969174 -0.6657134 0.014181942 -0.0036106496 -0.49974215 -0.9056468 -0.005848642
-4.1268063 -0.99722844 0.0067344657 -0.70845145 -0.7262199 -0.8832397 -0.66334015 0.05035481
-0.5861313 0.07629636 -0.026710048 -0.58581656 0.108024105 -0.7005171 -0.0657506 -0.03839606
-0.8726739 -0.032771137 -1.8868903 -0.8371074 -2.9331877 0.054906234 0.04382217 -0.8158095
-0.025556937 0.091626585 -0.039381057 -0.15272243 -0.48805872 0.061732218 -0.1637825 -0.50612795
0.10283638 -0.943797 0.37754607 0.115734294 -1.1498159 0.38897702 -0.037717953 0.020700172
-0.38157922 -0.65852004 -0.6947731 0.09466638 -0.07851902 0.03548989 0.07788682 -0.5435381
0.052711364 -0.2874654 -1.0961137 0.004904598 -0.045501746 -2.1754696 0.014201671 -0.08985773
0.0872564 -0.3074869 -0.61801803 -0.0012963265 0.10569837 -0.6097186 -0.47561362 0.0130252605
-1.6141254 -0.8936772 -0.04562829 -0.3968342 -1.1240448 -0.3263446 -0.536225 0.07311019
-1.5380815 -0.037068605 0.11745554 -0.6360361 0.044171855 -0.6924987 0.051426813 0.04249172
-0.65183914 0.032710895 -3.0067315 -0.6968192 -1.7332509 -0.05138214 -0.047881488 -0.5802623
00000000: 0c23 7bbd 74e6 153d e0f1 a03b bff3 1ebe
00000010: 7a7d 083e f4ac ec3d 6330 ea3d 21dc 37bf
00000020: 626e 243d 0b95 6abf 5fa3 cd3e 26f6 d5bd
00000030: 72b0 5abf a736 093f 660a e03d ffd4 893d
00000040: 2045 26bf 82ba 4dbf 4b8c 49bf 8601 cd3d
00000050: 9e42 acbd 7c6d fa3d 342b 293d b5f1 b33c
00000060: cc6c 513d 65bf 22bf 10b3 6cbf 069e ebbd
00000070: b8f3 863c 6d89 bdbf 0c38 5abd 2020 bcbd
00000080: f2d2 8c3c 17cf 2dbf 7369 57bf c426 753d
00000090: b786 c23c 9103 3cbf 654a 2dbf 1ce0 a93d
000000a0: fd7b dcbf 007e 34bf 3113 553d e219 56bf
000000b0: 1664 80bf 7df5 46bf 65f6 2ebf 226c b23d
000000c0: ade2 94bf ac17 943d 0af9 b03d a2d1 31bf
000000d0: c02d f63b 246d 58bf 608e 903d 1479 383d
000000e0: 9283 2fbf 707f 1b3d ce06 e2bf a67c 4fbf
000000f0: e8fb c5bf e43d 7cbd 8728 3cbc d8db 32bf
00000100: ca59 c43d 00a3 2b3b f47d 533d d73f 8ebc
00000110: 3385 71bb d0a7 69bc f744 a73d aa31 4abf
00000120: d1a0 adbd 8ea9 04bf 8846 bd3e 501a 1fbc
00000130: a247 36bf e00f 813e 5413 763d 4517 9a3c
00000140: a42f fdbe aedd 5fbf 9fdd bcbe ad17 18bd
00000150: a0c9 adbb 1cb5 71bd 0047 a73d d5ad a8bc
00000160: 4493 c73d 533b 3bbf 8a56 2ebf f415 aa3d
00000170: 8c62 32bd 3ef1 31c0 14f7 cabd f0b3 043d
00000180: 90bc c6bc d665 18bf 2a1d 03bf 24a5 f0bd
00000190: b83f 993d e9ac febe 5e92 19bf 7d7f 5cbd
000001a0: 939b 3cc0 3e2e 10c0 5fe1 f03c 1c23 b1be
000001b0: f411 61bf 2b61 29bf fe55 debe 84c1 2abc
000001c0: db80 4dbf 8293 b3bd 3db6 b53d 334b 12bf
000001d0: e6f0 bfbd 8286 13bf 686f c53c fab3 a73d
000001e0: 95c5 38bf 284e bdbc 5b22 2ac0 facf 2bbf
000001f0: fa74 40c0 4089 8c3c aa49 ae3d 87f9 0dbf
00000200: d40b 043d 1c80 513d d4a1 c03d 279b 053e
00000210: e499 a73e 017d 9d3c c2f7 5a3e 7cc1 7cbf
00000220: d6bd 643d 2ddb ffbe 60ca cf3e b8db 6cbd
00000230: 4cd7 24bf 49ca bd3e 10d8 4b3d 8669 0cbd
00000240: b14b 34bf 2ada 75bf ce3b f8be 6b70 c23b
00000250: 76b8 f0bd fe6a 83bd bb6a 96bc 1ca2 a03e
00000260: 27c9 79bb 0786 80bf 463f 16bf 7ec1 143b
00000270: 709a 3ebc 8e0d d6bf 94d3 8dbd 8a6b c23a
00000280: 08eb e5bd 619c 65bf 326c 2abf 605b 683c
00000290: a6a0 6cbb 34de ffbe 78d8 67bf f7a5 bfbb
000002a0: cc0e 84c0 5d4a 7fbf cbac dc3b 135d 35bf
000002b0: 8ce9 39bf ff1b 62bf a9d0 29bf d840 4e3d
000002c0: b30c 16bf 4441 9c3d 08cf dabc 13f8 15bf
000002d0: be3b dd3d 1755 33bf 40a8 86bd 3045 1dbd
000002e0: 8f67 5fbf 073b 06bd 9f85 f1bf ac4c 56bf
000002f0: 59b9 3bc0 5ce5 603d e07e 333d e4d8 50bf
00000300: c85c d1bc b8a6 bb3d 084e 21bd 4563 1cbe
00000310: d5e2 f9be ecda 7c3d 9ab6 27be 9a91 01bf
00000320: e19b d23d ae9c 71bf b84d c13e 1a06 ed3d
00000330: 2b2d 93bf ff27 c73e 247e 1abd 6893 a93c
00000340: 5a5e c3be c594 28bf a6dc 31bf 72e0 c13d
00000350: 94ce a0bd d95d 113d 2083 9f3d 5025 0bbf
00000360: dfe7 573d aa2e 93be 744d 8cbf c0b6 a03b
00000370: 0a60 3abd e53a 0bc0 20ae 683c 5407 b8bd
00000380: 7cb3 b23d ec6e 9dbe 6e36 1ebf 80e9 a9ba
00000390: 6378 d83d 8516 1cbf a183 f3be e767 553c
000003a0: a99b cebf 07c8 64bf bbe4 3abd da2d cbbe
000003b0: b3e0 8fbf a416 a7be 0b46 09bf ccba 953d
000003c0: dbdf c4bf 40d5 17bd 888c f03d 43d3 22bf
000003d0: 8ced 343d 9847 31bf eca4 523d cc0b 2e3d
000003e0: eede 26bf dcfb 053d 4a6e 40c0 be62 32bf
000003f0: 2adb ddbf 1476 52bd 611f 44bd 128c 14bf

fc3.bias f4 [4]
-0.000114636525 -0.44388834 0.8737507 -1.717714
00000000: 0469 f0b8 5545 e3be 20ae 5f3f 0dde dbbf
