FE+DQN_demo/results/dqn_model_episode_900.pth (torch, 21396 bytes, 6 tensors)

fc1.weight f4 [64, 3]
00000000: 2cec 0ebf 6abf c8be f80c 7cbe 14c6 563e
00000010: 1c48 633f 4cc0 0bc0 c4f9 19bf 5c57 593f
00000020: b524 073f 9f70 133f ddb4 0dbf 6808 2a3f
00000030: f0e0 4f3f d679 06bf b7f0 df3e add3 983d
00000040: 59d3 723f 184f 12c0 e80c c73d d4e8 ccbe
00000050: 305d 15be 708d 04bf e276 343f 743b e03e
00000060: 19d0 8c3f ba54 2ebf b478 dd3e e936 52bf
00000070: 0f81 6f3f ce00 0a3f a83f 163e e20e aa3f
00000080: 1c54 e5bf 3fa0 e6bd c016 6f3f 636f b63e
00000090: dd4f dcbf 4267 eabf 8e70 cd3c f88e 243e
000000a0: f672 2cbe e088 87be 1964 29be 70e4 aa3f
000000b0: 4653 d23d dce9 a43d aa7e a63f c388 fabf
000000c0: 4022 7b3d 7dd9 aebe 15a3 97be 5ec7 24bf
000000d0: 5f11 883f 96a1 693e 67f8 ab3d 487c 853f
000000e0: 6319 13c0 7c48 1fbe 8e0e c5be c097 b6bd
000000f0: f098 79bf 7a77 c03f f35d ad3c 095e 113f
00000100: 45fa 04bf ceb9 2f3f 1fc9 a03e 231f c63c
00000110: 1d32 b2be dd47 003f 48ea ce3f 0a95 04be
00000120: 88ee c3bf 527d cabf 97ca a63c 9bb0 c2be
00000130: d50a 463f cc6f 023f ecae 3a3e adfd a13f
00000140: b22b d33e 9825 6c3f 7630 17bf bfa2 db3e
00000150: 1816 01bf d065 5b3d 6965 c3be 6a86 3b3f
00000160: 8ca7 0fbf e37a 103f 6874 cdbe 42fc 523f
00000170: 13d4 ea3e a5d0 4c3e 6d83 9a3f 01c2 c9bf
00000180: 4620 113f 8042 f7be 209b e8bc 6829 c83c
00000190: 043b 803f 89bc 13c0 209f d1be 4155 eb3f
000001a0: c688 20bf f874 e6bd 002e b4ba daba e1be
000001b0: cbee febc 5a58 c83f ec32 a3bf 9611 a1be
000001c0: 87fb 983f 0752 063f fcc3 d33e 8834 f1be
000001d0: 9e14 303f 54bc b23d c649 cb3c b66c 54bd
000001e0: 05e7 413e 476f 9a3f d89e e9bf 2bf8 473e
000001f0: 3026 803f 9569 e9bf 09c1 cdbf c313 e4bf
00000200: f526 ba3d c1fc b23d ae6c 9f3f 6baa 16c0
00000210: cbb1 823d a7c0 a93f b806 93bf 8d9b 9cbe
00000220: ad62 aa3f a27e 333d 28ec fc3d ecad 8b3f
00000230: aa13 00c0 5a15 9a3e f240 b1be 0d04 13bf
00000240: cd60 0cc0 5b16 693e f3d1 ce3e b006 b9bd
00000250: 4ca9 aebe def7 82be a036 063e 7e44 6abe
00000260: 422c 8bbe 1332 58bf e109 263f 0b25 e23e
00000270: 0870 8a3f 1054 3bbf 18bf 5e3e 3b13 013e
00000280: 00fc 9d3f 6af5 d63d 32b9 2c3d 9317 ba3f
00000290: 2b89 c4bf 75be 99be d616 543f 240f 663e
000002a0: a529 92bc a85b 1d3d a075 ffbd fa5d 123f
000002b0: 4334 d43f 6f09 edbc 8de8 afbe 7283 8b3f
000002c0: d9c0 073e 6a31 04bf aaed 2cbe 25d3 babe
000002d0: 555f 67be bdeb ac3f fdef 6a3e d9d6 b03e
000002e0: 46c2 d1be 2fd0 0e3f 908e 9b3d a989 94be
000002f0: f56b ffbe 2862 36bf ebe6 673f a77b c03e
-0.5582912 -0.39208537 -0.24614322 0.20973998 0.88781905 -2.1836119 -0.6014674 0.84898925
0.52790385 0.5759372 -0.553541 0.66419077 0.812026 -0.52529657 0.43738338 0.07462249
0.9485374 -2.2860775 0.097192585 -0.40021384 -0.1458633 -0.51778316 0.704939 0.4379536
1.1001006 -0.6809803 0.43256152 -0.82115036 0.935563 0.5390748 0.1467272 1.3285792
-1.7916293 -0.11261033 0.9339409 0.35631856 -1.7211872 -1.8312762 0.025078084 0.16070163
-0.16840729 -0.26471615 -0.1654209 1.3350964 0.102697894 0.08052418 1.3007405 -1.9572986
0.06131196 -0.34150305 -0.2961661 -0.6436671 1.0630301 0.22815546 0.08396988 1.0428553
-2.2984245 -0.15554994 -0.38487667 -0.08915663 -0.9749899 1.5036461 0.021162963 0.5678411
-0.5194438 0.6864289 0.31403443 0.024184769 -0.34803858 0.50109655 1.6165247 -0.12947479
-1.5307169 -1.5819495 0.020360274 -0.38025364 0.7736028 0.5095184 0.1823079 1.2655541
0.41244274 0.92244864 -0.5905832 0.42897603 -0.5042434 0.053563893 -0.38163307 0.73251975
-0.5611503 0.5643751 -0.40127873 0.82416165 0.45864925 0.20001467 1.2071358 -1.576233
0.5668987 -0.48292923 -0.028394282 0.024433807 1.001801 -2.3083823 -0.40941715 1.8385392
-0.627087 -0.11252779 -0.0013746619 -0.4408787 -0.031119725 1.5651963 -1.2749915 -0.3145873
1.195176 0.52468914 0.41360462 -0.4711039 0.6878146 0.08727327 0.024815451 -0.051861487
0.18935783 1.2065209 -1.82516 0.19528262 1.0011654 -1.8235346 -1.6074535 -1.7818531
0.09089462 0.08739615 1.2455041 -2.3541515 0.063815676 1.3261918 -1.1486425 -0.30587426
1.3311363 0.04382194 0.12349731 1.0912452 -2.0012002 0.30094415 -0.34619862 -0.57428056
-2.1934083 0.22762434 0.40394554 -0.09034479 -0.34113538 -0.25579733 0.13106775 -0.2287769
-0.27182204 -0.8445141 0.64858824 0.44168887 1.0815439 -0.73175144 0.21752584 0.12604992
1.2342529 0.10496028 0.042168804 1.4538444 -1.535436 -0.3002812 0.82847345 0.22466713
-0.017842123 0.03841749 -0.12473607 0.57174647 1.6578449 -0.028935162 -0.3435711 1.0899489
0.1325716 -0.516379 -0.16887537 -0.36489215 -0.2259496 1.3509442 0.22943111 0.34538916
-0.4096853 0.5578641 0.07595551 -0.29011276 -0.49887052 -0.71243525 0.9058673 0.3759434

fc1.bias f4 [64]
00000000: 981d 143e c177 e3bd 1e8e 103d b7e4 733f
00000010: 7b76 ad3f 9809 17be 8c55 8d3e 1d30 1fbf
00000020: ba0f a23f 443e 67bf efea 2b3f 164f 0fbe
00000030: 0900 ae3d c8ac df3e c88e c5be 54c8 923d
00000040: f459 1a3e 88b7 50bf 0a45 263e 0cb0 013e
00000050: 0c2a 6ebd 8988 913f eada 44be 8af1 1cbf
00000060: f69a 523f 4a90 1abf dcd0 58bf f431 783f
00000070: 6b5e 07bf a15f 703f c849 253e 196c a03f
00000080: d6a9 4dbe 2b2f dcbe cf0e b63f c4af 0f3e
00000090: e1bb 2040 c1f5 e4bd cbd4 4d3f f64a b5be
000000a0: 583f 4e3f e4dd 3d3f 062a 1a40 43e1 2cbf
000000b0: f8ee 6e3f 21c6 49bf 7d0e 5f3d c08e cbbc
000000c0: e3d0 0f40 20ce 0c3f 9e65 923e 6d7b 0a3b
000000d0: 2085 7a3f 2ec2 0d3d 4c22 413f e6f7 50be
000000e0: aea0 093d f030 24bf 3144 843e f0b0 b23d
000000f0: 1f47 37bf 73dc 523f facc 8e3e 3d69 fabe
0.14464414 -0.111068256 0.035291784 0.95270866 1.3551782 -0.14749753 0.2760433 -0.6218279
1.2661049 -0.90329385 0.67155355 -0.13995013 0.084961005 0.4368651 -0.38585496 0.07167116
0.15073377 -0.81530046 0.16237274 0.12664813 -0.058145568 1.1369792 -0.19224134 -0.6130606
0.822677 -0.6037642 -0.84693694 0.9695122 -0.52878445 0.9389592 0.16141427 1.2532989
-0.20084319 -0.43004736 1.4223269 0.14031893 2.5114672 -0.11179686 0.8040282 -0.35408753
0.80565405 0.74166703 2.408815 -0.6753122 0.9333339 -0.78817946 0.054457176 -0.024848342
2.2471244 0.5500202 0.28593153 0.0021130696 0.9785938 0.034609012 0.7544296 -0.20407066
0.0336005 -0.6413717 0.25833276 0.087251544 -0.715929 0.8236763 0.2789076 -0.48908415

fc2.weight f4 [64, 64]
00000000: 5042 2f3c 70e5 b93c 4685 b9bd 3c8b 8e3d
00000010: f856 313d 86f5 f4bd f8be 163d 50df 24bc
00000020: 926a e6bd 4239 e2bd 60b6 a93d 58ab bdbc
00000030: 8073 86bb beb0 d63d 4edb 963d cc30 ca3d
00000040: 98b4 d43c e2ec c73d 82fb e8bd a0f7 493c
00000050: 76ff 8bbd 1c93 2f3d 449e 7fbd 6051 a9bd
00000060: 9c86 62bd d82b 9ebd d021 b1bc 202a d23c
00000070: a833 d4bc 606f 8abd 90a2 9a3c f6b6 96bd
00000080: d064 5ebc 00f9 39ba 0ef1 c93d bc56 913d
00000090: 102b 75bd c051 cfbc 64f4 9bbd 0044 78bb
000000a0: 08c4 f3bc c043 ecbd 241a 2ebd 30e1 7a3d
000000b0: 409a 88bc 72e0 dd3d 2c95 553d a029 d3bc
000000c0: c056 4abb 204d db3b 70f7 063c 4861 c33d
000000d0: 4a31 b7bd 30dc bb3c b87c 4dbd 50cb 4bbc
000000e0: 5ca4 573d b090 5d3c 62fa 803d 1871 653d
000000f0: 8425 00bd 1861 9b3c 00e5 a33a 14d8 4ebd
00000100: 1aaa dd3d 26c3 c33d 00c6 b8bb 80f9 e43b
00000110: 387b aabd 4222 e9bd 9a6c 9fbd 4059 d2bc
00000120: 8ab9 e33d 54cf 33bd 3050 2bbd e887 f9bd
00000130: 2ed4 afbd 0492 323d d299 cf3d 8e31 eabd
00000140: f0a5 fb3c 4eb3 fa3d 2cbc bbbd 203e a93d
00000150: 108c 13bc 323c cbbd 8826 f73c cef6 e0bd
00000160: 4449 53bd 1e30 f3bd 786c c6bc 4235 d83d
00000170: 74d3 ca3d d4d6 eb3d 1621 e0bd 5cfe 5f3d
00000180: 40e3 403c 00d9 32bb b251 8c3d fa06 bf3d
00000190: a62d a43d b84c 69bd a822 e8bc 7a2b 99bd
000001a0: 90c5 f1bc 14a4 683d ca7c f73d 6cc5 623d
000001b0: fa44 ff3d 881a 88bd 12a3 87bd 6a47 dbbd
000001c0: a0f8 343d 409d f1bc b00a bb3d 242d 06bd
000001d0: d0c3 aebd d0d9 83bc ac92 34bd 80fb 95ba
000001e0: 20b4 1c3d 8a60 8bbd 00be 8fbb 780d a5bc
000001f0: b8e0 e6bc 7623 91bd 9428 be3d 00d3 9fbd
00000200: a095 b63d 9495 63bd a63b aa3d 0ca3 3c3d
00000210: fce4 32bd d450 f13d 32e0 f43d 2ebc 85bd
00000220: b805 0dbd 703c 703c be4b c0bd 14ae 56bd
00000230: 6ca9 8ebd a43e b7bd b4df 963d 3018 56bc
00000240: 10b8 f6bc 92c0 bebd 8e82 bc3d c0c3 303d
00000250: c045 fcbb 382e d23c 1285 d0bd be34 8bbd
00000260: 522e afbd 80f3 1f3d 80f0 cbba 0006 64bc
00000270: a863 e33c bca8 81bd b2ed adbd d0bb aebd
00000280: 9a34 9ebd d0f1 c6bd 301d 6abc cce7 75bd
00000290: 2807 9d3d 5411 0f3d d47b f53d 4098 433c
000002a0: 9afa bfbd 5ae0 c13d e0fd d1bd 6ac6 88bd
000002b0: f0af 5fbd 3832 7b3d b070 31bd 9a75 c23d
000002c0: e869 f3bc c04b d83d f019 fd3d 845e a9bd
000002d0: 60d0 6abc 1e82 a9bd 7e55 a9bd 386b 663d
000002e0: 140b bbbd ec97 8d3d 4008 d8bd 0092 25ba
000002f0: b883 e0bd d02b 16bd 6ad9 b8bd 8409 4c3d
00000300: 0801 74bd 3418 34c0 75df 16be 3669 33bf
00000310: ea19 17bf f36d a5bf a841 a03d 0541 41bd
00000320: 6fbd 18bf b644 1ebe dbdc a73e 16e9 e03b
00000330: 6f64 39bf 46bd e73d f81b 143f f7a4 c03e
00000340: e010 4dbd 00c6 4b3e 8f2e 82bf c876 8ebc
00000350: 1afa 973f 2d0f 38bf f8a8 b03d 5ccd 8a3f
00000360: 37df 15bf 423c 01be b9d9 71bd a9eb 49bf
00000370: 4c33 083d 8acf 18bf b495 ac3d 14a5 b73d
00000380: 0eaa 98bd 20c4 29c0 72b2 4940 6824 fc3d
00000390: 1e39 7dbf 9ce3 393d 218c 35bf aec7 b13c
000003a0: 46ca 083f 2872 ba3e 7512 e9bf 93b2 9abe
000003b0: ee3e 8bbf 2fa2 3a3f 79f9 fd3c 4097 663d
000003c0: 8494 40bf 004a 93bd 8e2e b23d 5c89 45be
000003d0: 15d2 aebf b63e 133f 4374 44be eadd dc3d
000003e0: e254 b63c 0f72 a33f 64b3 f03e c0f9 ab3b
000003f0: e0c6 c03e 2fd2 33bf c89e f73d 7b02 f13c
0.0106969625 0.022692412 -0.09058623 0.069601506 0.04329583 -0.119608924 0.036803216 -0.0100630075
-0.112507954 -0.11046077 0.082867384 -0.023152992 -0.004103124 0.1048293 0.07366048 0.098725885
0.02596502 0.09761979 -0.11376096 0.012327105 -0.06835835 0.042864904 -0.062406793 -0.08267474
-0.055304155 -0.07723206 -0.021622568 0.025654852 -0.025903538 -0.06759524 0.018876344 -0.07359116
-0.01357384 -0.0007094294 0.09860431 0.070966214 -0.05985552 -0.025307536 -0.07614973 -0.0037882328
-0.02975656 -0.1153636 -0.0425054 0.06124991 -0.016675115 0.10833825 0.052144215 -0.025776684
-0.003087446 0.0066925436 0.008237705 0.09540039 -0.08944948 0.022932142 -0.05016777 -0.01243861
0.05264698 0.013523266 0.06297757 0.056016058 -0.031285778 0.018967196 0.001250416 -0.050499037
0.1082346 0.09558706 -0.005638838 0.0069877505 -0.08324283 -0.11383487 -0.07784386 -0.025677323
0.11119373 -0.043898895 -0.04182452 -0.12184125 -0.08585392 0.043596283 0.10136761 -0.11435233
0.030718774 0.12241231 -0.0916675 0.082638025 -0.0090055615 -0.09923591 0.03016974 -0.10984574
-0.051583543 -0.11874412 -0.024221644 0.10557033 0.09903613 0.115155846 -0.10943811 0.054685935
0.011772931 -0.0027289987 0.0685152 0.093275025 0.08016519 -0.05695793 -0.028336838 -0.074789956
-0.02951315 0.056797102 0.120843485 0.055364057 0.12464328 -0.066456854 -0.066229 -0.107069805
0.04418242 -0.029493928 0.09132898 -0.032757893 -0.08533442 -0.016095072 -0.04408519 -0.0011442751
0.038257718 -0.06805523 -0.0043866634 -0.020148024 -0.028183326 -0.07086842 0.092850834 -0.07803917
0.089152575 -0.05556257 0.08312158 0.04605393 -0.043675408 0.11782995 0.11956824 -0.06530033
-0.034429282 0.014662847 -0.09389447 -0.052412108 -0.069659084 -0.089474946 0.07366887 -0.01306729
-0.030117065 -0.093140736 0.09204589 0.04315543 -0.0076987445 0.025656804 -0.10181631 -0.06797169
-0.08553757 0.03905058 -0.0015559345 -0.013917446 0.02775748 -0.06331012 -0.084926024 -0.08531916
-0.07724877 -0.09714091 -0.014289185 -0.06003551 0.076673806 0.034928635 0.11986509 0.011938155
-0.0937397 0.0946662 -0.10253501 -0.066784695 -0.054611146 0.06132719 -0.043320358 0.09495087
-0.029713586 0.10561323 0.12358463 -0.082699805 -0.014331907 -0.08276771 -0.082682595 0.056254596
-0.09132972 0.069137424 -0.105484486 -0.0006316006 -0.10962623 -0.036662877 -0.090258434 0.049813762
-0.059571296 -2.8139772 -0.1473368 -0.70082414 -0.59023917 -1.2924179 0.07825023 -0.047181148
-0.5966405 -0.15455899 0.32785687 0.0068637235 -0.72418875 0.11315398 0.57855177 0.37625858
-0.05006492 0.1989975 -1.0170459 -0.017390624 1.18732 -0.71898156 0.08625978 1.0843921
-0.58543724 -0.12620643 -0.059045527 -0.78875214 0.033252046 -0.5969168 0.08426991 0.08967033
-0.0745431 -2.6525955 3.1515164 0.123116314 -0.9891528 0.04538308 -0.70916945 0.02170166
0.53433645 0.3641522 -1.8208758 -0.30214366 -1.087858 0.7290372 0.031002747 0.056296587
-0.75226617 -0.07191849 0.08700286 -0.1929068 -1.3657862 0.57517564 -0.19184975 0.10784514
0.022257272 1.2769183 0.47011864 0.0052482784 0.3765173 -0.7024259 0.12090832 0.029420128

fc2.bias f4 [64]
00000000: 448a 82bd eef1 84bd 0c7a 153d 8bb3 1a40
00000010: 3114 ab3f 1c6e efbd 8c82 8740 cdad 21bf
00000020: 1b35 82bc ca60 b0be 4fa8 6f3f b696 263c
00000030: c5e2 2dbe 5a7d 603f c161 e1bd 4b4e f3bd
00000040: 8272 27bf fa93 3fbf 2478 e4be 0e68 3d3d
00000050: 00b0 1ab8 c0b0 febc 3338 2f3d 54dd a63f
00000060: 31df e2bc f04f 38bf d0c9 9ebe 1f01 c9bc
00000070: 1b5f c1bd 13bf b8be 6043 5dbc b045 f3bd
00000080: 88a5 9b3d 7a30 67bf 73fe 36bf 8ad9 8cbd
00000090: ddfe b0bd 0143 c2be 0460 4abf 2a05 d1bc
000000a0: 404f dfbe 5d24 a840 6b76 eebd c30f 4dbf
000000b0: ec24 92be d589 39bf 2222 3dbf 48f3 99bd
000000c0: 16fa 86be 20f4 823d b99e f0bd aed5 0abf
000000d0: 0035 593d cd95 0fbf 2ae2 b5bd 0894 01be
000000e0: a1d8 30bf 1dc9 0e3b 774a 193f 5851 1cbf
000000f0: 4e71 2dbf 162b 8fbd 6b90 973d e69a 2cbf
-0.06374028 -0.06491457 0.036493346 2.4172084 1.3365537 -0.116909236 4.234686 -0.63155824
-0.015894463 -0.34448844 0.93616194 0.010167768 -0.16981037 0.8769127 -0.11004973 -0.118801676
-0.654091 -0.7483517 -0.4462291 0.046241812 -3.6880374e-05 -0.03109014 0.042778205 1.3036294
-0.027694317 -0.71996975 -0.31013346 -0.024536667 -0.09441968 -0.36083278 -0.013504833 -0.11878526
0.07599932 -0.90308344 -0.7148201 -0.0687743 -0.08642361 -0.37941745 -0.7905276 -0.025515158
-0.4361515 5.254439 -0.1164368 -0.80102175 -0.28543794 -0.7247594 -0.7388021 -0.07517105
-0.26362675 0.063942194 -0.11749024 -0.542323 0.05302906 -0.5608795 -0.08881028 -0.12654126
-0.6908055 0.0021787353 0.5987925 -0.6106162 -0.67751014 -0.0699064 0.074005924 -0.67423856

fc3.weight f4 [4, 64]
00000000: 0c23 7bbd 74e6 153d e0f1 a03b 2fca d6bf
00000010: 9779 00bf f4ac ec3d 8462 f8bf 19b4 8dbe
00000020: 626e 243d 7f43 85bf 7de2 993e 26f6 d5bd
00000030: 6199 6dbf 3bac e63e 6b8c 103e ffd4 893d
00000040: f1e1 04bf 7f25 8dbe 3ea9 5cbf 8601 cd3d
00000050: 9e42 acbd 7c6d fa3d 342b 293d 7b0b 5ebf
00000060: cc6c 513d b32f 98bd 8f61 78bf 069e ebbd
00000070: b8f3 863c 6d89 bdbf 0c38 5abd 2020 bcbd
00000080: f2d2 8c3c cc6a 6fbe ee01 37bf c426 753d
00000090: b786 c23c ddac 39bf 1bbb 5fbe 1ce0 a93d
000000a0: fd7b dcbf a602 54c0 3113 553d cc5d 34bf
000000b0: fddd 7bbf 5a89 b7be eef1 11bf 226c b23d
000000c0: 8cc3 b3bf ac17 943d 0af9 b03d 7faa 23bf
000000d0: c02d f63b f866 2bbf 608e 903d 1479 383d
000000e0: 1d2e c5be 707f 1b3d 8481 2bc0 fd26 03bf
000000f0: e8fb c5bf e43d 7cbd 8728 3cbc 8049 00bf
00000100: ca59 c43d 00a3 2b3b f47d 533d 6da4 3cbf
00000110: b59d 05be d0a7 69bc 5099 42c0 2513 4cbf
00000120: d1a0 adbd 0aaf 03bf 6df8 b03e 501a 1fbc
00000130: 6362 2fbf 6fcc 633e 9cf6 903c 4517 9a3c
00000140: d302 f9be 8e0a 6ebf e68d b7be ad17 18bd
00000150: a0c9 adbb 1cb5 71bd 487d f83d 46b6 c0bd
00000160: 4493 c73d 91eb 3dbf 6c67 2dbf f415 aa3d
00000170: 8c62 32bd f180 69c0 14f7 cabd f0b3 043d
00000180: 90bc c6bc b90a 24bf bc6b 03bf 24a5 f0bd
00000190: b83f 993d 9c1f f4be e16d 19bf 7d7f 5cbd
000001a0: 804f 5ac0 357d 2fc0 5fe1 f03c 95b2 a1be
000001b0: fc6d 62bf 3418 2ebf d0a0 d5be 84c1 2abc
000001c0: 1a83 53bf 8293 b3bd 3db6 b53d f463 15bf
000001d0: e6f0 bfbd dc36 0fbf 686f c53c fab3 a73d
000001e0: c998 3dbf 284e bdbc 57e2 49c0 bd1c 20bf
000001f0: ab7f 63c0 4089 8c3c aa49 ae3d a545 10bf
00000200: d40b 043d 1c80 513d d4a1 c03d f656 83bf
00000210: 4dd9 1e3e 017d 9d3c 61bc 7cbf 54ea 7abf
00000220: d6bd 643d b7dd 02bf a5c5 c63e b8db 6cbd
00000230: b216 2bbf 97e6 b23e 8da6 7e3c 8669 0cbd
00000240: 1536 38bf 2bb2 76bf 1ff0 f2be 6b70 c23b
00000250: 76b8 f0bd fe6a 83bd 5f6d 4d3a a80b 5c3e
00000260: 27c9 79bb 21f2 77bf c568 20bf 7ec1 143b
00000270: 709a 3ebc 93ee c6bf 94d3 8dbd 8a6b c23a
00000280: 08eb e5bd d249 62bf 2fc9 29bf 605b 683c
00000290: a6a0 6cbb 9275 08bf 5a08 61bf f7a5 bfbb
000002a0: 0d62 6ac0 dd03 33c0 69fe ccbc a716 2abf
000002b0: 9520 3fbf b280 60bf 0eea 25bf d840 4e3d
000002c0: a60a 20bf 4441 9c3d 08cf dabc f41c 18bf
000002d0: be3b dd3d a641 31bf 40a8 86bd 3045 1dbd
000002e0: 006e 64bf 073b 06bd 5f2f 09c0 b787 58bf
000002f0: 6864 17c0 5ce5 603d e07e 333d c948 47bf
00000300: c85c d1bc b8a6 bb3d 084e 21bd d62c cbbf
00000310: ab79 88bf ecda 7c3d ffe9 f6bf dea6 bdbe
00000320: e19b d23d 4376 7dbf 8f48 ab3e 1a06 ed3d
00000330: 40a4 97bf 8234 b43e 7cde 48bd 6893 a93c
00000340: 3df8 a5be 792c f7be 6634 33bf 72e0 c13d
00000350: 94ce a0bd d95d 113d 2083 9f3d badc 71bf
00000360: dfe7 573d c491 fcbd 2eba 90bf c0b6 a03b
00000370: 0a60 3abd 6128 e3bf 20ae 683c 5407 b8bd
00000380: 7cb3 b23d 9b76 1cbe d49d 12bf 80e9 a9ba
00000390: 6378 d83d aecc 1abf 4901 a8be e767 553c
000003a0: a99b cebf 2fd2 48c0 bbe4 3abd 0105 9fbe
000003b0: e4d6 92bf e73c 3fbe 7737 fbbe ccba 953d
000003c0: 8148 d2bf 40d5 17bd 888c f03d 8583 1ebf
000003d0: 8ced 343d 7991 25bf eca4 523d cc0b 2e3d
000003e0: 7534 0cbf dcfb 053d bce7 52c0 0174 1dbf
000003f0: 2adb ddbf 1476 52bd 611f 44bd d816 fdbe
-0.06131272 0.03659673 0.0049116462 -1.6780452 -0.5018553 0.11556426 -1.9405065 -0.27676466
0.04014433 -1.0411223 0.3005561 -0.1044734 -0.9281216 0.45053276 0.14116065 0.06730079
-0.5190726 -0.2756767 -0.86195743 0.10010056 -0.08411144 0.12227914 0.041300967 -0.8673627
0.051129147 -0.07430973 -0.9702386 -0.1150475 0.016473636 -1.4807564 -0.053276107 -0.09185815
0.01719043 -0.23380584 -0.7148732 0.059851423 0.023745878 -0.72529393 -0.21848719 0.082946986
-1.7225338 -3.3126616 0.052020255 -0.7045562 -0.983856 -0.35846978 -0.5700978 0.08712031
-1.4044051 0.072310776 0.086412504 -0.6393203 0.007512778 -0.6695399 0.07058406 0.045037344
-0.38511744 0.03796333 -2.67978 -0.51231366 -1.5467501 -0.06158246 -0.011484272 -0.5011215
0.095874384 0.0026189685 0.05163379 -0.73688394 -0.13048442 -0.014261201 -3.0406075 -0.7971671
-0.08477939 -0.51438963 0.34564534 -0.009710863 -0.685095 0.22245954 0.017695718 0.018809924
-0.48634967 -0.92984855 -0.35850447 -0.037131954 -0.0053035766 -0.05901061 0.121332705 -0.09409766
0.097448856 -0.7418757 -0.67735934 0.083049685 -0.043551013 -3.648495 -0.09910408 0.032398164
-0.024259835 -0.6407886 -0.51336265 -0.11750248 0.074828565 -0.47680366 -0.59933287 -0.05383252
-3.4111023 -2.742017 0.02940434 -0.3158156 -0.8844907 -0.6800568 -0.41724253 -0.010422114
-0.8262192 -0.08768369 0.0887265 -0.5835564 -0.093721196 -0.55943084 0.024100974 0.08188625
-0.74061257 -0.023108557 -3.1544397 -0.6254385 -3.5546672 0.01715529 0.08510144 -0.5635627
0.032237843 0.051147565 0.09405866 -1.0260913 0.15512581 0.019224646 -0.98724943 -0.98013806
0.055845104 -0.5111956 0.38822666 -0.057826728 -0.66831505 0.3494155 0.0155426385 -0.034280322
-0.7195752 -0.9636561 -0.47448823 0.0059338114 -0.11753933 -0.064168915 0.0007836427 0.21488822
-0.003811428 -0.96853834 -0.62659866 0.0022698338 -0.0116335 -1.5541557 -0.06925121 0.0014833075
-0.11226469 -0.8839389 -0.66322607 0.014181942 -0.0036106496 -0.533044 -0.8790337 -0.005848642
-3.6622345 -2.7971108 -0.025023656 -0.66440815 -0.7465909 -0.87696373 -0.64810264 0.05035481
-0.6251625 0.07629636 -0.026710048 -0.5941918 0.108024105 -0.69240797 -0.0657506 -0.03839606
-0.89230347 -0.032771137 -2.1435163 -0.84582084 -2.3655033 0.054906234 0.04382217 -0.77845436
-0.025556937 0.091626585 -0.039381057 -1.5873058 -1.066213 0.061732218 -1.929016 -0.37041372
0.10283638 -0.9900858 0.33453795 0.115734294 -1.1847 0.3519631 -0.049040303 0.020700172
-0.32415953 -0.48276117 -0.7000183 0.09466638 -0.07851902 0.03548989 0.07788682 -0.94477427
0.052711364 -0.1233249 -1.1306818 0.004904598 -0.045501746 -1.7746698 0.014201671 -0.08985773
0.0872564 -0.1527962 -0.57272077 -0.0012963265 0.10569837 -0.60468566 -0.3281348 0.0130252605
-1.6141254 -3.1378286 -0.04562829 -0.31058505 -1.147183 -0.18675576 -0.49065754 0.07311019
-1.6428376 -0.037068605 0.11745554 -0.6191943 0.044171855 -0.646751 0.051426813 0.04249172
-0.54767543 0.032710895 -3.295394 -0.6150513 -1.7332509 -0.05138214 -0.047881488 -0.4943149

fc3.bias f4 [4]
00000000: 70f0 13bf b9f9 273f 3706 c93f 0364 24c0
-0.57788754 0.6561542 1.5705022 -2.5686042
