FE+DQN_demo/results/dqn_model_episode_800.pth (torch, 21396 bytes, 6 tensors)

fc1.weight f4 [64, 3]
000000 2c ec 0e bf 6a bf c8 be f8 0c 7c be 6b ec 78 3e
       -0.5582912 -0.39208537 -0.24614322 0.24308936
000010 91 62 6d 3f d8 4e 09 c0 ab b7 12 bf 17 27 57 3f
       0.92728525 -2.1454372 -0.57311505 0.8404402
000020 ee bb 09 3f fc 17 19 3f c6 5e 05 bf f6 67 2b 3f
       0.5380238 0.5980222 -0.5209774 0.66955507
000030 17 c7 4f 3f 2d 43 01 bf 1c 5e e2 3e 15 61 ed 3d
       0.8116316 -0.5049313 0.44212425 0.115907826
000040 ac 8a 7e 3f f4 6a 0f c0 e8 0c c7 3d d4 e8 cc be
       0.99430346 -2.240903 0.097192585 -0.40021384
000050 30 5d 15 be 61 5c f5 be a2 cd 38 3f 6e 71 e7 3e
       -0.1458633 -0.47922042 0.7218877 0.45203727
000060 6b 9c 8e 3f e4 4d 21 bf 6d de e0 3e bc 84 4b bf
       1.1141485 -0.63009477 0.43919697 -0.7949941
000070 e5 20 70 3f c8 1b 0b 3f 30 47 0c 3e 49 55 b3 3f
       0.93800193 0.54339266 0.13699031 1.4010402
000080 55 2a d5 bf 0a 90 b9 bd 09 a0 6c 3f 72 5f bb 3e
       -1.6653544 -0.090606764 0.92431694 0.36596256
000090 dd 4f dc bf 42 67 ea bf 8e 70 cd 3c f8 8e 24 3e
       -1.7211872 -1.8312762 0.025078084 0.16070163
0000a0 f6 72 2c be e0 88 87 be 55 f6 1e be bd b6 a7 3f
       -0.16840729 -0.26471615 -0.15523656 1.3102642
0000b0 2d ef dd 3d 29 29 d9 3d c3 a8 ad 3f 8a d2 ed bf
       0.10836635 0.10603554 1.3567127 -1.8579876
0000c0 40 22 7b 3d 7d d9 ae be 15 a3 97 be 0b 0c 21 bf
       0.06131196 -0.34150305 -0.2961661 -0.62909
0000d0 78 b8 85 3f ae e9 6e 3e b9 ba 49 3e 69 74 89 3f
       1.044692 0.23331329 0.19700135 1.073865
0000e0 44 68 0f c0 7c 48 1f be 8e 0e c5 be c0 97 b6 bd
       -2.2407389 -0.15554994 -0.38487667 -0.08915663
0000f0 ad 32 78 bf 5e 92 bb 3f 33 11 d8 3c 71 f0 14 3f
       -0.96952325 1.4654043 0.026375389 0.58179384
000100 7e 61 03 bf 73 f9 30 3f 1f c9 a0 3e 23 1f c6 3c
       -0.51320636 0.6913063 0.31403443 0.024184769
000110 1d 32 b2 be ba f2 c3 3e 62 96 b7 3f 1b 37 c5 bd
       -0.34803858 0.38271123 1.4342768 -0.09629651
000120 88 ee c3 bf 52 7d ca bf 97 ca a6 3c 97 1b b3 be
       -1.5307169 -1.5819495 0.020360274 -0.34981987
000130 ff cc 48 3f 98 82 04 3f 2a 1e 4e 3e 26 c0 a1 3f
       0.784378 0.5176177 0.20128694 1.2636764
000140 ad 41 d5 3e 73 11 6c 3f 6f 92 0f bf 08 e0 dd 3e
       0.4165167 0.92214125 -0.56082815 0.43334985
000150 18 16 01 bf d0 65 5b 3d 69 65 c3 be 37 4b 3f 3f
       -0.5042434 0.053563893 -0.38163307 0.74724144
000160 69 00 04 bf f4 e0 11 3f d8 ad bb be 8a 1e 51 3f
       -0.51563126 0.56983876 -0.3665607 0.81687224
000170 3d ee f3 3e 86 7a 3e 3e e7 89 a2 3f 23 ca ba bf
       0.476427 0.18601426 1.2698334 -1.4592937
000180 46 20 11 3f 80 42 f7 be 20 9b e8 bc ca 31 92 3d
       0.5668987 -0.48292923 -0.028394282 0.07138403
000190 e0 52 86 3f 14 d0 10 c0 c5 f1 df be 57 8e d9 3f
       1.0494041 -2.2627 -0.43739143 1.6996564
0001a0 2d c8 a5 be f8 74 e6 bd 00 2e b4 ba da ba e1 be
       -0.32379285 -0.11252779 -0.0013746619 -0.4408787
0001b0 50 56 23 3d cb 15 d0 3f 4e 95 88 bf 81 83 96 be
       0.039877236 1.6256651 -1.0670564 -0.29397205
0001c0 94 91 98 3f fc a2 07 3f c9 64 d5 3e 65 37 eb be
       1.1919427 0.5298307 0.41678455 -0.459407
0001d0 f2 1c 31 3f 54 bc b2 3d c6 49 cb 3c b6 6c 54 bd
       0.6918479 0.08727327 0.024815451 -0.051861487
0001e0 f0 7b 47 3e ac bd a1 3f 99 9d db bf f9 26 84 3e
       0.19480872 1.2636008 -1.715747 0.25810984
0001f0 07 97 84 3f 15 bb df bf 94 a6 c3 bf 34 c2 dd bf
       1.035859 -1.7478968 -1.5285211 -1.7324891
000200 57 a5 bb 3d 9f ce 10 3e 83 fa a7 3f dd ff 10 c0
       0.091623954 0.1414132 1.3123325 -2.2656167
000210 c3 72 9b 3d c4 f3 b0 3f 8b 81 86 bf 01 d4 97 be
       0.075902484 1.3824391 -1.0508283 -0.29653934
000220 e4 d5 a6 3f bb c6 48 3d e5 e7 49 3e 75 04 92 3f
       1.3034024 0.04901765 0.19717367 1.140761
000230 92 4f f4 bf 5a 15 9a 3e f2 40 b1 be 0d 04 13 bf
       -1.9086783 0.30094415 -0.34619862 -0.57428056
000240 83 c5 e0 bf 2d d6 b5 3d 0a 07 e1 3e b0 06 b9 bd
       -1.7560276 0.088787414 0.43950683 -0.09034479
000250 4c a9 ae be de f7 82 be a0 36 06 3e 7e 44 6a be
       -0.34113538 -0.25579733 0.13106775 -0.2287769
000260 42 2c 8b be 73 4f 4f bf c5 5c 24 3f 74 02 ea 3e
       -0.27182204 -0.80980605 0.64204055 0.45704997
000270 5d fc 82 3f 5c c4 42 bf ab 1b 5c 3e f9 7f 0d 3e
       1.0233265 -0.7608087 0.2149493 0.13818349
000280 1b aa 9a 3f 76 0b e9 3d a4 14 94 bb 12 20 c3 3f
       1.2083162 0.11379139 -0.004519062 1.5244162
000290 0d d2 b3 bf 2c 36 8b be 04 2d 50 3f 73 2f 7f 3e
       -1.4048477 -0.27189767 0.8131869 0.24920444
0002a0 a5 29 92 bc a8 5b 1d 3d a0 75 ff bd d1 28 14 3f
       -0.017842123 0.03841749 -0.12473607 0.5787478
0002b0 20 0a d1 3f 47 70 1b bd 1c 23 aa be 58 38 87 3f
       1.6331215 -0.037948873 -0.3322991 1.056407
0002c0 81 56 11 3e 6a 31 04 bf aa ed 2c be 25 d3 ba be
       0.14193155 -0.516379 -0.16887537 -0.36489215
0002d0 f0 0e 58 be 22 a1 aa 3f 0c db 6f 3e 7b 98 b3 3e
       -0.21099448 1.3330424 0.23423404 0.3507727
0002e0 e5 13 c9 be c9 eb 0f 3f 90 8e 9b 3d a9 89 94 be
       -0.3927299 0.56219155 0.07595551 -0.29011276
0002f0 f5 6b ff be 3e ff 30 bf 15 e3 64 3f d1 05 c4 3e
       -0.49887052 -0.6913947 0.89409 0.38285688

fc1.bias f4 [64]
000000 98 1d 14 3e 51 ff 92 bd c6 8b 6c 3e 35 e5 4f 3f
       0.14464414 -0.07177604 0.23100194 0.8120912
000010 c8 11 96 3f 16 94 d0 bd 8c 55 8d 3e 47 be c4 be
       1.1724176 -0.10184495 0.2760433 -0.3842642
000020 b8 37 8e 3f be a4 2f bf 02 7b 49 3f d9 2d 70 3d
       1.1110754 -0.6861075 0.7870332 0.058637474
000030 09 00 ae 3d c8 ac df 3e c3 7d 57 be 1c 03 1f 3e
       0.084961005 0.4368651 -0.21044068 0.1552853
000040 f4 59 1a 3e 1d 76 20 bf d2 1f 4a 3e 0c b0 01 3e
       0.15073377 -0.62680227 0.19738701 0.12664813
000050 e6 7b c3 3d 9d 89 75 3f ea da 44 be 5c 60 a5 be
       0.09545116 0.95913106 -0.19224134 -0.3230008
000060 f6 9a 52 3f 8c 99 be be 8c b4 22 bf 26 0f 4a 3f
       0.822677 -0.37226522 -0.6355674 0.78929365
000070 6b 5e 07 bf d6 1c 4b 3f 6e 28 b6 3e fc b3 ad 3f
       -0.52878445 0.79340875 0.3557772 1.3570552
000080 d6 a9 4d be b9 46 c4 be 94 73 a6 3f c4 af 0f 3e
       -0.20084319 -0.38335207 1.3004022 0.14031893
000090 98 e7 26 40 74 ad cd 3d 2e e1 20 3f f6 4a b5 be
       2.6078854 0.10042849 0.62843597 -0.35408753
0000a0 b5 de 65 3f bc c5 4a 3f 42 11 0c 40 52 54 18 bf
       0.8979295 0.7920797 2.1885533 -0.5950366
0000b0 d1 7e 81 3f 6c d1 1e bf 60 de f9 3d c0 8e cb bc
       1.0116826 -0.620383 0.12200618 -0.024848342
0000c0 98 1c e1 3f 20 ce 0c 3f 9e 65 92 3e 7b 78 53 3e
       1.7586851 0.5500202 0.28593153 0.20651428
0000d0 76 67 45 3f d3 ef 50 3e 94 2d 61 3f 6a 08 a8 bc
       0.77110994 0.20403986 0.8796017 -0.020511825
0000e0 ae a0 09 3d b2 69 ee be da 86 d4 3e f0 b0 b2 3d
       0.0336005 -0.46565014 0.41509134 0.087251544
0000f0 f8 4f 08 bf 40 b5 24 3f fa cc 8e 3e 03 c7 93 be
       -0.5324702 0.64339066 0.2789076 -0.2886277

fc2.weight f4 [64, 64]
000000 50 42 2f 3c 70 e5 b9 3c 46 85 b9 bd 3c 8b 8e 3d
       0.0106969625 0.022692412 -0.09058623 0.069601506
000010 f8 56 31 3d 86 f5 f4 bd f8 be 16 3d 50 df 24 bc
       0.04329583 -0.119608924 0.036803216 -0.0100630075
000020 92 6a e6 bd 42 39 e2 bd 60 b6 a9 3d 58 ab bd bc
       -0.112507954 -0.11046077 0.082867384 -0.023152992
000030 80 73 86 bb be b0 d6 3d 4e db 96 3d cc 30 ca 3d
       -0.004103124 0.1048293 0.07366048 0.098725885
000040 98 b4 d4 3c e2 ec c7 3d 82 fb e8 bd a0 f7 49 3c
       0.02596502 0.09761979 -0.11376096 0.012327105
000050 76 ff 8b bd 1c 93 2f 3d 44 9e 7f bd 60 51 a9 bd
       -0.06835835 0.042864904 -0.062406793 -0.08267474
000060 9c 86 62 bd d8 2b 9e bd d0 21 b1 bc 20 2a d2 3c
       -0.055304155 -0.07723206 -0.021622568 0.025654852
000070 a8 33 d4 bc 60 6f 8a bd 90 a2 9a 3c f6 b6 96 bd
       -0.025903538 -0.06759524 0.018876344 -0.07359116
000080 d0 64 5e bc 00 f9 39 ba 0e f1 c9 3d bc 56 91 3d
       -0.01357384 -0.0007094294 0.09860431 0.070966214
000090 10 2b 75 bd c0 51 cf bc 64 f4 9b bd 00 44 78 bb
       -0.05985552 -0.025307536 -0.07614973 -0.0037882328
0000a0 08 c4 f3 bc c0 43 ec bd 24 1a 2e bd 30 e1 7a 3d
       -0.02975656 -0.1153636 -0.0425054 0.06124991
0000b0 40 9a 88 bc 72 e0 dd 3d 2c 95 55 3d a0 29 d3 bc
       -0.016675115 0.10833825 0.052144215 -0.025776684
0000c0 c0 56 4a bb 20 4d db 3b 70 f7 06 3c 48 61 c3 3d
       -0.003087446 0.0066925436 0.008237705 0.09540039
0000d0 4a 31 b7 bd 30 dc bb 3c b8 7c 4d bd 50 cb 4b bc
       -0.08944948 0.022932142 -0.05016777 -0.01243861
0000e0 5c a4 57 3d b0 90 5d 3c 62 fa 80 3d 18 71 65 3d
       0.05264698 0.013523266 0.06297757 0.056016058
0000f0 84 25 00 bd 18 61 9b 3c 00 e5 a3 3a 14 d8 4e bd
       -0.031285778 0.018967196 0.001250416 -0.050499037
000100 1a aa dd 3d 26 c3 c3 3d 00 c6 b8 bb 80 f9 e4 3b
       0.1082346 0.09558706 -0.005638838 0.0069877505
000110 38 7b aa bd 42 22 e9 bd 9a 6c 9f bd 40 59 d2 bc
       -0.08324283 -0.11383487 -0.07784386 -0.025677323
000120 8a b9 e3 3d 54 cf 33 bd 30 50 2b bd e8 87 f9 bd
       0.11119373 -0.043898895 -0.04182452 -0.12184125
000130 2e d4 af bd 04 92 32 3d d2 99 cf 3d 8e 31 ea bd
       -0.08585392 0.043596283 0.10136761 -0.11435233
000140 f0 a5 fb 3c 4e b3 fa 3d 2c bc bb bd 20 3e a9 3d
       0.030718774 0.12241231 -0.0916675 0.082638025
000150 10 8c 13 bc 32 3c cb bd 88 26 f7 3c ce f6 e0 bd
       -0.0090055615 -0.09923591 0.03016974 -0.10984574
000160 44 49 53 bd 1e 30 f3 bd 78 6c c6 bc 42 35 d8 3d
       -0.051583543 -0.11874412 -0.024221644 0.10557033
000170 74 d3 ca 3d d4 d6 eb 3d 16 21 e0 bd 5c fe 5f 3d
       0.09903613 0.115155846 -0.10943811 0.054685935
000180 40 e3 40 3c 00 d9 32 bb b2 51 8c 3d fa 06 bf 3d
       0.011772931 -0.0027289987 0.0685152 0.093275025
000190 a6 2d a4 3d b8 4c 69 bd a8 22 e8 bc 7a 2b 99 bd
       0.08016519 -0.05695793 -0.028336838 -0.074789956
0001a0 90 c5 f1 bc 14 a4 68 3d ca 7c f7 3d 6c c5 62 3d
       -0.02951315 0.056797102 0.120843485 0.055364057
0001b0 fa 44 ff 3d 88 1a 88 bd 12 a3 87 bd 6a 47 db bd
       0.12464328 -0.066456854 -0.066229 -0.107069805
0001c0 a0 f8 34 3d 40 9d f1 bc b0 0a bb 3d 24 2d 06 bd
       0.04418242 -0.029493928 0.09132898 -0.032757893
0001d0 d0 c3 ae bd d0 d9 83 bc ac 92 34 bd 80 fb 95 ba
       -0.08533442 -0.016095072 -0.04408519 -0.0011442751
0001e0 20 b4 1c 3d 8a 60 8b bd 00 be 8f bb 78 0d a5 bc
       0.038257718 -0.06805523 -0.0043866634 -0.020148024
0001f0 b8 e0 e6 bc 76 23 91 bd 94 28 be 3d 00 d3 9f bd
       -0.028183326 -0.07086842 0.092850834 -0.07803917
000200 a0 95 b6 3d 94 95 63 bd a6 3b aa 3d 0c a3 3c 3d
       0.089152575 -0.05556257 0.08312158 0.04605393
000210 fc e4 32 bd d4 50 f1 3d 32 e0 f4 3d 2e bc 85 bd
       -0.043675408 0.11782995 0.11956824 -0.06530033
000220 b8 05 0d bd 70 3c 70 3c be 4b c0 bd 14 ae 56 bd
       -0.034429282 0.014662847 -0.09389447 -0.052412108
000230 6c a9 8e bd a4 3e b7 bd b4 df 96 3d 30 18 56 bc
       -0.069659084 -0.089474946 0.07366887 -0.01306729
000240 10 b8 f6 bc 92 c0 be bd 8e 82 bc 3d c0 c3 30 3d
       -0.030117065 -0.093140736 0.09204589 0.04315543
000250 c0 45 fc bb 38 2e d2 3c 12 85 d0 bd be 34 8b bd
       -0.0076987445 0.025656804 -0.10181631 -0.06797169
000260 52 2e af bd 80 f3 1f 3d 80 f0 cb ba 00 06 64 bc
       -0.08553757 0.03905058 -0.0015559345 -0.013917446
000270 a8 63 e3 3c bc a8 81 bd b2 ed ad bd d0 bb ae bd
       0.02775748 -0.06331012 -0.084926024 -0.08531916
000280 9a 34 9e bd d0 f1 c6 bd 30 1d 6a bc cc e7 75 bd
       -0.07724877 -0.09714091 -0.014289185 -0.06003551
000290 28 07 9d 3d 54 11 0f 3d d4 7b f5 3d 40 98 43 3c
       0.076673806 0.034928635 0.11986509 0.011938155
0002a0 9a fa bf bd 5a e0 c1 3d e0 fd d1 bd 6a c6 88 bd
       -0.0937397 0.0946662 -0.10253501 -0.066784695
0002b0 f0 af 5f bd 38 32 7b 3d b0 70 31 bd 9a 75 c2 3d
       -0.054611146 0.06132719 -0.043320358 0.09495087
0002c0 e8 69 f3 bc c0 4b d8 3d f0 19 fd 3d 84 5e a9 bd
       -0.029713586 0.10561323 0.12358463 -0.082699805
0002d0 60 d0 6a bc 1e 82 a9 bd 7e 55 a9 bd 38 6b 66 3d
       -0.014331907 -0.08276771 -0.082682595 0.056254596
0002e0 14 0b bb bd ec 97 8d 3d 40 08 d8 bd 00 92 25 ba
       -0.09132972 0.069137424 -0.105484486 -0.0006316006
0002f0 b8 83 e0 bd d0 2b 16 bd 6a d9 b8 bd 84 09 4c 3d
       -0.10962623 -0.036662877 -0.090258434 0.049813762
000300 08 01 74 bd fc 8d 31 c0 f0 56 ed bd 1c 29 ad be
       -0.059571296 -2.774291 -0.11588848 -0.33820426
000310 84 34 95 be 22 04 94 bf a8 41 a0 3d 14 74 2b 3b
       -0.2914163 -1.1563761 0.07825023 0.0026161717
000320 e5 6b 82 be f4 2a d8 bd b0 91 87 3e ff 2e be bc
       -0.25472942 -0.10555068 0.26478338 -0.023215769
000330 6f 64 39 bf 46 bd e7 3d 4f 33 d8 3e 92 33 92 3e
       -0.72418875 0.11315398 0.42226645 0.2855497
000340 e0 10 4d bd ff 96 e8 3d 55 67 9e bf c8 76 8e bc
       -0.05006492 0.11356925 -1.2375284 -0.017390624
000350 5c 90 6f 3f 62 a5 c5 be f8 a8 b0 3d a4 24 59 3f
       0.9357965 -0.3860274 0.08625978 0.84821534
000360 37 df 15 bf 82 47 9d bd 3b 26 c9 bd 89 ab d8 be
       -0.58543724 -0.07679655 -0.09821745 -0.4231837
000370 4c 33 08 3d 99 96 7c be 68 18 c4 3d a7 29 29 3d
       0.033252046 -0.24666823 0.095749676 0.04129949
000380 0e aa 98 bd 26 db 23 c0 3b 4a 29 40 68 24 fc 3d
       -0.0745431 -2.5602508 2.6451557 0.123116314
000390 84 eb 91 bf a3 91 ef 3c 11 e9 b0 be ae c7 b1 3c
       -1.1399999 0.02924425 -0.34552816 0.02170166
0003a0 ee fc de 3e 3a 46 78 3e 75 12 e9 bf d7 e6 cb be
       0.43552345 0.2424554 -1.8208758 -0.39824554
0003b0 b9 7a 8b bf 0d e5 09 3f d1 96 08 be 40 97 66 3d
       -1.0896827 0.5386513 -0.13338782 0.056296587
0003c0 7c ee a8 3e 00 4a 93 bd 8e 2e b2 3d 14 a1 09 be
       0.3299445 -0.07191849 0.08700286 -0.13440353
0003d0 f5 1b 08 bf 1a d7 dc 3e cd 8c 5e be 2c 36 43 3d
       -0.5316766 0.4313286 -0.21733399 0.047659084
0003e0 e2 54 b6 3c 8d d0 8a 3f d5 db a7 3e c0 f9 ab 3b
       0.022257272 1.0844895 0.32784906 0.0052482784
0003f0 44 8f 8b 3e ef 98 af be c8 9e f7 3d bd 7a ba 3c
       0.2725774 -0.34296367 0.12090832 0.022763604

fc2.bias f4 [64]
000000 44 8a 82 bd ee f1 84 bd 0c 7a 15 3d 3f ae 0b 40
       -0.06374028 -0.06491457 0.036493346 2.1825101
000010 3b 80 a4 3f 1c 6e ef bd 51 49 30 40 7d 23 c8 be
       1.2851633 -0.116909236 2.7544749 -0.39089575
000020 1b 35 82 bc 4d 88 55 be 0a 95 3c 3f b6 96 26 3c
       -0.015894463 -0.20852776 0.73664916 0.010167768
000030 fb c6 4e bc a7 88 35 3f c1 61 e1 bd 4b 4e f3 bd
       -0.012620683 0.7091164 -0.11004973 -0.118801676
000040 c6 6f de be 08 ae 02 bf 44 ac 9b be 0e 68 3d 3d
       -0.4344465 -0.510468 -0.30404866 0.046241812
000050 00 b0 1a b8 c0 b0 fe bc 33 38 2f 3d 99 14 92 3f
       -3.6880374e-05 -0.03109014 0.042778205 1.1412536
000060 31 df e2 bc d9 3f eb be 76 07 1e be 1f 01 c9 bc
       -0.027694317 -0.4594715 -0.15432534 -0.024536667
000070 1b 5f c1 bd 9f 6b d1 be 60 43 5d bc b0 45 f3 bd
       -0.09441968 -0.4090242 -0.013504833 -0.11878526
000080 88 a5 9b 3d 82 ef 26 bf 54 34 06 bf 8a d9 8c bd
       0.07599932 -0.6520921 -0.52423596 -0.0687743
000090 dd fe b0 bd f5 5e 4d be 7c c4 0d bf 2a 05 d1 bc
       -0.08642361 -0.20055754 -0.55377936 -0.025515158
0000a0 40 4f df be d8 cb ab 40 6b 76 ee bd 9b 92 1b bf
       -0.4361515 5.3686333 -0.1164368 -0.6077058
0000b0 97 a6 df bd 61 48 f5 be d0 34 0b bf 48 f3 99 bd
       -0.10920446 -0.47906783 -0.5437746 -0.07517105
0000c0 fa 89 0b be 20 f4 82 3d b9 9e f0 bd 0a 57 b2 be
       -0.13626853 0.063942194 -0.11749024 -0.3483203
0000d0 00 35 59 3d 93 28 bd be 2a e2 b5 bd 08 94 01 be
       0.05302906 -0.36945018 -0.08881028 -0.12654126
0000e0 68 dc ee be 1d c9 0e 3b 89 1a 37 3f da ff cd be
       -0.46652532 0.0021787353 0.71524864 -0.40234262
0000f0 4e 71 2d bf 16 2b 8f bd 6b 90 97 3d ee 64 ec be
       -0.67751014 -0.0699064 0.074005924 -0.46170753

fc3.weight f4 [4, 64]
000000 0c 23 7b bd 74 e6 15 3d e0 f1 a0 3b 47 e1 4d bf
       -0.06131272 0.03659673 0.0049116462 -0.8042187
000010 fb 95 a0 be f4 ac ec 3d 17 db 5d bf f5 12 ca be
       -0.31364426 0.11556426 -0.8666243 -0.39467588
000020 62 6e 24 3d ed 88 7f bf d0 65 a3 3e 26 f6 d5 bd
       0.04014433 -0.9981831 0.31913614 -0.1044734
000030 76 56 62 bf c8 68 ef 3e 6b 8c 10 3e ff d4 89 3d
       -0.8841318 0.4675963 0.14116065 0.06730079
000040 f6 bb 12 bf 92 52 bb be 6e 0d 5b bf 86 01 cd 3d
       -0.57318056 -0.36586434 -0.8556737 0.10010056
000050 9e 42 ac bd 7c 6d fa 3d 34 2b 29 3d da e0 03 bf
       -0.08411144 0.12227914 0.041300967 -0.5151497
000060 cc 6c 51 3d ad b6 72 be b5 e4 6f bf 06 9e eb bd
       0.051129147 -0.23702498 -0.93708354 -0.1150475
000070 b8 f3 86 3c 6d 89 bd bf 0c 38 5a bd 20 20 bc bd
       0.016473636 -1.4807564 -0.053276107 -0.09185815
000080 f2 d2 8c 3c bd e2 ba be 69 50 42 bf c4 26 75 3d
       0.01719043 -0.36501113 -0.75903946 0.059851423
000090 b7 86 c2 3c 0f c6 3c bf 1b 99 be be 1c e0 a9 3d
       0.023745878 -0.73739713 -0.37226185 0.082946986
0000a0 fd 7b dc bf 69 66 30 c0 31 13 55 3d cd 3b 49 bf
       -1.7225338 -2.7562506 0.052020255 -0.78606874
0000b0 f7 6e 71 bf c5 f4 f2 be 8b af 1f bf 22 6c b2 3d
       -0.94309944 -0.4745237 -0.6237723 0.08712031
0000c0 99 ff a9 bf ac 17 94 3d 0a f9 b0 3d 0b 9c 26 bf
       -1.3281127 0.072310776 0.086412504 -0.6508185
0000d0 c0 2d f6 3b 4f 24 38 bf 60 8e 90 3d 14 79 38 3d
       0.007512778 -0.719304 0.07058406 0.045037344
0000e0 71 c6 eb be 70 7f 1b 3d 8c 16 2f c0 7d 56 1c bf
       -0.46049836 0.03796333 -2.7357512 -0.6106947
0000f0 e8 fb c5 bf e4 3d 7c bd 87 28 3c bc 21 35 10 bf
       -1.5467501 -0.06158246 -0.011484272 -0.5633107
000100 ca 59 c4 3d 00 a3 2b 3b f4 7d 53 3d 05 a7 9d bf
       0.095874384 0.0026189685 0.05163379 -1.2316595
000110 3f 4b 92 bd d0 a7 69 bc a6 b5 ef bf f5 91 49 bf
       -0.07143258 -0.014261201 -1.872731 -0.7873834
000120 d1 a0 ad bd db 9d 09 bf 90 39 b5 3e 50 1a 1f bc
       -0.08477939 -0.53756493 0.3539548 -0.009710863
000130 c6 10 37 bf 39 6d 6e 3e 9c f6 90 3c 45 17 9a 3c
       -0.7150997 0.23283853 0.017695718 0.018809924
000140 9f 26 f4 be 91 e3 6b bf 24 3f bd be ad 17 18 bd
       -0.47685716 -0.92144114 -0.36962235 -0.037131954
000150 a0 c9 ad bb 1c b5 71 bd 48 7d f8 3d 45 63 9d bd
       -0.0053035766 -0.05901061 0.121332705 -0.0768495
000160 44 93 c7 3d 34 23 38 bf 43 54 33 bf f4 15 aa 3d
       0.097448856 -0.71928716 -0.7005045 0.083049685
000170 8c 62 32 bd 5a 36 5c c0 14 f7 ca bd f0 b3 04 3d
       -0.043551013 -3.4408174 -0.09910408 0.032398164
000180 90 bc c6 bc 96 2b 1c bf ce bf 04 bf 24 a5 f0 bd
       -0.024259835 -0.61004007 -0.5185517 -0.11750248
000190 b8 3f 99 3d 8b 2d f8 be 42 f6 15 bf 7d 7f 5c bd
       0.074828565 -0.48472247 -0.58578885 -0.05383252
0001a0 80 4f 5a c0 6e b1 2d c0 5f e1 f0 3c 35 6e a1 be
       -3.4111023 -2.7139544 0.02940434 -0.31529394
0001b0 08 b6 68 bf fe 32 29 bf 53 b2 d5 be 84 c1 2a bc
       -0.9090276 -0.6609343 -0.41737613 -0.010422114
0001c0 59 18 59 bf 82 93 b3 bd 3d b6 b5 3d 11 08 16 bf
       -0.84802777 -0.08768369 0.0887265 -0.5860606
0001d0 e6 f0 bf bd 1d 05 13 bf 68 6f c5 3c fa b3 a7 3d
       -0.093721196 -0.5742968 0.024100974 0.08188625
0001e0 ef 97 3b bf 28 4e bd bc 20 3a 38 c0 07 76 23 bf
       -0.7327871 -0.023108557 -2.8785477 -0.6385197
0001f0 ab 7f 63 c0 40 89 8c 3c aa 49 ae 3d 08 fe 0e bf
       -3.5546672 0.01715529 0.08510144 -0.5585637
000200 d4 0b 04 3d 1c 80 51 3d d4 a1 c0 3d d0 4e 0c bf
       0.032237843 0.051147565 0.09405866 -0.5480776
000210 74 b5 8d 3e 01 7d 9d 3c cd 1f ac be 9f b9 75 bf
       0.276775 0.019224646 -0.33618012 -0.9598636
000220 d6 bd 64 3d 1a d6 f8 be bb 59 c9 3e b8 db 6c bd
       0.055845104 -0.48600847 0.3932627 -0.057826728
000230 b4 36 23 bf b4 00 b6 3e 8d a6 7e 3c 86 69 0c bd
       -0.63755345 0.3554741 0.0155426385 -0.034280322
000240 f9 36 35 bf 04 be 6d bf ae 39 ee be 6b 70 c2 3b
       -0.70787007 -0.92868066 -0.4652838 0.0059338114
000250 76 b8 f0 bd fe 6a 83 bd 5f 6d 4d 3a 4f 84 99 3e
       -0.11753933 -0.064168915 0.0007836427 0.29983756
000260 27 c9 79 bb 2a 20 75 bf 79 7d 16 bf 7e c1 14 3b
       -0.003811428 -0.95752203 -0.58785206 0.0022698338
000270 70 9a 3e bc f7 38 bd bf 94 d3 8d bd 8a 6b c2 3a
       -0.0116335 -1.4783009 -0.06925121 0.0014833075
000280 08 eb e5 bd 49 eb 5e bf 3a bc 24 bf 60 5b 68 3c
       -0.11226469 -0.87077767 -0.6434971 0.014181942
000290 a6 a0 6c bb 24 0e 03 bf c7 ba 5d bf f7 a5 bf bb
       -0.0036106496 -0.5119345 -0.86613125 -0.005848642
0002a0 0d 62 6a c0 b8 52 1f c0 69 fe cc bc a4 d5 2b bf
       -3.6622345 -2.4894238 -0.025023656 -0.67122865
0002b0 db e9 35 bf d1 7c 5b bf fc 95 23 bf d8 40 4e 3d
       -0.7105996 -0.8573733 -0.63900733 0.05035481
0002c0 d7 c6 16 bf 44 41 9c 3d 08 cf da bc 71 89 12 bf
       -0.58897156 0.07629636 -0.026710048 -0.5724097
0002d0 be 3b dd 3d fa d7 2a bf 40 a8 86 bd 30 45 1d bd
       0.108024105 -0.66735804 -0.0657506 -0.03839606
0002e0 b2 c6 5d bf 07 3b 06 bd 25 5b 04 c0 20 3c 52 bf
       -0.8663131 -0.032771137 -2.068063 -0.82122993
0002f0 68 64 17 c0 5c e5 60 3d e0 7e 33 3d 43 44 45 bf
       -2.3655033 0.054906234 0.04382217 -0.77057284
000300 c8 5c d1 bc b8 a6 bb 3d 08 4e 21 bd d1 2b 27 bf
       -0.025556937 0.091626585 -0.039381057 -0.65301234
000310 8e 9a 6c bf ec da 7c 3d da 46 60 bf 27 4c bb be
       -0.9242333 0.061732218 -0.8760811 -0.36581537
000320 e1 9b d2 3d 3b 19 83 bf b5 90 a7 3e 1a 06 ed 3d
       0.10283638 -1.0242075 0.3272759 0.115734294
000330 8e a1 98 bf 06 59 b1 3e 7c de 48 bd 68 93 a9 3c
       -1.1924303 0.34638232 -0.049040303 0.020700172
000340 ac 04 b0 be 33 7e f1 be 60 e2 3d bf 72 e0 c1 3d
       -0.34378564 -0.47166595 -0.74173546 0.09466638
000350 94 ce a0 bd d9 5d 11 3d 20 83 9f 3d 74 a4 52 bf
       -0.07851902 0.03548989 0.07788682 -0.82282186
000360 df e7 57 3d 8f 36 ec bd b1 81 91 bf c0 b6 a0 3b
       0.052711364 -0.11533844 -1.1367704 0.004904598
000370 0a 60 3a bd 48 e8 f2 bf 20 ae 68 3c 54 07 b8 bd
       -0.045501746 -1.8977137 0.014201671 -0.08985773
000380 7c b3 b2 3d 65 02 31 be 5f 91 18 bf 80 e9 a9 ba
       0.0872564 -0.1728607 -0.5959682 -0.0012963265
000390 63 78 d8 3d 59 ae 1e bf 72 34 b2 be e7 67 55 3c
       0.10569837 -0.61984783 -0.34805638 0.0130252605
0003a0 a9 9b ce bf 21 77 28 c0 bb e4 3a bd 0e d9 b5 be
       -1.6141254 -2.632271 -0.04562829 -0.35517162
0003b0 5b 7c 91 bf 6b fa 4b be f6 f4 03 bf cc ba 95 3d
       -1.1366075 -0.19919746 -0.51545656 0.07311019
0003c0 0e df d4 bf 40 d5 17 bd 88 8c f0 3d 6f 97 21 bf
       -1.6630571 -0.037068605 0.11745554 -0.63121694
0003d0 8c ed 34 3d 14 d5 29 bf ec a4 52 3d cc 0b 2e 3d
       0.044171855 -0.66340756 0.051426813 0.04249172
0003e0 88 57 0d bf dc fb 05 3d cb 38 64 c0 66 b5 1e bf
       -0.5521169 0.032710895 -3.5659664 -0.6199554
0003f0 2a db dd bf 14 76 52 bd 61 1f 44 bd 1e 86 04 bf
       -1.7332509 -0.05138214 -0.047881488 -0.51767147

fc3.bias f4 [4]
000000 42 77 29 be 1c 82 d3 3e 43 ed ac 3f c5 aa 0d c0
       -0.165494 0.41310203 1.3509907 -2.213548
