FE+DQN_demo/results/dqn_model_episode_400.pth (torch, 21396 bytes, 6 tensors)

fc1.weight f4 [64, 3]
000000 2c ec 0e bf 6a bf c8 be f8 0c 7c be 84 d4 ce 3e
       -0.5582912 -0.39208537 -0.24614322 0.40396512
000010 bd 0a 7c 3f 68 94 02 c0 d0 e3 03 bf 21 93 37 3f
       0.98453885 -2.040308 -0.5151949 0.71708876
000020 65 51 14 3f 56 ff 2d 3f 1e 1b c0 be 5f 1a 34 3f
       0.579367 0.67967737 -0.3752069 0.7035274
000030 87 b9 59 3f d9 23 ba be ab ed eb 3e 55 d1 ec 3e
       0.8504872 -0.36355475 0.46079764 0.46253458
000040 72 09 8f 3f 8a 92 fc bf e8 0c c7 3d d4 e8 cc be
       1.1174757 -1.973222 0.097192585 -0.40021384
000050 30 5d 15 be aa f2 cc be 07 8b 21 3f ea 3b 04 3f
       -0.1458633 -0.40028888 0.63102764 0.5165392
000060 cb 24 96 3f 3a d7 d7 be 03 6e f0 3e 9d 94 42 bf
       1.1729978 -0.42156392 0.46958932 -0.76008016
000070 19 5e 58 3f 02 66 11 3f b3 ce ca be 4c 3a d0 3f
       0.8451858 0.56796277 -0.39610824 1.6267791
000080 8f 58 86 bf f3 cb 84 bd 80 dc 4b 3f ac f4 ce 3e
       -1.0495776 -0.06484213 0.7963333 0.40421045
000090 8f 27 dc bf f4 3e ea bf 6f 85 d7 3c f8 8e 24 3e
       -1.7199572 -1.8300462 0.026308743 0.16070163
0000a0 f6 72 2c be e0 88 87 be d9 2e 34 be ef af 92 3f
       -0.16840729 -0.26471615 -0.17595996 1.1459941
0000b0 01 d2 03 3e e9 2c 98 be 80 8e cd 3f 37 c4 a3 bf
       0.12873079 -0.29721764 1.6059113 -1.2794255
0000c0 40 22 7b 3d 7d d9 ae be 15 a3 97 be 2e 69 1f bf
       0.06131196 -0.34150305 -0.2961661 -0.62269866
0000d0 b4 3a 66 3f fc 92 82 3e 14 33 e8 3d dd 5a a0 3f
       0.89933324 0.25502765 0.113378674 1.2527729
0000e0 66 b8 ed bf 7c 48 1f be 8e 0e c5 be c0 97 b6 bd
       -1.8571899 -0.15554994 -0.38487667 -0.08915663
0000f0 3c d5 76 bf 87 ca a2 3f fe 72 21 3d 3d 86 28 3f
       -0.9641912 1.2718056 0.039416306 0.6582983
000100 35 c6 c8 be 90 9b 37 3f 1f c9 a0 3e 23 1f c6 3c
       -0.3921372 0.71721745 0.31403443 0.024184769
000110 1d 32 b2 be 5e c4 6b 3e 08 d0 81 3f 2f 89 e2 bc
       -0.34803858 0.23024127 1.0141611 -0.027653305
000120 88 ee c3 bf 52 7d ca bf 97 ca a6 3c 0a d2 9f be
       -1.5307169 -1.5819495 0.020360274 -0.31214935
000130 a4 97 2f 3f d9 d6 0e 3f 3f a7 3b 3e 73 98 93 3f
       0.6859076 0.5579658 0.18325518 1.1530899
000140 3c e1 e0 3e ed 9a 76 3f 2a f2 b5 be fd 66 e7 3e
       0.4392184 0.9633015 -0.3553632 0.4519576
000150 18 16 01 bf d0 65 5b 3d 69 65 c3 be 15 fb 4f 3f
       -0.5042434 0.053563893 -0.38163307 0.81242496
000160 d3 8a be be ba 8e 18 3f 90 5d 99 be 53 11 33 3f
       -0.3721529 0.59592783 -0.29954195 0.6994831
000170 12 21 0b 3f 89 1e a4 be df 93 b9 3f 1a c6 56 bf
       0.54347336 -0.32054546 1.4498252 -0.8389603
000180 46 20 11 3f 80 42 f7 be 20 9b e8 bc f9 58 a3 3e
       0.5668987 -0.48292923 -0.028394282 0.31903818
000190 24 75 94 3f 1e 2e 06 c0 22 16 03 bf 21 c7 7e 3f
       1.1598248 -2.0965648 -0.51205647 0.99522597
0001a0 20 49 51 bc f8 74 e6 bd 00 2e b4 ba da ba e1 be
       -0.012773782 -0.11252779 -0.0013746619 -0.4408787
0001b0 99 5f db 3e e0 66 85 3f 0c bd c6 bd f3 7a 90 be
       0.42846373 1.042202 -0.097040266 -0.28218803
0001c0 e3 10 8a 3f b5 f2 0d 3f 90 54 f2 3e 62 15 ae be
       1.0786403 0.55448467 0.4733014 -0.3400069
0001d0 b1 01 36 3f 54 bc b2 3d c6 49 cb 3c b6 6c 54 bd
       0.7109633 0.08727327 0.024815451 -0.051861487
0001e0 04 b9 44 be 78 79 bc 3f 30 66 91 bf 56 d6 4c 3d
       -0.19211203 1.4724569 -1.135931 0.050009094
0001f0 70 8c 9b 3f 82 c3 a1 bf 65 eb a2 bf 73 d5 bf bf
       1.2152233 -1.2637789 -1.2728087 -1.4987015
000200 9f 67 ca 3d 86 cd 39 3e 10 2a c6 3f fa e6 e4 bf
       0.098830454 0.18144807 1.5481586 -1.7882988
000210 a1 16 df bd bf 6f b9 3f e9 ee a9 be c9 f4 a3 be
       -0.10892988 1.4487227 -0.33190086 -0.32022694
000220 63 56 91 3f 64 3a 8b 3d b0 50 97 3d 83 f5 a7 3f
       1.1354488 0.067982465 0.07388437 1.3121799
000230 00 17 b7 bf 5a 15 9a 3e f2 40 b1 be 0d 04 13 bf
       -1.4303894 0.30094415 -0.34619862 -0.57428056
000240 03 33 3b bf 86 60 08 3d aa 27 16 3f b0 06 b9 bd
       -0.7312471 0.033295177 0.5865427 -0.09034479
000250 4c a9 ae be de f7 82 be a0 36 06 3e 7e 44 6a be
       -0.34113538 -0.25579733 0.13106775 -0.2287769
000260 42 2c 8b be e7 e3 30 bf 54 36 01 3f 38 2a 04 3f
       -0.27182204 -0.6909775 0.50473523 0.5162692
000270 56 5d 84 3f d9 d0 a8 be 4c 5c 7f 3e ca 15 f2 3d
       1.0340984 -0.32971838 0.24937552 0.11820562
000280 c8 12 87 3f 7a fd 11 3e 94 c1 b1 be 47 98 dd 3f
       1.0552607 0.1425685 -0.34718 1.7312096
000290 7e 38 36 bf 11 8e 5a be dc 4a 2d 3f 0d d3 aa 3e
       -0.7117995 -0.21343257 0.6769235 0.33364144
0002a0 a5 29 92 bc a8 5b 1d 3d a0 75 ff bd c5 e0 e4 3e
       -0.017842123 0.03841749 -0.12473607 0.44702736
0002b0 96 8b b2 3f a2 fd 5f bd e4 4d a9 be f2 82 63 3f
       1.3948848 -0.054685242 -0.33067238 0.8887168
0002c0 53 ac 2d 3e 6a 31 04 bf aa ed 2c be 25 d3 ba be
       0.16960268 -0.516379 -0.16887537 -0.36489215
0002d0 9b f4 6a be a9 63 99 3f 70 7f 82 3e 58 bb cf 3e
       -0.22944872 1.1983539 0.25487852 0.4057262
0002e0 72 55 8f be 73 9f 14 3f 90 8e 9b 3d a9 89 94 be
       -0.27994877 0.580558 0.07595551 -0.29011276
0002f0 f5 6b ff be 0e b0 24 bf 19 d8 44 3f cf 1e d3 3e
       -0.49887052 -0.6433114 0.7689224 0.41234443

fc1.bias f4 [64]
000000 98 1d 14 3e ba b6 10 bb 52 48 81 3f 65 ec 5c 3e
       0.14464414 -0.002208157 1.0100195 0.21574552
000010 d3 80 d9 3e e4 aa 85 3d 8c 55 8d 3e 18 9b f9 3e
       0.42481098 0.065267354 0.2760433 0.4875114
000020 72 a1 fa 3e 5e 81 38 3e f4 4e b0 3f 81 98 5b 3f
       0.48951298 0.180181 1.3774095 0.8577958
000030 3a 85 b0 3d c8 ac df 3e 0e f4 09 3f 56 0e 34 3f
       0.08619161 0.4368651 0.5388802 0.70334375
000040 f4 59 1a 3e 6e 70 0f 3e 75 dd 03 3f 0c b0 01 3e
       0.15073377 0.14007732 0.5150979 0.12664813
000050 30 c8 3c 3f 91 3e 90 3e ea da 44 be 52 53 43 3f
       0.7374296 0.28172734 -0.19224134 0.7629901
000060 f6 9a 52 3f 6e f7 01 3f 92 5e 78 3e 4f 5c c1 3d
       0.822677 0.5076817 0.24254826 0.094414346
000070 6b 5e 07 bf 69 72 ec 3d 64 cb 94 3f e3 08 f2 3f
       -0.52878445 0.115452595 1.162457 1.8908962
000080 d6 a9 4d be d9 fd 85 be fb 20 3c 3f c4 af 0f 3e
       -0.20084319 -0.26170233 0.73487824 0.14031893
000090 7e 91 bb 3f 01 d3 70 3f cf 07 f8 bd f6 4a b5 be
       1.4653776 0.94071966 -0.12110864 -0.35408753
0000a0 05 b7 b3 3f d2 d4 96 3f e2 6f 03 40 b5 b3 63 be
       1.4040228 1.1783698 2.0537038 -0.22236522
0000b0 0a b7 97 3f b5 4f f2 3d 5d 86 f3 3e c0 8e cb bc
       1.1852734 0.11831609 0.4756345 -0.024848342
0000c0 3f 1b dc 3f 20 ce 0c 3f 9e 65 92 3e 8e 99 6c 3f
       1.7195815 0.5500202 0.28593153 0.92421806
0000d0 ea d1 c8 3e f8 62 78 3f 5a 2b b0 3f d8 5f 37 3f
       0.39222652 0.97026014 1.376323 0.7163062
0000e0 ae a0 09 3d 06 0f 32 3f a9 ec 8f 3f f0 b0 b2 3d
       0.0336005 0.69554174 1.1244098 0.087251544
0000f0 f6 a1 90 3e 8f 84 dd bd fa cc 8e 3e b9 83 f5 3e
       0.28248566 -0.10816299 0.2789076 0.4795206

fc2.weight f4 [64, 64]
000000 50 42 2f 3c 70 e5 b9 3c 46 85 b9 bd 3c 8b 8e 3d
       0.0106969625 0.022692412 -0.09058623 0.069601506
000010 f8 56 31 3d 86 f5 f4 bd f8 be 16 3d 50 df 24 bc
       0.04329583 -0.119608924 0.036803216 -0.0100630075
000020 92 6a e6 bd 42 39 e2 bd 60 b6 a9 3d 58 ab bd bc
       -0.112507954 -0.11046077 0.082867384 -0.023152992
000030 80 73 86 bb be b0 d6 3d 4e db 96 3d cc 30 ca 3d
       -0.004103124 0.1048293 0.07366048 0.098725885
000040 98 b4 d4 3c e2 ec c7 3d 82 fb e8 bd a0 f7 49 3c
       0.02596502 0.09761979 -0.11376096 0.012327105
000050 76 ff 8b bd 1c 93 2f 3d 44 9e 7f bd 60 51 a9 bd
       -0.06835835 0.042864904 -0.062406793 -0.08267474
000060 9c 86 62 bd d8 2b 9e bd d0 21 b1 bc 20 2a d2 3c
       -0.055304155 -0.07723206 -0.021622568 0.025654852
000070 a8 33 d4 bc 60 6f 8a bd 90 a2 9a 3c f6 b6 96 bd
       -0.025903538 -0.06759524 0.018876344 -0.07359116
000080 d0 64 5e bc 00 f9 39 ba 0e f1 c9 3d bc 56 91 3d
       -0.01357384 -0.0007094294 0.09860431 0.070966214
000090 10 2b 75 bd c0 51 cf bc 64 f4 9b bd 00 44 78 bb
       -0.05985552 -0.025307536 -0.07614973 -0.0037882328
0000a0 08 c4 f3 bc c0 43 ec bd 24 1a 2e bd 30 e1 7a 3d
       -0.02975656 -0.1153636 -0.0425054 0.06124991
0000b0 40 9a 88 bc 72 e0 dd 3d 2c 95 55 3d a0 29 d3 bc
       -0.016675115 0.10833825 0.052144215 -0.025776684
0000c0 c0 56 4a bb 20 4d db 3b 70 f7 06 3c 48 61 c3 3d
       -0.003087446 0.0066925436 0.008237705 0.09540039
0000d0 4a 31 b7 bd 30 dc bb 3c b8 7c 4d bd 50 cb 4b bc
       -0.08944948 0.022932142 -0.05016777 -0.01243861
0000e0 5c a4 57 3d b0 90 5d 3c 62 fa 80 3d 18 71 65 3d
       0.05264698 0.013523266 0.06297757 0.056016058
0000f0 84 25 00 bd 18 61 9b 3c 00 e5 a3 3a 14 d8 4e bd
       -0.031285778 0.018967196 0.001250416 -0.050499037
000100 1a aa dd 3d 26 c3 c3 3d 00 c6 b8 bb 80 f9 e4 3b
       0.1082346 0.09558706 -0.005638838 0.0069877505
000110 38 7b aa bd 42 22 e9 bd 9a 6c 9f bd 40 59 d2 bc
       -0.08324283 -0.11383487 -0.07784386 -0.025677323
000120 8a b9 e3 3d 54 cf 33 bd 30 50 2b bd e8 87 f9 bd
       0.11119373 -0.043898895 -0.04182452 -0.12184125
000130 2e d4 af bd 04 92 32 3d d2 99 cf 3d 8e 31 ea bd
       -0.08585392 0.043596283 0.10136761 -0.11435233
000140 f0 a5 fb 3c 4e b3 fa 3d 2c bc bb bd 20 3e a9 3d
       0.030718774 0.12241231 -0.0916675 0.082638025
000150 10 8c 13 bc 32 3c cb bd 88 26 f7 3c ce f6 e0 bd
       -0.0090055615 -0.09923591 0.03016974 -0.10984574
000160 44 49 53 bd 1e 30 f3 bd 78 6c c6 bc 42 35 d8 3d
       -0.051583543 -0.11874412 -0.024221644 0.10557033
000170 74 d3 ca 3d d4 d6 eb 3d 16 21 e0 bd 5c fe 5f 3d
       0.09903613 0.115155846 -0.10943811 0.054685935
000180 40 e3 40 3c 00 d9 32 bb b2 51 8c 3d fa 06 bf 3d
       0.011772931 -0.0027289987 0.0685152 0.093275025
000190 a6 2d a4 3d b8 4c 69 bd a8 22 e8 bc 7a 2b 99 bd
       0.08016519 -0.05695793 -0.028336838 -0.074789956
0001a0 90 c5 f1 bc 14 a4 68 3d ca 7c f7 3d 6c c5 62 3d
       -0.02951315 0.056797102 0.120843485 0.055364057
0001b0 fa 44 ff 3d 88 1a 88 bd 12 a3 87 bd 6a 47 db bd
       0.12464328 -0.066456854 -0.066229 -0.107069805
0001c0 a0 f8 34 3d 40 9d f1 bc b0 0a bb 3d 24 2d 06 bd
       0.04418242 -0.029493928 0.09132898 -0.032757893
0001d0 d0 c3 ae bd d0 d9 83 bc ac 92 34 bd 80 fb 95 ba
       -0.08533442 -0.016095072 -0.04408519 -0.0011442751
0001e0 20 b4 1c 3d 8a 60 8b bd 00 be 8f bb 78 0d a5 bc
       0.038257718 -0.06805523 -0.0043866634 -0.020148024
0001f0 b8 e0 e6 bc 76 23 91 bd 94 28 be 3d 00 d3 9f bd
       -0.028183326 -0.07086842 0.092850834 -0.07803917
000200 a0 95 b6 3d 94 95 63 bd a6 3b aa 3d 0c a3 3c 3d
       0.089152575 -0.05556257 0.08312158 0.04605393
000210 fc e4 32 bd d4 50 f1 3d 32 e0 f4 3d 2e bc 85 bd
       -0.043675408 0.11782995 0.11956824 -0.06530033
000220 b8 05 0d bd 70 3c 70 3c be 4b c0 bd 14 ae 56 bd
       -0.034429282 0.014662847 -0.09389447 -0.052412108
000230 6c a9 8e bd a4 3e b7 bd b4 df 96 3d 30 18 56 bc
       -0.069659084 -0.089474946 0.07366887 -0.01306729
000240 10 b8 f6 bc 92 c0 be bd 8e 82 bc 3d c0 c3 30 3d
       -0.030117065 -0.093140736 0.09204589 0.04315543
000250 c0 45 fc bb 38 2e d2 3c 12 85 d0 bd be 34 8b bd
       -0.0076987445 0.025656804 -0.10181631 -0.06797169
000260 52 2e af bd 80 f3 1f 3d 80 f0 cb ba 00 06 64 bc
       -0.08553757 0.03905058 -0.0015559345 -0.013917446
000270 a8 63 e3 3c bc a8 81 bd b2 ed ad bd d0 bb ae bd
       0.02775748 -0.06331012 -0.084926024 -0.08531916
000280 9a 34 9e bd d0 f1 c6 bd 30 1d 6a bc cc e7 75 bd
       -0.07724877 -0.09714091 -0.014289185 -0.06003551
000290 28 07 9d 3d 54 11 0f 3d d4 7b f5 3d 40 98 43 3c
       0.076673806 0.034928635 0.11986509 0.011938155
0002a0 9a fa bf bd 5a e0 c1 3d e0 fd d1 bd 6a c6 88 bd
       -0.0937397 0.0946662 -0.10253501 -0.066784695
0002b0 f0 af 5f bd 38 32 7b 3d b0 70 31 bd 9a 75 c2 3d
       -0.054611146 0.06132719 -0.043320358 0.09495087
0002c0 e8 69 f3 bc c0 4b d8 3d f0 19 fd 3d 84 5e a9 bd
       -0.029713586 0.10561323 0.12358463 -0.082699805
0002d0 60 d0 6a bc 1e 82 a9 bd 7e 55 a9 bd 38 6b 66 3d
       -0.014331907 -0.08276771 -0.082682595 0.056254596
0002e0 14 0b bb bd ec 97 8d 3d 40 08 d8 bd 00 92 25 ba
       -0.09132972 0.069137424 -0.105484486 -0.0006316006
0002f0 b8 83 e0 bd d0 2b 16 bd 6a d9 b8 bd 84 09 4c 3d
       -0.10962623 -0.036662877 -0.090258434 0.049813762
000300 08 01 74 bd a5 d8 3f c0 5b 3c b3 bd b5 af 56 3c
       -0.059571296 -2.997598 -0.08751746 0.013103415
000310 3c 8e 1b 3d d3 e6 cb bf a8 41 a0 3d a6 3b c1 3d
       0.037977442 -1.5929817 0.07825023 0.09435205
000320 87 2c fb 3d 03 ef 98 bc f2 e7 98 3e e1 a1 05 bd
       0.12264352 -0.018668657 0.2986446 -0.032625083
000330 c0 15 39 bf 46 bd e7 3d f6 5d 3a 3d eb f5 0e 3e
       -0.7229881 0.11315398 0.045499764 0.13960998
000340 e0 10 4d bd 50 bb 54 bc 21 4a 8f bf c8 76 8e bc
       -0.05006492 -0.012984112 -1.1194497 -0.017390624
000350 48 5b 56 be 94 b7 46 bd f8 a8 b0 3d 85 40 a9 3e
       -0.20933259 -0.048514917 0.08625978 0.33057037
000360 37 df 15 bf 7e 55 09 3d 16 49 71 bd 3a 40 6e bc
       -0.58543724 0.033528797 -0.05890759 -0.01454168
000370 4c 33 08 3d 7b 9b f5 3d ec bb de 3d 73 cd 8e 3e
       0.033252046 0.11992546 0.10875687 0.2789112
000380 0e aa 98 bd 8b f0 26 c0 24 fc 8a 3e 68 24 fc 3d
       -0.0745431 -2.6084316 0.27145493 0.123116314
000390 6e 61 c7 3e 37 08 f7 3c fd 6e 5a 3c ae c7 b1 3c
       0.3894152 0.030155284 0.013332126 0.02170166
0003a0 08 c8 dd 3e ba ee 93 3d 91 8b 82 bf 80 41 2c bf
       0.43316674 0.07223268 -1.0198842 -0.67287445
0003b0 7f 64 12 bf 39 8a 18 3c 5d b2 95 be 40 97 66 3d
       -0.57184595 0.009310299 -0.29237643 0.056296587
0003c0 87 25 58 bd 00 4a 93 bd 8e 2e b2 3d 3d f9 0a be
       -0.052770164 -0.07191849 0.08700286 -0.1357164
0003d0 dd d7 c5 3d 44 dc a9 3d ef 5f e8 3d cc 41 e8 bc
       0.09660313 0.082939655 0.11346423 -0.028351687
0003e0 e2 54 b6 3c d7 5d dd 3e 0f 0e 7c bd c0 f9 ab 3b
       0.022257272 0.43235657 -0.061536845 0.0052482784
0003f0 fd 3e 06 3e e3 49 c2 3b c8 9e f7 3d 9c f2 9c 3b
       0.13109966 0.005929218 0.12090832 0.0047896635

fc2.bias f4 [64]
000000 44 8a 82 bd ee f1 84 bd 0c 7a 15 3d a4 5f fa 3d
       -0.06374028 -0.06491457 0.036493346 0.12225273
000010 56 2b 6b 3f 1c 6e ef bd 79 4d 80 bd d1 22 f9 3e
       0.91863 -0.116909236 -0.06264777 0.48659375
000020 1b 35 82 bc ca 59 1b 3f 34 4e db bd b6 96 26 3c
       -0.015894463 0.6068388 -0.107082754 0.010167768
000030 50 3d 52 3f d2 f4 6d bd 34 86 c4 bd 4b 4e f3 bd
       0.82124805 -0.058094807 -0.0959591 -0.118801676
000040 df 3e d6 3e 4c af c0 3e c7 b9 fb 3e 0e 68 3d 3d
       0.41844842 0.3763374 0.49165174 0.046241812
000050 00 b0 1a b8 c0 b0 fe bc 6c de 95 3d 20 b9 61 3f
       -3.6880374e-05 -0.03109014 0.07317814 0.88173103
000060 31 df e2 bc 3e e2 d8 3e 70 98 2e 3f 1f 01 c9 bc
       -0.027694317 0.4236011 0.6820135 -0.024536667
000070 1b 5f c1 bd 24 a3 9e be 60 43 5d bc b0 45 f3 bd
       -0.09441968 -0.3098384 -0.013504833 -0.11878526
000080 88 a5 9b 3d cc 8c 5d 3e 43 d9 9f 3e 8a d9 8c bd
       0.07599932 0.21635741 0.31220445 -0.0687743
000090 dd fe b0 bd fe 65 26 3f 18 c3 98 3e 2a 05 d1 bc
       -0.08642361 0.6499938 0.29836345 -0.025515158
0000a0 e3 ee ec be 32 fe 20 40 2c 6b ad bd 04 a2 37 3e
       -0.46276006 2.5155149 -0.08467707 0.17932898
0000b0 8f e1 3f 3f 14 16 cc 3e 6a c7 8e 3e 48 f3 99 bd
       0.7495355 0.39860594 0.27886516 -0.07517105
0000c0 fb 4a 2e 3f 20 f4 82 3d b9 9e f0 bd dd 85 03 3f
       0.6808316 0.063942194 -0.11749024 0.51376134
0000d0 00 35 59 3d 43 35 f2 3e 2a e2 b5 bd 08 94 01 be
       0.05302906 0.4730626 -0.08881028 -0.12654126
0000e0 f1 28 cd 3e 1d c9 0e 3b 2b 02 b5 3f 96 d1 e4 3e
       0.40070298 0.0021787353 1.4141287 0.4469115
0000f0 d4 a6 29 bf 16 2b 8f bd 6b 90 97 3d 6b e9 c1 3e
       -0.66270185 -0.0699064 0.074005924 0.37873396

fc3.weight f4 [4, 64]
000000 0c 23 7b bd 74 e6 15 3d e0 f1 a0 3b c4 45 9c 3e
       -0.06131272 0.03659673 0.0049116462 0.30521977
000010 de 20 c3 3e f4 ac ec 3d 38 ab 7f 3e 6f cb 57 bf
       0.38111013 0.11556426 0.24967659 -0.8429479
000020 62 6e 24 3d d4 84 5d bf 22 9d bc 3e 26 f6 d5 bd
       0.04014433 -0.86530805 0.36838633 -0.1044734
000030 13 27 4f bf 79 c3 ff 3e 66 0a e0 3d ff d4 89 3d
       -0.80919 0.4995382 0.10939483 0.06730079
000040 07 29 3b bf 7d 14 6a bf 68 12 4b bf 86 01 cd 3d
       -0.7310948 -0.9143751 -0.7932496 0.10010056
000050 9e 42 ac bd 7c 6d fa 3d 34 2b 29 3d eb 0c be 3e
       -0.08411144 0.12227914 0.041300967 0.3711923
000060 cc 6c 51 3d 1d ae 4d bf e5 67 63 bf 06 9e eb bd
       0.051129147 -0.803438 -0.88830405 -0.1150475
000070 b8 f3 86 3c 6d 89 bd bf 0c 38 5a bd 20 20 bc bd
       0.016473636 -1.4807564 -0.053276107 -0.09185815
000080 f2 d2 8c 3c 69 71 52 bf 15 22 63 bf c4 26 75 3d
       0.01719043 -0.822043 -0.8872388 0.059851423
000090 b7 86 c2 3c 2b a7 46 bf 26 52 4e bf 1c e0 a9 3d
       0.023745878 -0.7759883 -0.805941 0.082946986
0000a0 fd 7b dc bf 12 d2 80 be 31 13 55 3d c8 7a 68 bf
       -1.7225338 -0.2516027 0.052020255 -0.9081235
0000b0 01 b0 74 bf 83 91 67 bf eb 9b 3e bf 22 6c b2 3d
       -0.9558106 -0.9045641 -0.7445666 0.08712031
0000c0 a6 39 85 bf ac 17 94 3d 0a f9 b0 3d 2b 58 3b bf
       -1.0408218 0.072310776 0.086412504 -0.7318141
0000d0 c0 2d f6 3b 12 e1 5f bf 60 8e 90 3d 14 79 38 3d
       0.007512778 -0.87452805 0.07058406 0.045037344
0000e0 ac 03 46 bf 70 7f 1b 3d 8b b8 b0 bf 8d e4 63 bf
       -0.7734935 0.03796333 -1.3806318 -0.89020616
0000f0 e8 fb c5 bf e4 3d 7c bd 87 28 3c bc 80 95 44 bf
       -1.5467501 -0.06158246 -0.011484272 -0.7679062
000100 ca 59 c4 3d 00 a3 2b 3b f4 7d 53 3d 35 a8 9b 3d
       0.095874384 0.0026189685 0.05163379 0.07600442
000110 0b 2a e5 3c d0 a7 69 bc 14 03 1e 3e 45 37 58 bf
       0.02797415 -0.014261201 0.15430862 -0.84459335
000120 d1 a0 ad bd 6e 9a 0b bf cc df c4 3e 50 1a 1f bc
       -0.08477939 -0.54532516 0.38451993 -0.009710863
000130 92 d9 42 bf a0 d1 88 3e 54 13 76 3d 45 17 9a 3c
       -0.76113236 0.2672243 0.060077026 0.018809924
000140 85 3b 03 bf 97 ca 71 bf 79 d1 c4 be ad 17 18 bd
       -0.51262695 -0.9444975 -0.38441065 -0.037131954
000150 a0 c9 ad bb 1c b5 71 bd 00 47 a7 3d d3 b3 ba 3c
       -0.0053035766 -0.05901061 0.08167839 0.022790825
000160 44 93 c7 3d 38 03 4a bf 3a b4 37 bf f4 15 aa 3d
       0.097448856 -0.7891116 -0.7175938 0.083049685
000170 8c 62 32 bd 3c e7 31 c0 14 f7 ca bd f0 b3 04 3d
       -0.043551013 -2.7797384 -0.09910408 0.032398164
000180 90 bc c6 bc ed d0 21 bf 62 b7 0b bf 24 a5 f0 bd
       -0.024259835 -0.6320942 -0.54576695 -0.11750248
000190 b8 3f 99 3d bf 0b 04 bf 2d a7 27 bf 7d 7f 5c bd
       0.074828565 -0.51580423 -0.65489465 -0.05383252
0001a0 93 9b 3c c0 9a 23 cd bf 5f e1 f0 3c 31 b5 ba be
       -2.9469955 -1.602649 0.02940434 -0.36466363
0001b0 6c c4 70 bf f2 17 33 bf 7d ad e7 be 84 c1 2a bc
       -0.94049716 -0.6995841 -0.4524955 -0.010422114
0001c0 5c 6f 53 bf 82 93 b3 bd 3d b6 b5 3d 18 4e 17 bf
       -0.82591796 -0.08768369 0.0887265 -0.59103537
0001d0 e6 f0 bf bd fd 8a 20 bf 68 6f c5 3c fa b3 a7 3d
       -0.093721196 -0.6271208 0.024100974 0.08188625
0001e0 7f 01 44 bf 28 4e bd bc b3 4c 1a c0 88 25 3e bf
       -0.7656478 -0.023108557 -2.4109313 -0.7427602
0001f0 fa 74 40 c0 40 89 8c 3c aa 49 ae 3d 3b 06 15 bf
       -3.0071397 0.01715529 0.08510144 -0.5821263
000200 d4 0b 04 3d 1c 80 51 3d d4 a1 c0 3d 46 6f 0e 3e
       0.032237843 0.051147565 0.09405866 0.13909635
000210 3c 04 a6 3e 01 7d 9d 3c c7 0c 43 3e ea 2f 7c bf
       0.32425106 0.019224646 0.19047843 -0.9851061
000220 d6 bd 64 3d ed d9 06 bf 1b 71 cd 3e b8 db 6c bd
       0.055845104 -0.5267628 0.40125355 -0.057826728
000230 b6 55 29 bf 47 34 bd 3e 10 d8 4b 3d 86 69 0c bd
       -0.6614641 0.36953947 0.0497666 -0.034280322
000240 82 0a 34 bf 10 b3 76 bf e2 97 02 bf 6b 70 c2 3b
       -0.70328534 -0.9636698 -0.51013005 0.0059338114
000250 76 b8 f0 bd fe 6a 83 bd bb 6a 96 bc 77 b9 96 3e
       -0.11753933 -0.064168915 -0.01836144 0.29438373
000260 27 c9 79 bb d8 61 7f bf 70 9f 1a bf 7e c1 14 3b
       -0.003811428 -0.9975867 -0.6039953 0.0022698338
000270 70 9a 3e bc 29 70 cf bf 94 d3 8d bd 8a 6b c2 3a
       -0.0116335 -1.6206104 -0.06925121 0.0014833075
000280 08 eb e5 bd 5b 42 65 bf be d7 2e bf 60 5b 68 3c
       -0.11226469 -0.89554375 -0.68297946 0.014181942
000290 a6 a0 6c bb a6 1d 01 bf 7f af 68 bf f7 a5 bf bb
       -0.0036106496 -0.50435865 -0.90892786 -0.005848642
0002a0 61 64 81 c0 90 0c e1 be cb ac dc 3b ad 7e 3b bf
       -4.0435033 -0.43954897 0.0067344657 -0.73240167
0002b0 27 56 3d bf 55 cc 61 bf 87 53 2d bf d8 40 4e 3d
       -0.73959583 -0.8820241 -0.6770558 0.05035481
0002c0 26 d9 1d bf 44 41 9c 3d 08 cf da bc 38 ea 18 bf
       -0.6165947 0.07629636 -0.026710048 -0.5973239
0002d0 be 3b dd 3d 21 02 39 bf 40 a8 86 bd 30 45 1d bd
       0.108024105 -0.72268873 -0.0657506 -0.03839606
0002e0 f1 54 5f bf 07 3b 06 bd c3 d8 df bf ac cf 57 bf
       -0.87238985 -0.032771137 -1.7488025 -0.8430126
0002f0 5d 3e 3a c0 5c e5 60 3d e0 7e 33 3d 95 4b 56 bf
       -2.9100564 0.054906234 0.04382217 -0.8370908
000300 c8 5c d1 bc b8 a6 bb 3d 08 4e 21 bd 60 c7 50 be
       -0.025556937 0.091626585 -0.039381057 -0.20388556
000310 58 a5 da be ec da 7c 3d 1d 2a cd bd 68 0f 05 bf
       -0.42704272 0.061732218 -0.10017798 -0.51976633
000320 e1 9b d2 3d 70 16 6a bf 28 29 c9 3e 1a 06 ed 3d
       0.10283638 -0.91440487 0.39289212 0.115734294
000330 88 80 90 bf 47 b7 ce 3e 24 7e 1a bd 68 93 a9 3c
       -1.1289225 0.40374205 -0.037717953 0.020700172
000340 1c af c5 be b3 7d 2a bf 33 fe 2d bf 72 e0 c1 3d
       -0.3861016 -0.6659805 -0.67966 0.09466638
000350 94 ce a0 bd d9 5d 11 3d 20 83 9f 3d 17 94 f4 be
       -0.07851902 0.03548989 0.07788682 -0.47769234
000360 df e7 57 3d 98 25 9f be ca 95 89 bf c0 b6 a0 3b
       0.052711364 -0.3108337 -1.0748837 0.004904598
000370 0a 60 3a bd 3d d4 20 c0 20 ae 68 3c 54 07 b8 bd
       -0.045501746 -2.512954 0.014201671 -0.08985773
000380 7c b3 b2 3d 15 01 a5 be 8e 7d 1d bf 80 e9 a9 ba
       0.0872564 -0.32227388 -0.61519706 -0.0012963265
000390 63 78 d8 3d 28 42 1a bf 7b 0c fc be e7 67 55 3c
       0.10569837 -0.60257196 -0.49228272 0.0130252605
0003a0 a9 9b ce bf 75 96 01 bf bb e4 3a bd 2b 41 ce be
       -1.6141254 -0.50620204 -0.04562829 -0.40284094
0003b0 cf ef 8c bf 93 2d af be ec db 08 bf cc ba 95 3d
       -1.1010684 -0.34214458 -0.53460574 0.07311019
0003c0 0f 6f bf bf 40 d5 17 bd 88 8c f0 3d 34 ad 20 bf
       -1.4955767 -0.037068605 0.11745554 -0.62764287
0003d0 8c ed 34 3d 85 67 2f bf ec a4 52 3d cc 0b 2e 3d
       0.044171855 -0.68517333 0.051426813 0.04249172
0003e0 e8 4e 28 bf dc fb 05 3d e3 e6 40 c0 07 11 34 bf
       -0.657454 0.032710895 -3.0140922 -0.7033848
0003f0 2a db dd bf 14 76 52 bd 61 1f 44 bd 09 a5 15 bf
       -1.7332509 -0.05138214 -0.047881488 -0.5845495

fc3.bias f4 [4]
000000 48 93 14 bb aa 1d 11 bf 5c b2 55 3f 9d 0b cb bf
       -0.0022670794 -0.5668589 0.8347528 -1.5862919
