FE+DQN_demo/results/dqn_model_episode_1000.pth (torch, 21534 bytes, 6 tensors)

fc1.weight f4 [64, 3]
000000 2c ec 0e bf 6a bf c8 be f8 0c 7c be da 3e 36 3e
       -0.5582912 -0.39208537 -0.24614322 0.17797413
000010 53 26 5b 3f c0 c8 0d c0 b9 69 2c bf f2 c0 58 3f
       0.85605353 -2.2153778 -0.6734882 0.8466941
000020 57 f6 04 3f a8 e5 0d 3f 71 0a 1b bf 10 a4 28 3f
       0.51938385 0.5542855 -0.6056281 0.6587534
000030 19 7c 58 3f 1f e9 09 bf 65 70 dc 3e 4f 9c 2f 3d
       0.8456436 -0.5387134 0.430545 0.042873677
000040 65 b3 6a 3f 0b 57 14 c0 e8 0c c7 3d d4 e8 cc be
       0.91679984 -2.3178127 0.097192585 -0.40021384
000050 30 5d 15 be 03 21 1d bf f8 bb 29 3f cd 9c da 3e
       -0.1458633 -0.61378497 0.6630244 0.42697755
000060 bd c9 8d 3f 7b 03 39 bf 5a 58 d9 3e 66 24 67 bf
       1.1077191 -0.72270936 0.4245022 -0.90289915
000070 f7 1a 69 3f e7 8c 09 3f a0 2d e4 3d e2 19 a1 3f
       0.9105677 0.53730625 0.11141515 1.2586024
000080 44 0f f2 bf e4 ff 32 be ff 5a 70 3f 3b f8 b1 3e
       -1.8910909 -0.17480427 0.9388885 0.34759697
000090 dd 4f dc bf 42 67 ea bf 8e 70 cd 3c f8 8e 24 3e
       -1.7211872 -1.8312762 0.025078084 0.16070163
0000a0 f6 72 2c be e0 88 87 be d9 73 53 be 62 6b ae 3f
       -0.16840729 -0.26471615 -0.20649661 1.3626521
0000b0 c0 cc c6 3d 0e d3 55 3d d5 05 9d 3f be 7d 03 c0
       0.09707022 0.05220323 1.2267405 -2.0545497
0000c0 40 22 7b 3d 7d d9 ae be 15 a3 97 be 60 dd 32 bf
       0.06131196 -0.34150305 -0.2961661 -0.6986904
0000d0 04 4e 89 3f 00 ef 65 3e ad 23 41 3d c3 55 81 3f
       1.0726933 0.22454453 0.047153164 1.0104297
0000e0 80 4e 15 c0 7c 48 1f be 8e 0e c5 be c0 97 b6 bd
       -2.3329163 -0.15554994 -0.38487667 -0.08915663
0000f0 de 94 80 bf 95 93 c5 3f 58 c0 83 3c 10 39 12 3f
       -1.0045431 1.5435663 0.016082928 0.5711832
000100 00 4d 0b bf 20 fe 2d 3f 1f c9 a0 3e 23 1f c6 3c
       -0.5441437 0.6796589 0.31403443 0.024184769
000110 1d 32 b2 be 14 43 0e 3f 7a f6 e6 3f fa 9e 4b be
       -0.34803858 0.55571103 1.8043969 -0.19884863
000120 88 ee c3 bf 52 7d ca bf 97 ca a6 3c 57 6b ee be
       -1.5307169 -1.5819495 0.020360274 -0.4656627
000130 d8 ce 3d 3f da 0f 01 3f 6a 43 eb 3d de 05 a1 3f
       0.74143744 0.5041481 0.114874676 1.2579916
000140 6d c1 d1 3e 08 4c 74 3f c2 16 1c bf b7 46 d8 3e
       0.40967885 0.95428514 -0.60972226 0.4224145
000150 18 16 01 bf d0 65 5b 3d 69 65 c3 be 3a 80 3c 3f
       -0.5042434 0.053563893 -0.38163307 0.7363316
000160 18 1a 1b bf 94 f4 0e 3f cd d0 f2 be 9c e0 54 3f
       -0.6058669 0.55841947 -0.47424927 0.83155227
000170 70 08 e2 3e 9a f5 d4 3d 5f bc 91 3f 79 fd d6 bf
       0.44147062 0.10398407 1.1385611 -1.6796104
000180 46 20 11 3f 80 42 f7 be 20 9b e8 bc 46 41 f0 bb
       0.5668987 -0.48292923 -0.028394282 -0.007332
000190 3f 54 78 3f fd c4 15 c0 1e 3e a3 be f2 d1 ea 3f
       0.9700355 -2.3401482 -0.3188333 1.834532
0001a0 4c ab 6d bf f8 74 e6 bd 00 2e b4 ba da ba e1 be
       -0.92839503 -0.11252779 -0.0013746619 -0.4408787
0001b0 4c 17 d6 bc 5d e2 b9 3f e2 f5 bd bf b2 54 c4 be
       -0.026134156 1.4522206 -1.4840662 -0.38345867
0001c0 19 a5 97 3f b6 80 05 3f f9 eb df 3e 13 69 fb be
       1.1847259 0.5214952 0.4373472 -0.49103603
0001d0 1d c7 2e 3f 54 bc b2 3d c6 49 cb 3c b6 6c 54 bd
       0.6827257 0.08727327 0.024815451 -0.051861487
0001e0 11 4a 2a 3e b8 e9 92 3f 3b 16 f5 bf 7f 9c 1d 3e
       0.16629817 1.1477575 -1.9147409 0.1539173
0001f0 ca b0 75 3f ee d9 f1 bf 7d 8b fe bf 55 f3 0a c0
       0.95972884 -1.8894632 -1.9886318 -2.1711018
000200 21 e1 df 3d 76 ac 4a 3d 94 55 9b 3f ec 0c 19 c0
       0.10931612 0.049480878 1.2135491 -2.3914137
000210 a8 e1 8d bd 39 b8 9f 3f ee f9 a3 bf 9e 5d b0 be
       -0.06927806 1.2478095 -1.2810647 -0.34446424
000220 00 79 ae 3f 48 45 1d 3d f6 09 a3 3d b1 a5 87 3f
       1.3630676 0.03839615 0.07960884 1.059744
000230 f3 ea 02 c0 5a 15 9a 3e f2 40 b1 be 0d 04 13 bf
       -2.0455902 0.30094415 -0.34619862 -0.57428056
000240 b2 f4 1f c0 e8 98 dd 3e fb 82 d1 3e b0 06 b9 bd
       -2.49931 0.4328072 0.40920243 -0.09034479
000250 4c a9 ae be de f7 82 be a0 36 06 3e 7e 44 6a be
       -0.34113538 -0.25579733 0.13106775 -0.2287769
000260 42 2c 8b be 00 5b 6d bf 16 cc 22 3f 1c d0 db 3e
       -0.27182204 -0.9271698 0.6359266 0.42932212
000270 63 74 8f 3f a6 e2 3a bf 70 d7 5d 3e e3 75 b4 3d
       1.1207393 -0.7300209 0.21664214 0.088115476
000280 41 f2 a2 3f 49 8b c2 3d 77 53 af bc 7c c5 ad 3f
       1.273018 0.09499223 -0.021402104 1.3575892
000290 a4 56 d6 bf 4f 51 b3 be a7 ff 5d 3f 12 ce 4b 3e
       -1.6745191 -0.3502297 0.8671822 0.19902828
0002a0 a5 29 92 bc a8 5b 1d 3d a0 75 ff bd 63 1a 07 3f
       -0.017842123 0.03841749 -0.12473607 0.5277464
0002b0 96 b0 d6 3f 51 86 eb bc 5a 92 c1 be 07 3e 91 3f
       1.677264 -0.02875057 -0.3780697 1.1347054
0002c0 04 4e fa 3d 6a 31 04 bf aa ed 2c be 25 d3 ba be
       0.122219115 -0.516379 -0.16887537 -0.36489215
0002d0 2b e1 8e be 31 0a af 3f 7d 5a 66 3e ef 5a bd 3e
       -0.27906165 1.3674985 0.22495456 0.3698344
0002e0 c9 33 d9 be e9 46 0d 3f 90 8e 9b 3d a9 89 94 be
       -0.4242232 0.55186325 0.07595551 -0.29011276
0002f0 f5 6b ff be d0 a5 47 bf 0a cd 66 3f 28 49 be 3e
       -0.49887052 -0.77987385 0.90156615 0.3716519

fc1.bias f4 [64]
000000 98 1d 14 3e 19 43 12 be ae 45 4b be 78 d6 8d 3f
       0.14464414 -0.14283408 -0.198508 1.1081076
000010 6d 02 c9 3f eb 88 37 be 8c 55 8d 3e 15 dd 66 bf
       1.5703865 -0.17923324 0.2760433 -0.90181094
000020 85 61 ba 3f 5e b0 94 bf 95 1a 15 3f 0e d5 bb be
       1.4561011 -1.1616323 0.58243686 -0.36685985
000030 09 00 ae 3d c8 ac df 3e cf 45 15 bf a7 1e b1 bc
       0.084961005 0.4368651 -0.58309644 -0.021621061
000040 f4 59 1a 3e 01 c0 84 bf 37 8e 04 3e 0c b0 01 3e
       0.15073377 -1.0371095 0.12944876 0.12664813
000050 96 25 77 be 81 2b aa 3f ea da 44 be 15 78 46 bf
       -0.24135432 1.3294526 -0.19224134 -0.7752698
000060 f6 9a 52 3f db 5c 5f bf 1b e2 8a bf f8 90 97 3f
       0.822677 -0.8725106 -1.0850252 1.1841116
000070 6b 5e 07 bf 44 8c 8e 3f 97 5a 7c bd 3b e6 96 3f
       -0.52878445 1.1136556 -0.06160983 1.1789011
000080 d6 a9 4d be c2 72 ec be 28 9d a6 3f c4 af 0f 3e
       -0.20084319 -0.46181303 1.301671 0.14031893
000090 72 27 14 40 5a dc b5 be de 67 80 3f f6 4a b5 be
       2.3149076 -0.35519677 1.0031698 -0.35408753
0000a0 5f ee 39 3f 38 35 30 3f 07 1e 0d 40 dc 8a 35 bf
       0.7262935 0.68831205 2.2049577 -0.7091501
0000b0 cf 32 5a 3f 7f 82 7a bf f6 72 95 3c c0 8e cb bc
       0.8523378 -0.9785537 0.018243294 -0.024848342
0000c0 89 88 2e 40 20 ce 0c 3f 9e 65 92 3e 37 2b 81 be
       2.7270834 0.5500202 0.28593153 -0.25228283
0000d0 b3 54 99 3f e1 c9 16 be 20 48 22 3f c6 12 c9 be
       1.1978973 -0.14725448 0.63391304 -0.39272135
0000e0 ae a0 09 3d 90 da 58 bf 7e 42 a8 3d f0 b0 b2 3d
       0.0336005 -0.847085 0.082158074 0.087251544
0000f0 6c b9 6c bf 38 25 84 3f fa cc 8e 3e 6a a5 3a bf
       -0.9247043 1.0323858 0.2789076 -0.7290865

fc2.weight f4 [64, 64]
000000 50 42 2f 3c 70 e5 b9 3c 46 85 b9 bd 3c 8b 8e 3d
       0.0106969625 0.022692412 -0.09058623 0.069601506
000010 f8 56 31 3d 86 f5 f4 bd f8 be 16 3d 50 df 24 bc
       0.04329583 -0.119608924 0.036803216 -0.0100630075
000020 92 6a e6 bd 42 39 e2 bd 60 b6 a9 3d 58 ab bd bc
       -0.112507954 -0.11046077 0.082867384 -0.023152992
000030 80 73 86 bb be b0 d6 3d 4e db 96 3d cc 30 ca 3d
       -0.004103124 0.1048293 0.07366048 0.098725885
000040 98 b4 d4 3c e2 ec c7 3d 82 fb e8 bd a0 f7 49 3c
       0.02596502 0.09761979 -0.11376096 0.012327105
000050 76 ff 8b bd 1c 93 2f 3d 44 9e 7f bd 60 51 a9 bd
       -0.06835835 0.042864904 -0.062406793 -0.08267474
000060 9c 86 62 bd d8 2b 9e bd d0 21 b1 bc 20 2a d2 3c
       -0.055304155 -0.07723206 -0.021622568 0.025654852
000070 a8 33 d4 bc 60 6f 8a bd 90 a2 9a 3c f6 b6 96 bd
       -0.025903538 -0.06759524 0.018876344 -0.07359116
000080 d0 64 5e bc 00 f9 39 ba 0e f1 c9 3d bc 56 91 3d
       -0.01357384 -0.0007094294 0.09860431 0.070966214
000090 10 2b 75 bd c0 51 cf bc 64 f4 9b bd 00 44 78 bb
       -0.05985552 -0.025307536 -0.07614973 -0.0037882328
0000a0 08 c4 f3 bc c0 43 ec bd 24 1a 2e bd 30 e1 7a 3d
       -0.02975656 -0.1153636 -0.0425054 0.06124991
0000b0 40 9a 88 bc 72 e0 dd 3d 2c 95 55 3d a0 29 d3 bc
       -0.016675115 0.10833825 0.052144215 -0.025776684
0000c0 c0 56 4a bb 20 4d db 3b 70 f7 06 3c 48 61 c3 3d
       -0.003087446 0.0066925436 0.008237705 0.09540039
0000d0 4a 31 b7 bd 30 dc bb 3c b8 7c 4d bd 50 cb 4b bc
       -0.08944948 0.022932142 -0.05016777 -0.01243861
0000e0 5c a4 57 3d b0 90 5d 3c 62 fa 80 3d 18 71 65 3d
       0.05264698 0.013523266 0.06297757 0.056016058
0000f0 84 25 00 bd 18 61 9b 3c 00 e5 a3 3a 14 d8 4e bd
       -0.031285778 0.018967196 0.001250416 -0.050499037
000100 1a aa dd 3d 26 c3 c3 3d 00 c6 b8 bb 80 f9 e4 3b
       0.1082346 0.09558706 -0.005638838 0.0069877505
000110 38 7b aa bd 42 22 e9 bd 9a 6c 9f bd 40 59 d2 bc
       -0.08324283 -0.11383487 -0.07784386 -0.025677323
000120 8a b9 e3 3d 54 cf 33 bd 30 50 2b bd e8 87 f9 bd
       0.11119373 -0.043898895 -0.04182452 -0.12184125
000130 2e d4 af bd 04 92 32 3d d2 99 cf 3d 8e 31 ea bd
       -0.08585392 0.043596283 0.10136761 -0.11435233
000140 f0 a5 fb 3c 4e b3 fa 3d 2c bc bb bd 20 3e a9 3d
       0.030718774 0.12241231 -0.0916675 0.082638025
000150 10 8c 13 bc 32 3c cb bd 88 26 f7 3c ce f6 e0 bd
       -0.0090055615 -0.09923591 0.03016974 -0.10984574
000160 44 49 53 bd 1e 30 f3 bd 78 6c c6 bc 42 35 d8 3d
       -0.051583543 -0.11874412 -0.024221644 0.10557033
000170 74 d3 ca 3d d4 d6 eb 3d 16 21 e0 bd 5c fe 5f 3d
       0.09903613 0.115155846 -0.10943811 0.054685935
000180 40 e3 40 3c 00 d9 32 bb b2 51 8c 3d fa 06 bf 3d
       0.011772931 -0.0027289987 0.0685152 0.093275025
000190 a6 2d a4 3d b8 4c 69 bd a8 22 e8 bc 7a 2b 99 bd
       0.08016519 -0.05695793 -0.028336838 -0.074789956
0001a0 90 c5 f1 bc 14 a4 68 3d ca 7c f7 3d 6c c5 62 3d
       -0.02951315 0.056797102 0.120843485 0.055364057
0001b0 fa 44 ff 3d 88 1a 88 bd 12 a3 87 bd 6a 47 db bd
       0.12464328 -0.066456854 -0.066229 -0.107069805
0001c0 a0 f8 34 3d 40 9d f1 bc b0 0a bb 3d 24 2d 06 bd
       0.04418242 -0.029493928 0.09132898 -0.032757893
0001d0 d0 c3 ae bd d0 d9 83 bc ac 92 34 bd 80 fb 95 ba
       -0.08533442 -0.016095072 -0.04408519 -0.0011442751
0001e0 20 b4 1c 3d 8a 60 8b bd 00 be 8f bb 78 0d a5 bc
       0.038257718 -0.06805523 -0.0043866634 -0.020148024
0001f0 b8 e0 e6 bc 76 23 91 bd 94 28 be 3d 00 d3 9f bd
       -0.028183326 -0.07086842 0.092850834 -0.07803917
000200 a0 95 b6 3d 94 95 63 bd a6 3b aa 3d 0c a3 3c 3d
       0.089152575 -0.05556257 0.08312158 0.04605393
000210 fc e4 32 bd d4 50 f1 3d 32 e0 f4 3d 2e bc 85 bd
       -0.043675408 0.11782995 0.11956824 -0.06530033
000220 b8 05 0d bd 70 3c 70 3c be 4b c0 bd 14 ae 56 bd
       -0.034429282 0.014662847 -0.09389447 -0.052412108
000230 6c a9 8e bd a4 3e b7 bd b4 df 96 3d 30 18 56 bc
       -0.069659084 -0.089474946 0.07366887 -0.01306729
000240 10 b8 f6 bc 92 c0 be bd 8e 82 bc 3d c0 c3 30 3d
       -0.030117065 -0.093140736 0.09204589 0.04315543
000250 c0 45 fc bb 38 2e d2 3c 12 85 d0 bd be 34 8b bd
       -0.0076987445 0.025656804 -0.10181631 -0.06797169
000260 52 2e af bd 80 f3 1f 3d 80 f0 cb ba 00 06 64 bc
       -0.08553757 0.03905058 -0.0015559345 -0.013917446
000270 a8 63 e3 3c bc a8 81 bd b2 ed ad bd d0 bb ae bd
       0.02775748 -0.06331012 -0.084926024 -0.08531916
000280 9a 34 9e bd d0 f1 c6 bd 30 1d 6a bc cc e7 75 bd
       -0.07724877 -0.09714091 -0.014289185 -0.06003551
000290 28 07 9d 3d 54 11 0f 3d d4 7b f5 3d 40 98 43 3c
       0.076673806 0.034928635 0.11986509 0.011938155
0002a0 9a fa bf bd 5a e0 c1 3d e0 fd d1 bd 6a c6 88 bd
       -0.0937397 0.0946662 -0.10253501 -0.066784695
0002b0 f0 af 5f bd 38 32 7b 3d b0 70 31 bd 9a 75 c2 3d
       -0.054611146 0.06132719 -0.043320358 0.09495087
0002c0 e8 69 f3 bc c0 4b d8 3d f0 19 fd 3d 84 5e a9 bd
       -0.029713586 0.10561323 0.12358463 -0.082699805
0002d0 60 d0 6a bc 1e 82 a9 bd 7e 55 a9 bd 38 6b 66 3d
       -0.014331907 -0.08276771 -0.082682595 0.056254596
0002e0 14 0b bb bd ec 97 8d 3d 40 08 d8 bd 00 92 25 ba
       -0.09132972 0.069137424 -0.105484486 -0.0006316006
0002f0 b8 83 e0 bd d0 2b 16 bd 6a d9 b8 bd 84 09 4c 3d
       -0.10962623 -0.036662877 -0.090258434 0.049813762
000300 08 01 74 bd a8 20 36 c0 db c7 75 be 18 ce 82 bf
       -0.059571296 -2.8457432 -0.2400202 -1.0219145
000310 29 04 50 bf 68 75 a9 bf a8 41 a0 3d ab c9 21 be
       -0.8125635 -1.3238955 0.07825023 -0.15799586
000320 c2 3f 57 bf 4f 6c 89 be 74 4c c8 3e 2c 1a 91 bc
       -0.8408166 -0.26840445 0.3912083 -0.017712675
000330 6f 64 39 bf 46 bd e7 3d e8 16 23 3f 63 6a d9 3e
       -0.72418875 0.11315398 0.6370683 0.4246398
000340 e0 10 4d bd c3 ee 41 3e f1 35 8b bf c8 76 8e bc
       -0.05006492 0.18938737 -1.0875837 -0.017390624
000350 73 7d a1 3f 45 9b 80 bf f8 a8 b0 3d 1a bd 9b 3f
       1.2616409 -1.0047385 0.08625978 1.2167084
000360 37 df 15 bf 8c bd 63 be 53 de 82 bd b1 59 85 bf
       -0.58543724 -0.22240275 -0.06390061 -1.0417997
000370 4c 33 08 3d d8 8b 63 bf 17 9c 7f 3c 0d 12 13 3e
       0.033252046 -0.8888526 0.01560118 0.14362355
000380 0e aa 98 bd 92 cc 2b c0 be e7 60 40 68 24 fc 3d
       -0.0745431 -2.684361 3.5141444 0.123116314
000390 43 e3 70 bf 6a 07 86 3b 68 1b 83 bf ae c7 b1 3c
       -0.94096774 0.0040902393 -1.0242739 0.02170166
0003a0 13 87 20 3f ad d3 e6 3e 75 12 e9 bf de 99 a6 be
       0.62706107 0.4508337 -1.8208758 -0.32539266
0003b0 20 5f 86 bf 3d 36 4e 3f 92 6f 9c 3d 40 97 66 3d
       -1.049778 0.8055151 0.07638468 0.056296587
0003c0 bf fe 08 c0 00 4a 93 bd 8e 2e b2 3d e9 18 ae be
       -2.1405485 -0.07191849 0.08700286 -0.3400338
0003d0 54 03 da bf ff 5c 22 3f ab 45 22 be 61 3a cc 3d
       -1.7032266 0.6342315 -0.15846889 0.099720724
0003e0 e2 54 b6 3c c5 4c b0 3f ef cc 01 3f c0 f9 ab 3b
       0.022257272 1.3773428 0.5070333 0.0052482784
0003f0 5f fd cd 3e 54 21 82 bf c8 9e f7 3d f3 04 30 bd
       0.4023237 -1.0166421 0.12090832 -0.04297347

fc2.bias f4 [64]
000000 44 8a 82 bd ee f1 84 bd 0c 7a 15 3d 2a 65 1c 40
       -0.06374028 -0.06491457 0.036493346 2.4436746
000010 5f 98 b4 3f 1c 6e ef bd 26 a0 a4 40 9d 6d 68 bf
       1.4109 -0.116909236 5.1445494 -0.90792257
000020 1b 35 82 bc e1 f8 04 bf 85 7a 96 3f b6 96 26 3c
       -0.015894463 -0.5194226 1.175614 0.010167768
000030 45 59 bd be 6f 3c 8b 3f c1 61 e1 bd 4b 4e f3 bd
       -0.3698217 1.0877818 -0.11004973 -0.118801676
000040 32 25 67 bf 5f 0c 83 bf 6a 97 1f bf 0e 68 3d 3d
       -0.9029113 -1.023815 -0.62340415 0.046241812
000050 00 b0 1a b8 c0 b0 fe bc 33 38 2f 3d 19 20 d1 3f
       -3.6880374e-05 -0.03109014 0.042778205 1.633792
000060 31 df e2 bc 56 f5 81 bf 29 34 02 bf 1f 01 c9 bc
       -0.027694317 -1.0152996 -0.5086084 -0.024536667
000070 1b 5f c1 bd a1 48 f3 be 60 43 5d bc b0 45 f3 bd
       -0.09441968 -0.4751635 -0.013504833 -0.11878526
000080 88 a5 9b 3d 3b ee 97 bf 08 c1 70 bf 8a d9 8c bd
       0.07599932 -1.1869577 -0.9404454 -0.0687743
000090 dd fe b0 bd 47 20 18 bf 9f 76 88 bf 2a 05 d1 bc
       -0.08642361 -0.5942425 -1.06612 -0.025515158
0000a0 40 4f df be f8 0c 9e 40 6b 76 ee bd 7e 6e 82 bf
       -0.4361515 4.939083 -0.1164368 -1.018997
0000b0 e9 a0 00 bf 86 2a 80 bf 3f db 77 bf 48 f3 99 bd
       -0.5024553 -1.0012977 -0.9681892 -0.07517105
0000c0 55 57 e0 be 20 f4 82 3d b9 9e f0 bd 13 49 46 bf
       -0.4381663 0.063942194 -0.11749024 -0.7745525
0000d0 00 35 59 3d 20 2f 4a bf 2a e2 b5 bd 08 94 01 be
       0.05302906 -0.7897816 -0.08881028 -0.12654126
0000e0 50 f8 73 bf 1d c9 0e 3b 42 35 05 3f 24 8e 5b bf
       -0.9530077 0.0021787353 0.5203439 -0.85763764
0000f0 4e 71 2d bf 56 39 d0 bd 6b 90 97 3d 5f 21 6c bf
       -0.67751014 -0.10167186 0.074005924 -0.9223842

fc3.weight f4 [4, 64]
000000 0c 23 7b bd 74 e6 15 3d e0 f1 a0 3b f8 63 09 c0
       -0.06131272 0.03659673 0.0049116462 -2.1467266
000010 aa b7 9f bf f4 ac ec 3d e5 6d 3a c0 08 1a 44 be
       -1.2477925 0.11556426 -2.9129574 -0.19150555
000020 62 6e 24 3d c6 cd 99 bf 8b 1b 9f 3e 26 f6 d5 bd
       0.04014433 -1.2015922 0.310757 -0.1044734
000030 23 97 88 bf 82 e1 eb 3e 6b 8c 10 3e ff d4 89 3d
       -1.0671123 0.46070486 0.14116065 0.06730079
000040 99 3f e2 be ae 90 87 be 9b f3 66 bf 86 01 cd 3d
       -0.44189146 -0.2647757 -0.9021546 0.10010056
000050 9e 42 ac bd 7c 6d fa 3d 34 2b 29 3d 49 39 be bf
       -0.08411144 0.12227914 0.041300967 -1.4861232
000060 cc 6c 51 3d e4 ef 74 3d 99 5e 8b bf 06 9e eb bd
       0.051129147 0.05979909 -1.0888244 -0.1150475
000070 b8 f3 86 3c 6d 89 bd bf 0c 38 5a bd 20 20 bc bd
       0.016473636 -1.4807564 -0.053276107 -0.09185815
000080 f2 d2 8c 3c 0a ee ed bd c0 b5 2f bf c4 26 75 3d
       0.01719043 -0.11617668 -0.68636703 0.059851423
000090 b7 86 c2 3c 8c 1a 36 bf fc 71 c4 bd 1c e0 a9 3d
       0.023745878 -0.7113426 -0.09592053 0.082946986
0000a0 fd 7b dc bf 2f ca 62 c0 31 13 55 3d 41 48 16 bf
       -1.7225338 -3.5435903 0.052020255 -0.58704
0000b0 68 6e 8e bf f7 17 84 be 8d be 00 bf 22 6c b2 3d
       -1.1127443 -0.25799534 -0.5029076 0.08712031
0000c0 51 cc c8 bf ac 17 94 3d 0a f9 b0 3d ec f1 22 bf
       -1.5687352 0.072310776 0.086412504 -0.63650393
0000d0 c0 2d f6 3b d7 36 2a bf 60 8e 90 3d 14 79 38 3d
       0.007512778 -0.6648993 0.07058406 0.045037344
0000e0 0f 1e aa be 70 7f 1b 3d d0 16 3e c0 70 4a e2 be
       -0.33226058 0.03796333 -2.9701424 -0.44197416
0000f0 e8 fb c5 bf e4 3d 7c bd 87 28 3c bc 29 9e e0 be
       -1.5467501 -0.06158246 -0.011484272 -0.43870667
000100 ca 59 c4 3d 00 a3 2b 3b f4 7d 53 3d 9f 35 47 bf
       0.095874384 0.0026189685 0.05163379 -0.77816194
000110 fa 02 00 bd d0 a7 69 bc 24 0c 65 c0 f0 98 6c bf
       -0.03125284 -0.014261201 -3.578866 -0.92420864
000120 d1 a0 ad bd 84 10 06 bf fc 5e b1 3e 50 1a 1f bc
       -0.08477939 -0.5236895 0.3464278 -0.009710863
000130 25 3c 37 bf 1e bf 60 3e 9c f6 90 3c 45 17 9a 3c
       -0.7157615 0.21947905 0.017695718 0.018809924
000140 9b 87 10 bf cc 71 84 bf e4 b7 c3 be ad 17 18 bd
       -0.5645692 -1.0347228 -0.38226235 -0.037131954
000150 a0 c9 ad bb 1c b5 71 bd 48 7d f8 3d 88 a7 b5 3c
       -0.0053035766 -0.05901061 0.121332705 0.022174612
000160 44 93 c7 3d b9 11 67 bf ad fa 33 bf f4 15 aa 3d
       0.097448856 -0.9026142 -0.70304376 0.083049685
000170 8c 62 32 bd f1 80 69 c0 14 f7 ca bd f0 b3 04 3d
       -0.043551013 -3.648495 -0.09910408 0.032398164
000180 90 bc c6 bc 33 1d 47 bf 34 60 17 bf 24 a5 f0 bd
       -0.024259835 -0.7777893 -0.5913117 -0.11750248
000190 b8 3f 99 3d 1e 4c 05 bf 61 8d 3f bf 7d 7f 5c bd
       0.074828565 -0.5206927 -0.748251 -0.05383252
0001a0 80 4f 5a c0 76 11 3e c0 5f e1 f0 3c 82 5c d0 be
       -3.4111023 -2.9698157 0.02940434 -0.40695578
0001b0 fa 9e 6c bf 63 0b 4d bf e1 9d ff be 84 c1 2a bc
       -0.9243008 -0.800955 -0.4992514 -0.010422114
0001c0 c0 34 51 bf 82 93 b3 bd 3d b6 b5 3d 4f ce 23 bf
       -0.81721115 -0.08768369 0.0887265 -0.63986677
0001d0 e6 f0 bf bd 78 98 23 bf 68 6f c5 3c fa b3 a7 3d
       -0.093721196 -0.63904524 0.024100974 0.08188625
0001e0 db 60 57 bf 28 4e bd bc 61 13 5c c0 0b 7c 3d bf
       -0.84132165 -0.023108557 -3.4386828 -0.740174
0001f0 ab 7f 63 c0 40 89 8c 3c aa 49 ae 3d 69 b0 28 bf
       -3.5546672 0.01715529 0.08510144 -0.6589418
000200 d4 0b 04 3d 1c 80 51 3d d4 a1 c0 3d 2b d3 b1 bf
       0.032237843 0.051147565 0.09405866 -1.3892568
000210 54 a1 81 3e 01 7d 9d 3c f9 23 06 c0 94 61 87 bf
       0.25318396 0.019224646 -2.0959456 -1.0576653
000220 d6 bd 64 3d 3c 05 0a bf 21 5d c2 3e b8 db 6c bd
       0.055845104 -0.5391424 0.37961677 -0.057826728
000230 15 3b 35 bf 30 df ac 3e 8d a6 7e 3c 86 69 0c bd
       -0.7079328 0.3376403 0.0155426385 -0.034280322
000240 c1 ae 45 bf 41 12 86 bf a3 84 fc be 6b 70 c2 3b
       -0.7721978 -1.0474321 -0.49319944 0.0059338114
000250 76 b8 f0 bd fe 6a 83 bd 5f 6d 4d 3a 04 6d aa 3e
       -0.11753933 -0.064168915 0.0007836427 0.33286297
000260 27 c9 79 bb 6c a1 86 bf d8 29 2d bf 7e c1 14 3b
       -0.003811428 -1.0518012 -0.67641973 0.0022698338
000270 70 9a 3e bc 83 37 c4 bf 94 d3 8d bd 8a 6b c2 3a
       -0.0116335 -1.5329441 -0.06925121 0.0014833075
000280 08 eb e5 bd 8d 02 76 bf 86 70 36 bf 60 5b 68 3c
       -0.11226469 -0.9609764 -0.7126545 0.014181942
000290 a6 a0 6c bb 57 84 13 bf db 7d 75 bf f7 a5 bf bb
       -0.0036106496 -0.5762381 -0.95895165 -0.005848642
0002a0 0d 62 6a c0 6a 42 3b c0 69 fe cc bc f6 55 33 bf
       -3.6622345 -2.9259286 -0.025023656 -0.7005304
0002b0 0c 35 4b bf 0b f3 74 bf 25 8a 32 bf d8 40 4e 3d
       -0.7937782 -0.95683354 -0.6974204 0.05035481
0002c0 2e 6a 27 bf 44 41 9c 3d 08 cf da bc 4e 7a 23 bf
       -0.6539639 0.07629636 -0.026710048 -0.638585
0002d0 be 3b dd 3d 5e be 3f bf 40 a8 86 bd 30 45 1d bd
       0.108024105 -0.7489985 -0.0657506 -0.03839606
0002e0 bf cb 76 bf 07 3b 06 bd f0 96 0b c0 59 b3 6a bf
       -0.9640464 -0.032771137 -2.1810875 -0.9167991
0002f0 68 64 17 c0 19 94 bd 3c e0 7e 33 3d af a1 53 bf
       -2.3655033 0.023141908 0.04382217 -0.82668585
000300 c8 5c d1 bc b8 a6 bb 3d 08 4e 21 bd 0b a0 01 c0
       -0.025556937 0.091626585 -0.039381057 -2.0253932
000310 52 cc ab bf ec da 7c 3d c9 d8 3f c0 14 1b ad be
       -1.3421729 0.061732218 -2.9976065 -0.3380972
000320 e1 9b d2 3d 96 aa 90 bf 91 44 c3 3e 1a 06 ed 3d
       0.10283638 -1.1302059 0.3813825 0.115734294
000330 ca 91 a8 bf e3 61 cd 3e 7c de 48 bd 68 93 a9 3c
       -1.3169491 0.40113744 -0.049040303 0.020700172
000340 f4 08 8c be 50 b7 fa be 66 0f 42 bf 72 e0 c1 3d
       -0.2735058 -0.4896798 -0.75804746 0.09466638
000350 94 ce a0 bd d9 5d 11 3d 20 83 9f 3d 10 80 a2 bf
       -0.07851902 0.03548989 0.07788682 -1.2695332
000360 df e7 57 3d f7 f9 65 bd c2 10 9f bf c0 b6 a0 3b
       0.052711364 -0.05614659 -1.2426989 0.004904598
000370 0a 60 3a bd 61 28 e3 bf 20 ae 68 3c 54 07 b8 bd
       -0.045501746 -1.7746698 0.014201671 -0.08985773
000380 7c b3 b2 3d c3 37 ac bd 61 78 18 bf 80 e9 a9 ba
       0.0872564 -0.08409073 -0.59558684 -0.0012963265
000390 63 78 d8 3d b3 d0 1b bf 06 3a 91 be e7 67 55 3c
       0.10569837 -0.60865325 -0.2836458 0.0130252605
0003a0 a9 9b ce bf b9 04 58 c0 bb e4 3a bd a5 3b 8c be
       -1.6141254 -3.3752882 -0.04562829 -0.27389255
0003b0 e4 64 a1 bf 08 8e 0a be 5e 87 f2 be cc ba 95 3d
       -1.2608914 -0.13530743 -0.47368902 0.07311019
0003c0 4e 4c e0 bf 40 d5 17 bd 88 8c f0 3d a3 45 20 bf
       -1.7523286 -0.037068605 0.11745554 -0.6260626
0003d0 8c ed 34 3d 63 36 33 bf ec a4 52 3d cc 0b 2e 3d
       0.044171855 -0.7000486 0.051426813 0.04249172
0003e0 17 a8 07 bf dc fb 05 3d b6 9e 4f c0 6d 7b 21 bf
       -0.5299086 0.032710895 -3.244062 -0.6307896
0003f0 2a db dd bf 14 76 52 bd 61 1f 44 bd 8e 32 f3 be
       -1.7332509 -0.05138214 -0.047881488 -0.47499508

fc3.bias f4 [4]
000000 12 8d 52 bf 87 0e 72 3f 64 36 e4 3f 19 92 32 c0
       -0.82246506 0.94553417 1.7829099 -2.790167
