FE+DQN_demo/results/dqn_model_episode_100.pth (torch, 21396 bytes, 6 tensors)

fc1.weight f4 [64, 3]
0	0xbf0eec2c	-0.5582912
1	0xbec8bf6a	-0.39208537
2	0xbe7c0cf8	-0.24614322
3	0xbecfbe45	-0.40574852
4	0x3f8800df	1.0625266
5	0xbf75b800	-0.95983887
6	0xbef709f1	-0.48249772
7	0x3ee40a02	0.44538885
8	0x3f1d01c0	0.61330795
9	0x3f47b91b	0.78016824
10	0xbec36186	-0.38160342
11	0x3f32685f	0.6969051
12	0x3f638164	0.8886931
13	0xbea97c1e	-0.33102506
14	0x3ee8e2ef	0.45485637
15	0x3f14a85a	0.58069384
16	0x3f8d824f	1.1055392
17	0xbf827926	-1.0193222
18	0x3dc70ce8	0.097192585
19	0xbecce8d4	-0.40021384
20	0xbe155d30	-0.1458633
21	0xbea9d04b	-0.33166727
22	0x3eb0210d	0.34400216
23	0x3f10e197	0.5659422
24	0x3f9de64d	1.2335907
25	0xbec424cc	-0.38309324
26	0x3ef0485a	0.469302
27	0xbf3ee091	-0.7456141
28	0x3f18925e	0.5959834
29	0x3f188f39	0.5959354
30	0x3f0ec24a	0.5576521
31	0x3fb30b52	1.398783
32	0xbee76aed	-0.45198765
33	0xbd3d26d2	-0.0461796
34	0x3f086c22	0.5329
35	0x3ee19db1	0.44065621
36	0xbfb41d6b	-1.4071478
37	0xbfce4f2d	-1.6117913
38	0x3de3a4b0	0.11115396
39	0x3e248ef8	0.16070163
40	0xbe2c72f6	-0.16840729
41	0xbe8788e0	-0.26471615
42	0xbe46c88b	-0.19412439
43	0x3f6337de	0.8875712
44	0x3e1f55e3	0.15560107
45	0x3e106b7f	0.14103507
46	0x3fb83e84	1.4394078
47	0xbf0294c8	-0.5100827
48	0x3d7b2240	0.06131196
49	0xbeaed97d	-0.34150305
50	0xbe97a315	-0.2961661
51	0xbf204b41	-0.6261483
52	0x3f26019b	0.648462
53	0x3e90155b	0.28141293
54	0x3dbe0cc0	0.092797756
55	0x3f9dabd4	1.2318063
56	0xbf64b987	-0.8934559
57	0xbe1f487c	-0.15554994
58	0xbec50e8e	-0.38487667
59	0xbdb697c0	-0.08915663
60	0xbf7aad80	-0.9792099
61	0x3f830dc1	1.0238572
62	0x3d5ee0b1	0.0544135
63	0x3f3d1f7a	0.73876154
64	0xbecb0a83	-0.39656457
65	0x3f354f82	0.70824444
66	0x3eb10cb6	0.3458001
67	0x3d652c70	0.055950582
68	0xbea1ee86	-0.3162729
69	0x3ddab08a	0.106782034
70	0x3f06b947	0.5262646
71	0x3cbd5b07	0.023114694
72	0xbfa0694f	-1.2532138
73	0xbfb47067	-1.4096802
74	0x3dc18c71	0.09450615
75	0xbe907d72	-0.28220707
76	0x3ed31861	0.41229537
77	0x3f187ee2	0.5956861
78	0x3e375740	0.17904377
79	0x3f653a2b	0.8954188
80	0x3ef0c611	0.47026113
81	0x3f7e5624	0.9935019
82	0xbe9df5db	-0.30851635
83	0x3ee4f1d1	0.4471574
84	0xbf011618	-0.5042434
85	0x3d5b65d0	0.053563893
86	0xbec36569	-0.38163307
87	0x3f60ffd9	0.8789039
88	0xbeb475d9	-0.3524616
89	0x3f176675	0.5914071
90	0xbe7eea36	-0.24894032
91	0x3eca40d8	0.39502597
92	0x3f18341c	0.5945451
93	0x3ed7aba8	0.4212315
94	0x3f927b99	1.1443969
95	0xbea405d6	-0.32035702
96	0x3f112046	0.5668987
97	0xbef74280	-0.48292923
98	0xbce89b20	-0.028394282
99	0xbeb05ded	-0.3444666
100	0x3fa0f296	1.2574031
101	0xbf8898f0	-1.0671673
102	0xbf09d584	-0.53841424
103	0x3f3b33ca	0.731259
104	0x3a8278b0	0.000995418
105	0xbde674f8	-0.11252779
106	0xbab42e00	-0.0013746619
107	0xbee1bada	-0.4408787
108	0x3e767043	0.24066262
109	0x3ec24ea4	0.37950623
110	0xbc6a1405	-0.014287
111	0xbe8dc0d8	-0.2768619
112	0x3f539196	0.8264402
113	0x3f15578c	0.5833671
114	0x3f0704a5	0.5274146
115	0xbea858a8	-0.3288014
116	0x3f33a8c5	0.70179397
117	0x3db2bc54	0.08727327
118	0x3ccb49c6	0.024815451
119	0xbd546cb6	-0.051861487
120	0x3f0968e2	0.53675663
121	0x3fa191c7	1.2622613
122	0xbefa9c9e	-0.48947614
123	0x3eaa7f33	0.3330017
124	0x3f82fe91	1.0233938
125	0xbf065505	-0.5247348
126	0xbf9a3840	-1.2048416
127	0xbfca962b	-1.5827078
128	0x3dca927d	0.09891222
129	0x3e8169dc	0.25276077
130	0x3fbef683	1.491898
131	0xbf49c888	-0.7882161
132	0xbe806b2e	-0.25081772
133	0x3f33493e	0.70033634
134	0xbb2bb30c	-0.002619925
135	0xbeaf15c7	-0.34196302
136	0x3f5f78c2	0.87293637
137	0x3dc23038	0.09481853
138	0x3dc349ee	0.09535585
139	0x3f953567	1.1656922
140	0xbf0e0c60	-0.5548763
141	0x3e9a155a	0.30094415
142	0xbeb140f2	-0.34619862
143	0xbf13040d	-0.57428056
144	0xbf00cafd	-0.50309736
145	0xbe909629	-0.28239563
146	0x3f16cc1f	0.58905214
147	0xbdb906b0	-0.09034479
148	0xbeaea94c	-0.34113538
149	0xbe82f7de	-0.25579733
150	0x3e0636a0	0.13106775
151	0xbe6a447e	-0.2287769
152	0xbe8b2c42	-0.27182204
153	0xbf1c9d86	-0.6117786
154	0x3e682fcd	0.22674485
155	0x3f0cf652	0.55063355
156	0x3f88c6ec	1.0685706
157	0xbe840f28	-0.25792813
158	0x3e7ffe1a	0.24999276
159	0x3ddf4a3b	0.1090283
160	0x3f4a8660	0.7911129
161	0x3e334d38	0.17509925
162	0x3eaa743f	0.33291814
163	0x3fb27372	1.3941481
164	0xbe90c7a1	-0.28277305
165	0xbe1d30f7	-0.1535071
166	0x3ebc7f74	0.3681599
167	0x3ec8d3e0	0.39224148
168	0xbc9229a5	-0.017842123
169	0x3d1d5ba8	0.03841749
170	0xbdff75a0	-0.12473607
171	0x3eac24bb	0.33621773
172	0x3f89533c	1.0728526
173	0xbd29d5f0	-0.041463792
174	0xbeaef8ea	-0.3417428
175	0x3f21b564	0.63167405
176	0x3e4a1125	0.19733103
177	0xbf04316a	-0.516379
178	0xbe2cedaa	-0.16887537
179	0xbebad325	-0.36489215
180	0xbe7a8683	-0.24465375
181	0x3f713bbc	0.9423177
182	0x3e91661b	0.28398213
183	0x3eeb0863	0.45904836
184	0xbe855e40	-0.2604847
185	0x3f125714	0.5716412
186	0x3d9b8e90	0.07595551
187	0xbe9489a9	-0.29011276
188	0xbeff6bf5	-0.49887052
189	0xbf1e0d2b	-0.6173884
190	0x3f058fd8	0.52172613
191	0x3ee18ace	0.44051212

fc1.bias f4 [64]
0	0x3e141d98	0.14464414
1	0x3f305124	0.6887381
2	0x3f88e065	1.069348
3	0xbe9eb99c	-0.31000984
4	0x3d86c030	0.065796256
5	0x3edcb3d8	0.4310596
6	0x3e8d558c	0.2760433
7	0x3eee9a68	0.46602178
8	0x3db3e183	0.08783247
9	0x3ea4be12	0.32176262
10	0x3f3ea846	0.74475515
11	0x3f77beda	0.9677559
12	0xbec7dd0e	-0.3903584
13	0x3edfacc8	0.4368651
14	0x3f32011a	0.6953293
15	0x3f21c1db	0.63186425
16	0x3e1a59f4	0.15073377
17	0x3e986fd4	0.29772818
18	0x3f65bbcc	0.8973968
19	0x3e01b00c	0.12664813
20	0x3f620434	0.88287663
21	0xbe4a55e4	-0.19759327
22	0xbe2453ba	-0.16047564
23	0x3f4755f8	0.7786555
24	0x3e820742	0.25396162
25	0x3f12c3db	0.573301
26	0x3ec9fd4a	0.39451057
27	0xbe6feaf8	-0.23429477
28	0xbf075e6b	-0.52878445
29	0xbe9eb47e	-0.3099708
30	0x3f942c23	1.157597
31	0x3f986f16	1.1908901
32	0xbe4da9d6	-0.20084319
33	0x3ecf0a1c	0.404374
34	0x3f5bce24	0.8586142
35	0x3e0fafc4	0.14031893
36	0x3fa3abbd	1.2786785
37	0x3f8b0def	1.0863627
38	0xbf08ed90	-0.5348749
39	0xbeb54af6	-0.35408753
40	0x3f831cbd	1.0243145
41	0x3f9654c5	1.174462
42	0x3f7d7b46	0.99016225
43	0x3ddab215	0.10678498
44	0x3e42a3d6	0.19007811
45	0x3e8db644	0.2767812
46	0x3f303729	0.6883417
47	0xbccb8ec0	-0.024848342
48	0x3fa03cb6	1.2518528
49	0x3f0cce20	0.5500202
50	0x3e92659e	0.28593153
51	0x3f61aa0b	0.8815009
52	0x3d85fbec	0.06542191
53	0x3f8f61e6	1.1201751
54	0x3f153d62	0.5829679
55	0x3f333dbb	0.7001607
56	0x3d09a0ae	0.0336005
57	0x3f776db9	0.966518
58	0x3fa38938	1.2776251
59	0x3db2b0f0	0.087251544
60	0x3ee53ce2	0.44773012
61	0xbf035fb9	-0.51317936
62	0x3e8eccfa	0.2789076
63	0x3f1a4680	0.60263824

fc2.weight f4 [64, 64]
0	0x3c2f4250	0.0106969625
1	0x3cb9e570	0.022692412
2	0xbdb98546	-0.09058623
3	0x3d8e8b3c	0.069601506
4	0x3d3156f8	0.04329583
5	0xbdf4f586	-0.119608924
6	0x3d16bef8	0.036803216
7	0xbc24df50	-0.0100630075
8	0xbde66a92	-0.112507954
9	0xbde23942	-0.11046077
10	0x3da9b660	0.082867384
11	0xbcbdab58	-0.023152992
12	0xbb867380	-0.004103124
13	0x3dd6b0be	0.1048293
14	0x3d96db4e	0.07366048
15	0x3dca30cc	0.098725885
16	0x3cd4b498	0.02596502
17	0x3dc7ece2	0.09761979
18	0xbde8fb82	-0.11376096
19	0x3c49f7a0	0.012327105
20	0xbd8bff76	-0.06835835
21	0x3d2f931c	0.042864904
22	0xbd7f9e44	-0.062406793
23	0xbda95160	-0.08267474
24	0xbd62869c	-0.055304155
25	0xbd9e2bd8	-0.07723206
26	0xbcb121d0	-0.021622568
27	0x3cd22a20	0.025654852
28	0xbcd433a8	-0.025903538
29	0xbd8a6f60	-0.06759524
30	0x3c9aa290	0.018876344
31	0xbd96b6f6	-0.07359116
32	0xbc5e64d0	-0.01357384
33	0xba39f900	-0.0007094294
34	0x3dc9f10e	0.09860431
35	0x3d9156bc	0.070966214
36	0xbd752b10	-0.05985552
37	0xbccf51c0	-0.025307536
38	0xbd9bf464	-0.07614973
39	0xbb784400	-0.0037882328
40	0xbcf3c408	-0.02975656
41	0xbdec43c0	-0.1153636
42	0xbd2e1a24	-0.0425054
43	0x3d7ae130	0.06124991
44	0xbc889a40	-0.016675115
45	0x3ddde072	0.10833825
46	0x3d55952c	0.052144215
47	0xbcd329a0	-0.025776684
48	0xbb4a56c0	-0.003087446
49	0x3bdb4d20	0.0066925436
50	0x3c06f770	0.008237705
51	0x3dc36148	0.09540039
52	0xbdb7314a	-0.08944948
53	0x3cbbdc30	0.022932142
54	0xbd4d7cb8	-0.05016777
55	0xbc4bcb50	-0.01243861
56	0x3d57a45c	0.05264698
57	0x3c5d90b0	0.013523266
58	0x3d80fa62	0.06297757
59	0x3d657118	0.056016058
60	0xbd002584	-0.031285778
61	0x3c9b6118	0.018967196
62	0x3aa3e500	0.001250416
63	0xbd4ed814	-0.050499037
64	0x3dddaa1a	0.1082346
65	0x3dc3c326	0.09558706
66	0xbbb8c600	-0.005638838
67	0x3be4f980	0.0069877505
68	0xbdaa7b38	-0.08324283
69	0xbde92242	-0.11383487
70	0xbd9f6c9a	-0.07784386
71	0xbcd25940	-0.025677323
72	0x3de3b98a	0.11119373
73	0xbd33cf54	-0.043898895
74	0xbd2b5030	-0.04182452
75	0xbdf987e8	-0.12184125
76	0xbdafd42e	-0.08585392
77	0x3d329204	0.043596283
78	0x3dcf99d2	0.10136761
79	0xbdea318e	-0.11435233
80	0x3cfba5f0	0.030718774
81	0x3dfab34e	0.12241231
82	0xbdbbbc2c	-0.0916675
83	0x3da93e20	0.082638025
84	0xbc138c10	-0.0090055615
85	0xbdcb3c32	-0.09923591
86	0x3cf72688	0.03016974
87	0xbde0f6ce	-0.10984574
88	0xbd534944	-0.051583543
89	0xbdf3301e	-0.11874412
90	0xbcc66c78	-0.024221644
91	0x3dd83542	0.10557033
92	0x3dcad374	0.09903613
93	0x3debd6d4	0.115155846
94	0xbde02116	-0.10943811
95	0x3d5ffe5c	0.054685935
96	0x3c40e340	0.011772931
97	0xbb32d900	-0.0027289987
98	0x3d8c51b2	0.0685152
99	0x3dbf06fa	0.093275025
100	0x3da42da6	0.08016519
101	0xbd694cb8	-0.05695793
102	0xbce822a8	-0.028336838
103	0xbd992b7a	-0.074789956
104	0xbcf1c590	-0.02951315
105	0x3d68a414	0.056797102
106	0x3df77cca	0.120843485
107	0x3d62c56c	0.055364057
108	0x3dff44fa	0.12464328
109	0xbd881a88	-0.066456854
110	0xbd87a312	-0.066229
111	0xbddb476a	-0.107069805
112	0x3d34f8a0	0.04418242
113	0xbcf19d40	-0.029493928
114	0x3dbb0ab0	0.09132898
115	0xbd062d24	-0.032757893
116	0xbdaec3d0	-0.08533442
117	0xbc83d9d0	-0.016095072
118	0xbd3492ac	-0.04408519
119	0xba95fb80	-0.0011442751
120	0x3d1cb420	0.038257718
121	0xbd8b608a	-0.06805523
122	0xbb8fbe00	-0.0043866634
123	0xbca50d78	-0.020148024
124	0xbce6e0b8	-0.028183326
125	0xbd912376	-0.07086842
126	0x3dbe2894	0.092850834
127	0xbd9fd300	-0.07803917
128	0x3db695a0	0.089152575
129	0xbd639594	-0.05556257
130	0x3daa3ba6	0.08312158
131	0x3d3ca30c	0.04605393
132	0xbd32e4fc	-0.043675408
133	0x3df150d4	0.11782995
134	0x3df4e032	0.11956824
135	0xbd85bc2e	-0.06530033
136	0xbd0d05b8	-0.034429282
137	0x3c703c70	0.014662847
138	0xbdc04bbe	-0.09389447
139	0xbd56ae14	-0.052412108
140	0xbd8ea96c	-0.069659084
141	0xbdb73ea4	-0.089474946
142	0x3d96dfb4	0.07366887
143	0xbc561830	-0.01306729
144	0xbcf6b810	-0.030117065
145	0xbdbec092	-0.093140736
146	0x3dbc828e	0.09204589
147	0x3d30c3c0	0.04315543
148	0xbbfc45c0	-0.0076987445
149	0x3cd22e38	0.025656804
150	0xbdd08512	-0.10181631
151	0xbd8b34be	-0.06797169
152	0xbdaf2e52	-0.08553757
153	0x3d1ff380	0.03905058
154	0xbacbf080	-0.0015559345
155	0xbc640600	-0.013917446
156	0x3ce363a8	0.02775748
157	0xbd81a8bc	-0.06331012
158	0xbdadedb2	-0.084926024
159	0xbdaebbd0	-0.08531916
160	0xbd9e349a	-0.07724877
161	0xbdc6f1d0	-0.09714091
162	0xbc6a1d30	-0.014289185
163	0xbd75e7cc	-0.06003551
164	0x3d9d0728	0.076673806
165	0x3d0f1154	0.034928635
166	0x3df57bd4	0.11986509
167	0x3c439840	0.011938155
168	0xbdbffa9a	-0.0937397
169	0x3dc1e05a	0.0946662
170	0xbdd1fde0	-0.10253501
171	0xbd88c66a	-0.066784695
172	0xbd5faff0	-0.054611146
173	0x3d7b3238	0.06132719
174	0xbd3170b0	-0.043320358
175	0x3dc2759a	0.09495087
176	0xbcf369e8	-0.029713586
177	0x3dd84bc0	0.10561323
178	0x3dfd19f0	0.12358463
179	0xbda95e84	-0.082699805
180	0xbc6ad060	-0.014331907
181	0xbda9821e	-0.08276771
182	0xbda9557e	-0.082682595
183	0x3d666b38	0.056254596
184	0xbdbb0b14	-0.09132972
185	0x3d8d97ec	0.069137424
186	0xbdd80840	-0.105484486
187	0xba259200	-0.0006316006
188	0xbde083b8	-0.10962623
189	0xbd162bd0	-0.036662877
190	0xbdb8d96a	-0.090258434
191	0x3d4c0984	0.049813762
192	0xbd740108	-0.059571296
193	0xbfc0aae0	-1.5052147
194	0xbd33e937	-0.043923583
195	0x3d8caf58	0.06869382
196	0x3dbc00c9	0.09179837
197	0xbf169c1b	-0.5883195
198	0x3da041a8	0.07825023
199	0x3e0e2499	0.13881148
200	0x3e3112ad	0.1729228
201	0x3cf943d7	0.030427856
202	0x3e87d9ba	0.265333
203	0x3b8077a7	0.0039205137
204	0xbef36b04	-0.47542584
205	0x3de7bd46	0.11315398
206	0x3d7db37b	0.061938744
207	0x3e42d41e	0.19026229
208	0xbd4d10e0	-0.05006492
209	0x3cefa14c	0.029251717
210	0xbf0d25b7	-0.55135673
211	0xbc8e76c8	-0.017390624
212	0xbe6020da	-0.21887532
213	0x3be966b5	0.0071228393
214	0x3df1b41a	0.1180193
215	0x3e49eb00	0.19718552
216	0xbece7257	-0.4032161
217	0x3d9fe2a8	0.07806903
218	0xbca6a314	-0.020341434
219	0x3d247e29	0.04015938
220	0x3d08334c	0.033252046
221	0x3e339eaa	0.17540994
222	0x3e1918c8	0.1495086
223	0x3ecd083c	0.40045345
224	0xbd98aa0e	-0.0745431
225	0xbfd1ee6e	-1.6400888
226	0x3cf4d675	0.029887417
227	0x3dfc2468	0.123116314
228	0x3e549928	0.2076155
229	0x3d922eae	0.0713781
230	0x3d937795	0.07200543
231	0x3cb1c7ae	0.02170166
232	0x3ec5f55a	0.3866375
233	0x3e6f951d	0.23396726
234	0xbf37bae2	-0.71769536
235	0xbe058b04	-0.13041312
236	0x3e807cf5	0.25095335
237	0x3ca7bb90	0.020475179
238	0x3d7ef223	0.06224264
239	0x3d669740	0.056296587
240	0xbc29aba6	-0.010355866
241	0xbd934a00	-0.07191849
242	0x3db22e8e	0.08700286
243	0xbdbb273c	-0.09138343
244	0x3e16280e	0.14663717
245	0x3dbd1b55	0.09233729
246	0x3e558121	0.2085004
247	0x3c036a2c	0.008020919
248	0x3cb654e2	0.022257272
249	0x3e80b446	0.25137538
250	0xbd30cf2e	-0.043166332
251	0x3babf9c0	0.0052482784
252	0x3e298e4e	0.16558191
253	0x3d86e1ad	0.06586013
254	0x3df79ec8	0.12090832
255	0x3d49150a	0.04909233

fc2.bias f4 [64]
0	0xbd828a44	-0.06374028
1	0xbd84f1ee	-0.06491457
2	0x3d157a0c	0.036493346
3	0xbe1c8135	-0.15283664
4	0x3ead766f	0.3387942
5	0xbdef6e1c	-0.116909236
6	0xbe909481	-0.282383
7	0x3f26223c	0.6489599
8	0xbc82351b	-0.015894463
9	0x3f33b1a1	0.70192915
10	0xbe843a4c	-0.25825727
11	0x3c2696b6	0.010167768
12	0x3f5eecf1	0.87080294
13	0xbe83ac7f	-0.25717542
14	0xbdc48634	-0.0959591
15	0xbdf34e4b	-0.118801676
16	0x3f1cf550	0.6131182
17	0x3f069330	0.5256834
18	0x3f262bc9	0.6491056
19	0x3d3d680e	0.046241812
20	0xb81ab000	-3.6880374e-05
21	0xbcfeb0c0	-0.03109014
22	0x3d95de6c	0.07317814
23	0x3ea37a58	0.31929278
24	0xbce2df31	-0.027694317
25	0x3f1d838f	0.6152887
26	0x3f3d0c44	0.7384684
27	0xbcc9011f	-0.024536667
28	0xbdc15f1b	-0.09441968
29	0x3f08a05d	0.53369695
30	0xbc5d4360	-0.013504833
31	0xbdf345b0	-0.11878526
32	0x3d9ba588	0.07599932
33	0x3ee0f64e	0.43937916
34	0x3ef4cb64	0.47811425
35	0xbd8cd98a	-0.0687743
36	0xbdb0fedd	-0.08642361
37	0x3f432058	0.7622123
38	0x3efba606	0.49150103
39	0xbcd1052a	-0.025515158
40	0x3e72decf	0.23717807
41	0x3d843a6f	0.06456458
42	0xbdad6b2c	-0.08467707
43	0x3ee58c1a	0.44833452
44	0x3f50cd4e	0.8156327
45	0x3f18a423	0.5962545
46	0x3ef0804b	0.4697288
47	0xbd99f348	-0.07517105
48	0x3f34194f	0.7035112
49	0x3d82f420	0.063942194
50	0xbdf09eb9	-0.11749024
51	0x3f20b979	0.6278301
52	0x3d593500	0.05302906
53	0x3f1ea474	0.61969686
54	0xbdb5e22a	-0.08881028
55	0xbe019408	-0.12654126
56	0x3f0b6811	0.5445567
57	0x3d0b06ac	0.03394191
58	0x3f4c9299	0.7991119
59	0x3f159415	0.5842908
60	0x3e0c2407	0.13685618
61	0xbd8f2b16	-0.0699064
62	0x3d97906b	0.074005924
63	0x3f0fb6d5	0.56138355

fc3.weight f4 [4, 64]
0	0xbd7b230c	-0.06131272
1	0x3d15e674	0.03659673
2	0x3ba0f1e0	0.0049116462
3	0x3eb00b0b	0.34383425
4	0x3ec29bf0	0.38009596
5	0x3decacf4	0.11556426
6	0x3e82b5cc	0.25529325
7	0xbf2b759b	-0.66976327
8	0x3d246e62	0.04014433
9	0xbf384482	-0.71979535
10	0x3ebf417a	0.37354642
11	0xbdd5f626	-0.1044734
12	0xbf1a8aab	-0.6036784
13	0x3effcae6	0.49959487
14	0x3de00a66	0.10939483
15	0x3d89d4ff	0.06730079
16	0xbf0c5ba9	-0.5482736
17	0xbf459f53	-0.77196234
18	0xbf25891c	-0.6466234
19	0x3dcd0186	0.10010056
20	0xbdac429e	-0.08411144
21	0x3dfa6d7c	0.12227914
22	0x3d292b34	0.041300967
23	0x3eb258dd	0.34833422
24	0x3d516ccc	0.051129147
25	0xbf220629	-0.6329065
26	0xbf376c60	-0.7164974
27	0xbdeb9e06	-0.1150475
28	0x3c86f3b8	0.016473636
29	0xbf802d3b	-1.0013803
30	0xbd5a380c	-0.053276107
31	0xbdbc2020	-0.09185815
32	0x3c8cd2f2	0.01719043
33	0xbf2de5cc	-0.6792877
34	0xbf39c655	-0.72568256
35	0x3d7526c4	0.059851423
36	0x3cc286b7	0.023745878
37	0xbf1bae23	-0.60812587
38	0xbf22376a	-0.63365805
39	0x3da9e01c	0.082946986
40	0xbf92d896	-1.1472347
41	0xbada328e	-0.0016647147
42	0x3d551331	0.052020255
43	0xbf3ab2cf	-0.7292909
44	0xbf476109	-0.7788244
45	0xbf427e3a	-0.75973856
46	0xbf11b6bc	-0.56919456
47	0x3db26c22	0.08712031
48	0xbf565f73	-0.83739394
49	0x3d9417ac	0.072310776
50	0x3db0f90a	0.086412504
51	0xbf102ff8	-0.56323195
52	0x3bf62dc0	0.007512778
53	0xbf346632	-0.7046844
54	0x3d908e60	0.07058406
55	0x3d387914	0.045037344
56	0xbf1d14cd	-0.61359864
57	0x3d1b7f70	0.03796333
58	0xbf25442f	-0.64557165
59	0xbf34ce07	-0.7062687
60	0xbf7b0e43	-0.98068637
61	0xbd7c3de4	-0.06158246
62	0xbc3c2887	-0.011484272
63	0xbf1331f9	-0.5749813
64	0x3dc459ca	0.095874384
65	0x3b2ba300	0.0026189685
66	0x3d537df4	0.05163379
67	0x3e393538	0.18086708
68	0x3d003f94	0.031310633
69	0xbc69a7d0	-0.014261201
70	0x3e56039d	0.20899816
71	0xbf28a5fc	-0.6587827
72	0xbdada0d1	-0.08477939
73	0xbecbdaa2	-0.3981524
74	0x3ecab70b	0.39592776
75	0xbc1f1a50	-0.009710863
76	0xbf119bcf	-0.5687837
77	0x3e8f7555	0.28019205
78	0x3d761354	0.060077026
79	0x3c9a1745	0.018809924
80	0xbee19a65	-0.44063106
81	0xbf14c3a6	-0.58111036
82	0xbe97aefe	-0.29625696
83	0xbd1817ad	-0.037131954
84	0xbbadc9a0	-0.0053035766
85	0xbd71b51c	-0.05901061
86	0x3da74700	0.08167839
87	0x3d27441e	0.040836446
88	0x3dc79344	0.097448856
89	0xbf20314c	-0.6257522
90	0xbf0abf9a	-0.5419861
91	0x3daa15f4	0.083049685
92	0xbd32628c	-0.043551013
93	0xbfd1266e	-1.6339853
94	0xbdcaf714	-0.09910408
95	0x3d04b3f0	0.032398164
96	0xbcc6bc90	-0.024259835
97	0xbef1d71f	-0.47234437
98	0xbeda5c30	-0.42648458
99	0xbdf0a524	-0.11750248
100	0x3d993fb8	0.074828565
101	0xbee588d6	-0.4483096
102	0xbef7e50c	-0.48416936
103	0xbd5c7f7d	-0.05383252
104	0xbfe81d72	-1.8133986
105	0xbd29f4c8	-0.041493207
106	0x3cf0e15f	0.02940434
107	0xbe935d29	-0.28782013
108	0xbf276514	-0.6538861
109	0xbf11217a	-0.56691706
110	0xbebb2b51	-0.36556485
111	0xbc2ac184	-0.010422114
112	0xbf1b0e83	-0.6056902
113	0xbdb39382	-0.08768369
114	0x3db5b63d	0.0887265
115	0xbefbd4b2	-0.4918571
116	0xbdbff0e6	-0.093721196
117	0xbeed0a98	-0.46297145
118	0x3cc56f68	0.024100974
119	0x3da7b3fa	0.08188625
120	0xbf13047b	-0.5742871
121	0xbcbd4e28	-0.023108557
122	0xbfdc0d1c	-1.7191501
123	0xbf141db9	-0.57857853
124	0xbfce0dbb	-1.609794
125	0x3c8c8940	0.01715529
126	0x3dae49aa	0.08510144
127	0xbee88291	-0.45412114
128	0x3d040bd4	0.032237843
129	0x3d51801c	0.051147565
130	0x3dc0a1d4	0.09405866
131	0x3e271d41	0.16319753
132	0x3e9eb526	0.3099758
133	0x3c9d7d01	0.019224646
134	0x3e3a0355	0.18165334
135	0xbf42700b	-0.75952214
136	0x3d64bdd6	0.055845104
137	0xbec00881	-0.37506488
138	0x3ec73d28	0.38913846
139	0xbd6cdbb8	-0.057826728
140	0xbeea754f	-0.45792624
141	0x3eb9260b	0.36161837
142	0x3d4bd810	0.0497666
143	0xbd0c6986	-0.034280322
144	0xbf128a32	-0.5724212
145	0xbf35b8b8	-0.70984983
146	0xbecabcd3	-0.39597186
147	0x3bc2706b	0.0059338114
148	0xbdf0b876	-0.11753933
149	0xbd836afe	-0.064168915
150	0xbc966abb	-0.01836144
151	0x3e8f338e	0.2796902
152	0xbb79c927	-0.003811428
153	0xbf472a42	-0.77798855
154	0xbed6dbc9	-0.41964558
155	0x3b14c17e	0.0022698338
156	0xbc3e9a70	-0.0116335
157	0xbf9fdd50	-1.2489414
158	0xbd8dd394	-0.06925121
159	0x3ac26b8a	0.0014833075
160	0xbde5eb08	-0.11226469
161	0xbf35649a	-0.7085663
162	0xbf07950d	-0.5296181
163	0x3c685b60	0.014181942
164	0xbb6ca0a6	-0.0036106496
165	0xbec365da	-0.38163644
166	0xbf354599	-0.7080932
167	0xbbbfa5f7	-0.005848642
168	0xbff348cf	-1.9006594
169	0xbddd6dda	-0.10811968
170	0x3bdcaccb	0.0067344657
171	0xbf1bd7d0	-0.6087618
172	0xbf0405b0	-0.5157118
173	0xbf33c9e9	-0.70229965
174	0xbf0bf2de	-0.5466746
175	0x3d4e40d8	0.05035481
176	0xbecf00cf	-0.40430304
177	0x3d9c4144	0.07629636
178	0xbcdacf08	-0.026710048
179	0xbee2404e	-0.44189686
180	0x3ddd3bbe	0.108024105
181	0xbf0932dd	-0.53593236
182	0xbd86a840	-0.0657506
183	0xbd1d4530	-0.03839606
184	0xbf29415a	-0.66115344
185	0xbd84237c	-0.064520806
186	0xbf58887c	-0.8458326
187	0xbf24ba71	-0.64346987
188	0xbfc54b7e	-1.5413663
189	0x3d60e55c	0.054906234
190	0x3d337ee0	0.04382217
191	0xbf276b63	-0.65398234
192	0xbcd15cc8	-0.025556937
193	0x3dbba6b8	0.091626585
194	0xbd214e08	-0.039381057
195	0x3e00b866	0.12570342
196	0x3d3cdebb	0.04611085
197	0x3d7cdaec	0.061732218
198	0x3e261ab1	0.1622112
199	0xbf12c407	-0.57330364
200	0x3dd29be1	0.10283638
201	0xbf256472	-0.6460639
202	0x3ef34c0b	0.47518954
203	0x3ded061a	0.115734294
204	0xbf4d82e2	-0.80277836
205	0x3ef7ca68	0.4839661
206	0xbd1a7e24	-0.037717953
207	0x3ca99368	0.020700172
208	0xbedf6a64	-0.43635857
209	0xbf3192d8	-0.6936469
210	0xbf16ce91	-0.58908945
211	0x3dc1e072	0.09466638
212	0xbda0ce94	-0.07851902
213	0x3d115dd9	0.03548989
214	0x3d9f8320	0.07788682
215	0x3d234633	0.03986187
216	0x3d57e7df	0.052711364
217	0xbeefe763	-0.46856222
218	0xbf4bd9cc	-0.79629207
219	0x3ba0b6c0	0.004904598
220	0xbd3a600a	-0.045501746
221	0xbfa9f60f	-1.3278216
222	0x3c68ae20	0.014201671
223	0xbdb80754	-0.08985773
224	0x3db2b37c	0.0872564
225	0xbee32654	-0.4436518
226	0xbf177b8c	-0.5917289
227	0xbaa9e980	-0.0012963265
228	0x3dd87863	0.10569837
229	0xbf0804a4	-0.5313208
230	0xbf1d02ee	-0.61332595
231	0x3c5567e7	0.0130252605
232	0xbfb0cbde	-1.3812215
233	0x3dd69d2f	0.10479199
234	0xbd3ae4bb	-0.04562829
235	0xbeed2bec	-0.46322572
236	0xbf43245a	-0.76227343
237	0xbeebcfb6	-0.46056908
238	0xbf0d14eb	-0.55110043
239	0x3d95bacc	0.07311019
240	0xbf5fad7e	-0.87374103
241	0xbd17d540	-0.037068605
242	0x3df08c88	0.11745554
243	0xbf0c2892	-0.54749405
244	0x3d34ed8c	0.044171855
245	0xbf1cc02e	-0.6123074
246	0x3d52a4ec	0.051426813
247	0x3d2e0bcc	0.04249172
248	0xbf2d2af4	-0.67643666
249	0x3d05fbdc	0.032710895
250	0xbf876706	-1.0578315
251	0xbf333e90	-0.7001734
252	0xbfaf6193	-1.3701652
253	0xbd527614	-0.05138214
254	0xbd441f61	-0.047881488
255	0xbf1601ca	-0.5859648

fc3.bias f4 [4]
0	0xbe940a1b	-0.2891396
1	0xbef5b3a7	-0.47988626
2	0x3e9085ec	0.28227174
3	0xbf5e3b9d	-0.8680971
