FE+DQN_demo/results/dqn_model_episode_600.pth (torch, 21396 bytes, 6 tensors)

fc1.weight f4 [64, 3]
-0.5582912 -0.39208537 -0.24614322 0.2532571 0.93461025 -2.1362474 -0.51441497 0.7974076
0.55667025 0.6268416 -0.4378907 0.685368 0.80595213 -0.4513702 0.45214856 0.41098636
1.054073 -2.160767 0.097192585 -0.40021384 -0.1458633 -0.40482748 0.6950141 0.4813851
1.1275672 -0.5118802 0.4544956 -0.7468551 0.9152449 0.55279857 -0.079227924 1.5535156
-1.3771822 -0.049054675 0.88060856 0.38316974 -1.7211872 -1.8312762 0.025078084 0.16070163
-0.16840729 -0.26471615 -0.13675988 1.2486771 0.11738051 -0.024339046 1.4958541 -1.6111184
0.06131196 -0.34150305 -0.2961661 -0.5970091 0.9926383 0.24254628 0.15176535 1.1968696
-2.0651116 -0.15554994 -0.38487667 -0.08915663 -0.9427249 1.3853064 0.032895904 0.6047507
-0.450846 0.7038886 0.31403443 0.024184769 -0.34803858 0.37842548 1.249367 -0.082478695
-1.5307169 -1.5819495 0.020360274 -0.2988922 0.758372 0.534812 0.22366813 1.2353199
0.42506316 0.9211254 -0.45421156 0.4437374 -0.5042434 0.053563893 -0.38163307 0.7569851
-0.46247053 0.5822745 -0.29757336 0.7737203 0.5082962 0.0005115039 1.4010875 -1.1871507
0.5668987 -0.48292923 -0.028394282 0.12122373 1.0906898 -2.2137353 -0.46388346 1.1271247
-0.022739217 -0.11252779 -0.0013746619 -0.4408787 0.22334075 1.4707457 -0.5584556 -0.25893426
1.158792 0.53986436 0.4218923 -0.41138 0.70187235 0.08727327 0.024815451 -0.051861487
0.032070402 1.391226 -1.4617435 0.1694669 1.1340258 -1.5464838 -1.4247496 -1.6415756
0.108419605 0.11831778 1.4342862 -2.0748687 -0.05214739 1.4913157 -0.71398354 -0.27955306
1.2397298 0.057146084 0.11234347 1.2476445 -1.696397 0.30094415 -0.34619862 -0.57428056
-0.9787869 0.029652515 0.52520984 -0.09034479 -0.34113538 -0.25579733 0.13106775 -0.2287769
-0.27182204 -0.72030354 0.5842749 0.4857335 0.99796414 -0.50103116 0.23508058 0.15808576
1.1514921 0.12713985 -0.2024906 1.677154 -1.0780201 -0.21340837 0.75719726 0.29086742
-0.017842123 0.03841749 -0.12473607 0.5610721 1.5484444 -0.057804268 -0.30313253 0.98929816
0.1554297 -0.516379 -0.16887537 -0.36489215 -0.18817319 1.2885773 0.2425229 0.35535765
-0.3531948 0.5716141 0.07595551 -0.29011276 -0.49887052 -0.6401937 0.85034627 0.39584446
00000000: 2cec 0ebf 6abf c8be f80c 7cbe eaaa 813e
00000010: 9e42 6f3f 47b8 08c0 b3b0 03bf e822 4c3f
00000020: f181 0e3f b178 203f 3633 e0be 4774 2f3f
00000030: e152 4e3f ff19 e7be 0480 e73e ce6c d23e
00000040: ddeb 863f 024a 0ac0 e80c c73d d4e8 ccbe
00000050: 305d 15be 8c45 cfbe 72ec 313f 1c78 f63e
00000060: 1f54 903f 950a 03bf a6b3 e83e e531 3fbf
00000070: 7d4d 6a3f 3584 0d3f 4042 a2bd 99d9 c63f
00000080: 8247 b0bf 8eed 48bd 906f 613f d32e c43e
00000090: dd4f dcbf 4267 eabf 8e70 cd3c f88e 243e
000000a0: f672 2cbe e088 87be c80a 0cbe a7d4 9f3f
000000b0: 3165 f03d ae62 c7bc 2678 bf3f 2139 cebf
000000c0: 4022 7b3d 7dd9 aebe 15a3 97be 97d5 18bf
000000d0: 8b1d 7e3f 0d5e 783e 6068 1b3e 0633 993f
000000e0: ca2a 04c0 7c48 1fbe 8e0e c5be c097 b6bd
000000f0: 6b56 71bf b851 b13f dbbd 063d f1d0 1a3f
00000100: 49d5 e6be 0b32 343f 1fc9 a03e 231f c63c
00000110: 1d32 b2be fcc0 c13e 42eb 9f3f 97ea a8bd
00000120: 88ee c3bf 527d cabf 97ca a63c 6608 99be
00000130: ab24 423f 70e9 083f 4209 653e f61e 9e3f
00000140: e1a1 d93e e0ce 6b3f 6b8e e8be 8c31 e33e
00000150: 1816 01bf d065 5b3d 6965 c3be c7c9 413f
00000160: f0c8 ecbe f10f 153f 895b 98be 8912 463f
00000170: b31f 023f 7216 063a d656 b33f 8ef4 97bf
00000180: 4620 113f 8042 f7be 209b e8bc 2644 f83d
00000190: b99b 8b3f d7ad 0dc0 2282 edbe 9f45 903f
000001a0: 9847 babc f874 e6bd 002e b4ba daba e1be
000001b0: 70b3 643e 6541 bc3f f2f6 0ebf 0893 84be
000001c0: 4c53 943f 8d34 0a3f 4402 d83e 66a0 d2be
000001d0: e8ad 333f 54bc b23d c649 cb3c b66c 54bd
000001e0: 415c 033d b213 b23f 691a bbbf bb88 2d3e
000001f0: c227 913f 2ef3 c5bf 325e b6bf 261f d2bf
00000200: 190b de3d 9850 f23d b196 b73f a6ca 04c0
00000210: 8098 55bd 6fe3 be3f a0c7 36bf 9421 8fbe
00000220: 77af 9e3f 0312 6a3d 5514 e63d d1b2 9f3f
00000230: 8923 d9bf 5a15 9a3e f240 b1be 0d04 13bf
00000240: c791 7abf d5e9 f23c 2774 063f b006 b9bd
00000250: 4ca9 aebe def7 82be a036 063e 7e44 6abe
00000260: 422c 8bbe d065 38bf 0a93 153f 10b2 f83e
00000270: 947a 7f3f 9443 00bf f7b8 703e 3ce1 213e
00000280: 1864 933f f330 023e b259 4fbe fbac d63f
00000290: 90fc 89bf b987 5abe aed7 413f 93ec 943e
000002a0: a529 92bc a85b 1d3d a075 ffbd 6ca2 0f3f
000002b0: 6d33 c63f 2bc4 6cbd 3034 9bbe a542 7d3f
000002c0: f728 1f3e 6a31 04bf aaed 2cbe 25d3 babe
000002d0: 79b0 40be 1af0 a43f ec57 783e 70f1 b53e
000002e0: f3d5 b4be 4d55 123f 908e 9b3d a989 94be
000002f0: f56b ffbe bce3 23bf 4bb0 593f 20ac ca3e

fc1.bias f4 [64]
0.14464414 -0.064135924 0.7202747 0.44836518 0.705651 -0.061073955 0.2760433 0.15372914
0.7295058 -0.149987 1.0798218 0.5569305 0.084961005 0.4368651 0.2568998 0.39422876
0.15073377 -0.1473071 0.3709384 0.12664813 0.510542 0.54234725 -0.19224134 0.22837783
0.822677 0.17346765 -0.09492493 0.36186644 -0.52878445 0.36925593 0.84848446 1.6121811
-0.20084319 -0.33919507 0.49967605 0.14031893 2.286556 0.6224513 0.16837183 -0.35408753
1.1378489 0.9693367 2.1128933 -0.41657874 1.2202682 -0.1593225 0.310969 -0.024848342
1.5967659 0.5500202 0.28593153 0.66614664 0.55556935 0.67377454 1.1824697 0.4357572
0.0336005 0.14591452 0.8558322 0.087251544 -0.033456907 0.1764839 0.2789076 0.19460605
00000000: 981d 143e b259 83bd ec63 383f 1f90 e53e
00000010: 8ba5 343f af28 7abd 8c55 8d3e 2c6b 1d3e
00000020: e4c0 3a3f 3196 19be 9a37 8a3f ff92 0e3f
00000030: 0900 ae3d c8ac df3e 5f88 833e 5ad8 c93e
00000040: f459 1a3e acd7 16be a3eb bd3e 0cb0 013e
00000050: e1b2 023f 45d7 0a3f eada 44be e1db 693e
00000060: f69a 523f 81a1 313e 0068 c2bd 8f46 b93e
00000070: 6b5e 07bf 1d0f bd3e 4736 593f f35b ce3f
00000080: d6a9 4dbe faaa adbe 8ad5 ff3e c4af 0f3e
00000090: ef56 1240 f858 1f3f aa69 2c3e f64a b5be
000000a0: 08a5 913f 7326 783f a539 0740 cf49 d5be
000000b0: c031 9c3f 7025 23be 5437 9f3e c08e cbbc
000000c0: d362 cc3f 20ce 0c3f 9e65 923e 9688 2a3f
000000d0: cb39 0e3f 7d7c 2c3f 2b5b 973f 911b df3e
000000e0: aea0 093d 9e6a 153e d217 5b3f f0b0 b23d
000000f0: 1c0a 09bd 32b8 343e facc 8e3e cf46 473e

fc2.weight f4 [64, 64]
0.0106969625 0.022692412 -0.09058623 0.069601506 0.04329583 -0.119608924 0.036803216 -0.0100630075
-0.112507954 -0.11046077 0.082867384 -0.023152992 -0.004103124 0.1048293 0.07366048 0.098725885
0.02596502 0.09761979 -0.11376096 0.012327105 -0.06835835 0.042864904 -0.062406793 -0.08267474
-0.055304155 -0.07723206 -0.021622568 0.025654852 -0.025903538 -0.06759524 0.018876344 -0.07359116
-0.01357384 -0.0007094294 0.09860431 0.070966214 -0.05985552 -0.025307536 -0.07614973 -0.0037882328
-0.02975656 -0.1153636 -0.0425054 0.06124991 -0.016675115 0.10833825 0.052144215 -0.025776684
-0.003087446 0.0066925436 0.008237705 0.09540039 -0.08944948 0.022932142 -0.05016777 -0.01243861
0.05264698 0.013523266 0.06297757 0.056016058 -0.031285778 0.018967196 0.001250416 -0.050499037
0.1082346 0.09558706 -0.005638838 0.0069877505 -0.08324283 -0.11383487 -0.07784386 -0.025677323
0.11119373 -0.043898895 -0.04182452 -0.12184125 -0.08585392 0.043596283 0.10136761 -0.11435233
0.030718774 0.12241231 -0.0916675 0.082638025 -0.0090055615 -0.09923591 0.03016974 -0.10984574
-0.051583543 -0.11874412 -0.024221644 0.10557033 0.09903613 0.115155846 -0.10943811 0.054685935
0.011772931 -0.0027289987 0.0685152 0.093275025 0.08016519 -0.05695793 -0.028336838 -0.074789956
-0.02951315 0.056797102 0.120843485 0.055364057 0.12464328 -0.066456854 -0.066229 -0.107069805
0.04418242 -0.029493928 0.09132898 -0.032757893 -0.08533442 -0.016095072 -0.04408519 -0.0011442751
0.038257718 -0.06805523 -0.0043866634 -0.020148024 -0.028183326 -0.07086842 0.092850834 -0.07803917
0.089152575 -0.05556257 0.08312158 0.04605393 -0.043675408 0.11782995 0.11956824 -0.06530033
-0.034429282 0.014662847 -0.09389447 -0.052412108 -0.069659084 -0.089474946 0.07366887 -0.01306729
-0.030117065 -0.093140736 0.09204589 0.04315543 -0.0076987445 0.025656804 -0.10181631 -0.06797169
-0.08553757 0.03905058 -0.0015559345 -0.013917446 0.02775748 -0.06331012 -0.084926024 -0.08531916
-0.07724877 -0.09714091 -0.014289185 -0.06003551 0.076673806 0.034928635 0.11986509 0.011938155
-0.0937397 0.0946662 -0.10253501 -0.066784695 -0.054611146 0.06132719 -0.043320358 0.09495087
-0.029713586 0.10561323 0.12358463 -0.082699805 -0.014331907 -0.08276771 -0.082682595 0.056254596
-0.09132972 0.069137424 -0.105484486 -0.0006316006 -0.10962623 -0.036662877 -0.090258434 0.049813762
-0.059571296 -2.7977343 -0.100467645 0.00912628 0.04577134 -1.6253796 0.07825023 0.08301351
0.14104362 -0.037652034 0.18046069 -0.023047471 -0.72418875 0.11315398 0.10307739 0.19582254
-0.05006492 -0.025694115 -1.1780257 -0.017390624 -0.25555548 -0.05336084 0.08625978 0.26838621
-0.58543724 0.026569957 -0.03385906 -0.0018478286 0.033252046 0.12130813 0.10272161 0.052318577
-0.0745431 -2.4998438 0.35286653 0.123116314 -0.5358119 0.031967737 0.0041952813 0.02170166
0.34740865 0.16173571 -1.6649574 -0.4980218 -0.87417454 0.08573739 -0.18833345 0.056296587
-0.09155002 -0.07191849 0.08700286 -0.16051814 0.13526744 0.1582285 -0.123453625 -0.025750378
0.022257272 0.58711654 -0.04394541 0.0052482784 0.15644129 -0.0033993733 0.12090832 -0.012707059
00000000: 5042 2f3c 70e5 b93c 4685 b9bd 3c8b 8e3d
00000010: f856 313d 86f5 f4bd f8be 163d 50df 24bc
00000020: 926a e6bd 4239 e2bd 60b6 a93d 58ab bdbc
00000030: 8073 86bb beb0 d63d 4edb 963d cc30 ca3d
00000040: 98b4 d43c e2ec c73d 82fb e8bd a0f7 493c
00000050: 76ff 8bbd 1c93 2f3d 449e 7fbd 6051 a9bd
00000060: 9c86 62bd d82b 9ebd d021 b1bc 202a d23c
00000070: a833 d4bc 606f 8abd 90a2 9a3c f6b6 96bd
00000080: d064 5ebc 00f9 39ba 0ef1 c93d bc56 913d
00000090: 102b 75bd c051 cfbc 64f4 9bbd 0044 78bb
000000a0: 08c4 f3bc c043 ecbd 241a 2ebd 30e1 7a3d
000000b0: 409a 88bc 72e0 dd3d 2c95 553d a029 d3bc
000000c0: c056 4abb 204d db3b 70f7 063c 4861 c33d
000000d0: 4a31 b7bd 30dc bb3c b87c 4dbd 50cb 4bbc
000000e0: 5ca4 573d b090 5d3c 62fa 803d 1871 653d
000000f0: 8425 00bd 1861 9b3c 00e5 a33a 14d8 4ebd
00000100: 1aaa dd3d 26c3 c33d 00c6 b8bb 80f9 e43b
00000110: 387b aabd 4222 e9bd 9a6c 9fbd 4059 d2bc
00000120: 8ab9 e33d 54cf 33bd 3050 2bbd e887 f9bd
00000130: 2ed4 afbd 0492 323d d299 cf3d 8e31 eabd
00000140: f0a5 fb3c 4eb3 fa3d 2cbc bbbd 203e a93d
00000150: 108c 13bc 323c cbbd 8826 f73c cef6 e0bd
00000160: 4449 53bd 1e30 f3bd 786c c6bc 4235 d83d
00000170: 74d3 ca3d d4d6 eb3d 1621 e0bd 5cfe 5f3d
00000180: 40e3 403c 00d9 32bb b251 8c3d fa06 bf3d
00000190: a62d a43d b84c 69bd a822 e8bc 7a2b 99bd
000001a0: 90c5 f1bc 14a4 683d ca7c f73d 6cc5 623d
000001b0: fa44 ff3d 881a 88bd 12a3 87bd 6a47 dbbd
000001c0: a0f8 343d 409d f1bc b00a bb3d 242d 06bd
000001d0: d0c3 aebd d0d9 83bc ac92 34bd 80fb 95ba
000001e0: 20b4 1c3d 8a60 8bbd 00be 8fbb 780d a5bc
000001f0: b8e0 e6bc 7623 91bd 9428 be3d 00d3 9fbd
00000200: a095 b63d 9495 63bd a63b aa3d 0ca3 3c3d
00000210: fce4 32bd d450 f13d 32e0 f43d 2ebc 85bd
00000220: b805 0dbd 703c 703c be4b c0bd 14ae 56bd
00000230: 6ca9 8ebd a43e b7bd b4df 963d 3018 56bc
00000240: 10b8 f6bc 92c0 bebd 8e82 bc3d c0c3 303d
00000250: c045 fcbb 382e d23c 1285 d0bd be34 8bbd
00000260: 522e afbd 80f3 1f3d 80f0 cbba 0006 64bc
00000270: a863 e33c bca8 81bd b2ed adbd d0bb aebd
00000280: 9a34 9ebd d0f1 c6bd 301d 6abc cce7 75bd
00000290: 2807 9d3d 5411 0f3d d47b f53d 4098 433c
000002a0: 9afa bfbd 5ae0 c13d e0fd d1bd 6ac6 88bd
000002b0: f0af 5fbd 3832 7b3d b070 31bd 9a75 c23d
000002c0: e869 f3bc c04b d83d f019 fd3d 845e a9bd
000002d0: 60d0 6abc 1e82 a9bd 7e55 a9bd 386b 663d
000002e0: 140b bbbd ec97 8d3d 4008 d8bd 0092 25ba
000002f0: b883 e0bd d02b 16bd 6ad9 b8bd 8409 4c3d
00000300: 0801 74bd 140e 33c0 fbc1 cdbd 6586 153c
00000310: bb7a 3b3d 700c d0bf a841 a03d fd02 aa3d
00000320: bd6d 103e 0539 1abd b0ca 383e 0dce bcbc
00000330: 6f64 39bf 46bd e73d 3d1a d33d b485 483e
00000340: e010 4dbd 777c d2bc 8cc9 96bf c876 8ebc
00000350: 2bd8 82be e590 5abd f8a8 b03d eb69 893e
00000360: 37df 15bf 3da9 d93c ccaf 0abd d732 f2ba
00000370: 4c33 083d 6670 f83d b55f d23d 014c 563d
00000380: 0eaa 98bd 71fd 1fc0 ecaa b43e 6824 fc3d
00000390: f82a 09bf 9af0 023d 9278 893b aec7 b13c
000003a0: 8cdf b13e 0c9e 253e 531d d5bf b7fc febe
000003b0: e7c9 5fbf 1697 af3d 7cda 40be 4097 663d
000003c0: 947e bbbd 004a 93bd 8e2e b23d de5e 24be
000003d0: 8c83 0a3e a706 223e 41d5 fcbd 75f2 d2bc
000003e0: e254 b63c 454d 163f 1a00 34bd c0f9 ab3b
000003f0: 2532 203e 05c8 5ebb c89e f73d 4531 50bc

fc2.bias f4 [64]
-0.06374028 -0.06491457 0.036493346 0.14539616 1.0506537 -0.116909236 0.1822134 0.1529555
-0.015894463 0.29465717 0.21256453 0.010167768 0.49907365 0.21900085 -0.0959591 -0.118801676
0.09683741 0.03712322 0.19418414 0.046241812 -3.6880374e-05 -0.03109014 0.07317814 0.9783451
-0.027694317 0.08954832 0.3585909 -0.024536667 -0.09441968 -0.3861694 -0.013504833 -0.11878526
0.07599932 -0.108851574 -0.0021558595 -0.0687743 -0.08642361 0.32253075 -0.019997712 -0.025515158
-0.42577368 4.6697955 -0.08467707 -0.10476798 0.4153478 0.06675351 -0.02765661 -0.07517105
0.36244845 0.063942194 -0.11749024 0.18185194 0.05302906 0.15455845 -0.08881028 -0.12654126
0.07075977 0.0021787353 1.120607 0.12550654 -0.6626497 -0.0699064 0.074005924 0.06467869
00000000: 448a 82bd eef1 84bd 0c7a 153d bbe2 143e
00000010: d27b 863f 1c6e efbd 2696 3a3e 5ea0 1c3e
00000020: 1b35 82bc 4edd 963e 84aa 593e b696 263c
00000030: 9586 ff3e c241 603e 3486 c4bd 4b4e f3bd
00000040: b152 c63d 840e 183d 35d8 463e 0e68 3d3d
00000050: 00b0 1ab8 c0b0 febc 6cde 953d d374 7a3f
00000060: 31df e2bc 1c65 b73d 3a99 b73e 1f01 c9bc
00000070: 1b5f c1bd ffb7 c5be 6043 5dbc b045 f3bd
00000080: 88a5 9b3d 93ed debd 5249 0dbb 8ad9 8cbd
00000090: ddfe b0bd c022 a53e 3ed2 a3bc 2a05 d1bc
000000a0: 02ff d9be f76e 9540 2c6b adbd 9890 d6bd
000000b0: 78a8 d43e 10b6 883d 1d90 e2bc 48f3 99bd
000000c0: d892 b93e 20f4 823d b99e f0bd 6537 3a3e
000000d0: 0035 593d 9244 1e3e 2ae2 b5bd 0894 01be
000000e0: 80ea 903d 1dc9 0e3b 0d70 8f3f c984 003e
000000f0: 69a3 29bf 162b 8fbd 6b90 973d 4376 843d

fc3.weight f4 [4, 64]
-0.06131272 0.03659673 0.0049116462 -0.25408268 -0.16167228 0.11556426 -0.1968302 -0.5698497
0.04014433 -0.92784745 0.37781394 -0.1044734 -0.843452 0.5154049 0.10939483 0.06730079
-0.61072314 -0.57230866 -0.7934496 0.10010056 -0.08411144 0.12227914 0.041300967 -0.26503277
0.051129147 -0.46103668 -0.90969557 -0.1150475 0.016473636 -1.4807564 -0.053276107 -0.09185815
0.01719043 -0.5406251 -0.7873043 0.059851423 0.023745878 -0.7217715 -0.53199154 0.082946986
-1.7225338 -1.6665924 0.052020255 -0.7968553 -0.9506378 -0.64874536 -0.6485049 0.08712031
-1.2111241 0.072310776 0.086412504 -0.6651733 0.007512778 -0.76708204 0.07058406 0.045037344
-0.5800207 0.03796333 -2.2951572 -0.69949657 -1.5467501 -0.06158246 -0.011484272 -0.62882864
0.095874384 0.0026189685 0.05163379 -0.031118035 -0.05077604 -0.014261201 -0.0064758677 -0.7623311
-0.08477939 -0.51768446 0.3638805 -0.009710863 -0.69472545 0.24530782 0.060077026 0.018809924
-0.47557738 -0.8704628 -0.36224788 -0.037131954 -0.0053035766 -0.05901061 0.08167839 -0.0753933
0.097448856 -0.6935478 -0.67509586 0.083049685 -0.043551013 -3.2000158 -0.09910408 0.032398164
-0.024259835 -0.57829905 -0.49660265 -0.11750248 0.074828565 -0.48260665 -0.5679172 -0.05383252
-3.3815572 -2.7730865 0.02940434 -0.32230785 -0.8700909 -0.6422201 -0.4169003 -0.010422114
-0.8117762 -0.08768369 0.0887265 -0.56382126 -0.093721196 -0.5548685 0.024100974 0.08188625
-0.7044699 -0.023108557 -2.6766598 -0.62924933 -3.4003372 0.01715529 0.08510144 -0.5380628
0.032237843 0.051147565 0.09405866 0.11395052 0.35385296 0.019224646 0.22842096 -0.99735016
0.055845104 -0.4880498 0.40454748 -0.057826728 -0.64037216 0.3673442 0.0497666 -0.034280322
-0.7168386 -0.96200764 -0.47568852 0.0059338114 -0.11753933 -0.064168915 -0.01836144 0.34617877
-0.003811428 -1.0161479 -0.5810209 0.0022698338 -0.0116335 -1.4232776 -0.06925121 0.0014833075
-0.11226469 -0.908676 -0.6627734 0.014181942 -0.0036106496 -0.5076207 -0.9144255 -0.005848642
-3.7710679 -1.4622337 0.0067344657 -0.70470124 -0.7185482 -0.89331186 -0.6631001 0.05035481
-0.57144517 0.07629636 -0.026710048 -0.58398646 0.108024105 -0.69197625 -0.0657506 -0.03839606
-0.88218427 -0.032771137 -1.9387541 -0.84320176 -2.6242192 0.054906234 0.04382217 -0.8099424
-0.025556937 0.091626585 -0.039381057 -0.08770286 -0.48966795 0.061732218 -0.2497118 -0.43596745
0.10283638 -0.9524941 0.3604288 0.115734294 -1.1442089 0.37464088 -0.037717953 0.020700172
-0.36696166 -0.5522295 -0.70172876 0.09466638 -0.07851902 0.03548989 0.07788682 -0.49602038
0.052711364 -0.2071741 -1.0884162 0.004904598 -0.045501746 -2.1418176 0.014201671 -0.08985773
0.0872564 -0.24355714 -0.5927321 -0.0012963265 0.10569837 -0.6072113 -0.4110456 0.0130252605
-1.6141254 -1.8234189 -0.04562829 -0.3846047 -1.1009444 -0.26264063 -0.5240879 0.07311019
-1.5673683 -0.037068605 0.11745554 -0.6211712 0.044171855 -0.66123044 0.051426813 0.04249172
-0.5965855 0.032710895 -3.492443 -0.6523907 -1.7332509 -0.05138214 -0.047881488 -0.54417
00000000: 0c23 7bbd 74e6 153d e0f1 a03b 2017 82be
00000010: 6b8d 25be f4ac ec3d db8d 49be ace1 11bf
00000020: 626e 243d 6987 6dbf d470 c13e 26f6 d5bd
00000030: 78ec 57bf 93f1 033f 660a e03d ffd4 893d
00000040: 5a58 1cbf d282 12bf 831f 4bbf 8601 cd3d
00000050: 9e42 acbd 7c6d fa3d 342b 293d 60b2 87be
00000060: cc6c 513d 000d ecbe cfe1 68bf 069e ebbd
00000070: b8f3 863c 6d89 bdbf 0c38 5abd 2020 bcbd
00000080: f2d2 8c3c 6866 0abf c68c 49bf c426 753d
00000090: b786 c23c 04c6 38bf 9930 08bf 1ce0 a93d
000000a0: fd7b dcbf e652 d5bf 3113 553d b5fe 4bbf
000000b0: 005d 73bf 2d14 26bf 6b04 26bf 226c b23d
000000c0: 1d06 9bbf ac17 943d 0af9 b03d cc48 2abf
000000d0: c02d f63b 7d5f 44bf 608e 903d 1479 383d
000000e0: 3d7c 14bf 707f 1b3d dbe3 12c0 3512 33bf
000000f0: e8fb c5bf e43d 7cbd 8728 3cbc eafa 20bf
00000100: ca59 c43d 00a3 2b3b f47d 533d 40eb febc
00000110: 89fa 4fbd d0a7 69bc 8433 d4bb 2228 43bf
00000120: d1a0 adbd f886 04bf 8b4e ba3e 501a 1fbc
00000130: 87d9 31bf f931 7b3e 5413 763d 4517 9a3c
00000140: e17e f3be a6d6 5ebf 8e78 b9be ad17 18bd
00000150: a0c9 adbb 1cb5 71bd 0047 a73d cd67 9abd
00000160: 4493 c73d 598c 31bf 15d3 2cbf f415 aa3d
00000170: 8c62 32bd 0fcd 4cc0 14f7 cabd f0b3 043d
00000180: 90bc c6bc 680b 14bf b442 febe 24a5 f0bd
00000190: b83f 993d 3818 f7be 0663 11bf 7d7f 5cbd
000001a0: 6f6b 58c0 407a 31c0 5fe1 f03c 8905 a5be
000001b0: 47be 5ebf 8968 24bf f573 d5be 84c1 2abc
000001c0: 91d0 4fbf 8293 b3bd 3db6 b53d 9756 10bf
000001d0: e6f0 bfbd dd0b 0ebf 686f c53c fab3 a73d
000001e0: 2458 34bf 284e bdbc 654e 2bc0 7c16 21bf
000001f0: 209f 59c0 4089 8c3c aa49 ae3d 7cbe 09bf
00000200: d40b 043d 1c80 513d d4a1 c03d e45e e93d
00000210: 372c b53e 017d 9d3c 2fe7 693e 5752 7fbf
00000220: d6bd 643d aae1 f9be d920 cf3e b8db 6cbd
00000230: 6eef 23bf 8a14 bc3e 10d8 4b3d 8669 0cbd
00000240: bc82 37bf 2246 76bf 728d f3be 6b70 c23b
00000250: 76b8 f0bd fe6a 83bd bb6a 96bc 583e b13e
00000260: 27c9 79bb 2211 82bf c9bd 14bf 7ec1 143b
00000270: 709a 3ebc f62d b6bf 94d3 8dbd 8a6b c23a
00000280: 08eb e5bd fe9e 68bf 84ab 29bf 605b 683c
00000290: a6a0 6cbb 6ef3 01bf ca17 6abf f7a5 bfbb
000002a0: 2d59 71c0 792a bbbf cbac dc3b 4d67 34bf
000002b0: c6f2 37bf 16b0 64bf eec0 29bf d840 4e3d
000002c0: 3b4a 12bf 4441 9c3d 08cf dabc 2380 15bf
000002d0: be3b dd3d 5b25 31bf 40a8 86bd 3045 1dbd
000002e0: d4d6 61bf 073b 06bd 1829 f8bf 12dc 57bf
000002f0: 35f3 27c0 5ce5 603d e07e 333d 6358 4fbf
00000300: c85c d1bc b8a6 bb3d 084e 21bd 8f9d b3bd
00000310: c2b5 fabe ecda 7c3d 73b4 7fbe 2037 dfbe
00000320: e19b d23d a7d6 73bf 208a b83e 1a06 ed3d
00000330: 7075 92bf eed0 bf3e 247e 1abd 6893 a93c
00000340: 66e2 bbbe ea5e 0dbf 7fa4 33bf 72e0 c13d
00000350: 94ce a0bd d95d 113d 2083 9f3d 62f6 fdbe
00000360: dfe7 573d 7325 54be 3951 8bbf c0b6 a03b
00000370: 0a60 3abd 8a13 09c0 20ae 683c 5407 b8bd
00000380: 7cb3 b23d 0b67 79be 4abd 17bf 80e9 a9ba
00000390: 6378 d83d 3372 1bbf 9274 d2be e767 553c
000003a0: a99b cebf ca65 e9bf bbe4 3abd e8ea c4be
000003b0: bfeb 8cbf d578 86be a02a 06bf ccba 953d
000003c0: 869f c8bf 40d5 17bd 888c f03d 1305 1fbf
000003d0: 8ced 343d 6646 29bf eca4 523d cc0b 2e3d
000003e0: d4b9 18bf dcfb 053d 3084 5fc0 1403 27bf
000003f0: 2adb ddbf 1476 52bd 611f 44bd ba4e 0bbf

fc3.bias f4 [4]
-0.06963271 -0.14663638 0.97146654 -1.825544
00000000: 989b 8ebd d927 16be 08b2 783f 6dab e9bf
