FE+DQN_demo/results/dqn_model_episode_300.pth (torch, 21396 bytes, 6 tensors)

fc1.weight f4 [64, 3]
-0.5582912 -0.39208537 -0.24614322 0.37132883 1.0466623 -1.8779687 -0.5605104 0.63502145
0.5893943 0.7548819 -0.35298303 0.7084305 0.9089937 -0.33494076 0.46187243 0.5853317
1.1762648 -1.7878263 0.097192585 -0.40021384 -0.1458633 -0.4366605 0.55014753 0.5314561
1.2409291 -0.39288542 0.47346863 -0.81584185 0.7651375 0.5756379 -0.2365832 1.6576809
-0.7798042 -0.111221425 0.71915925 0.41394308 -1.689427 -1.799516 0.056838542 0.16070163
-0.16840729 -0.26471615 -0.23043263 1.067309 0.13455068 -0.09175284 1.623102 -1.0411589
0.06131196 -0.34150305 -0.2961661 -0.67803675 0.82056385 0.2614434 0.075950675 1.3395798
-1.6401737 -0.15554994 -0.38487667 -0.08915663 -1.0166526 1.1920546 0.042745057 0.7275981
-0.37575412 0.7201354 0.31403443 0.024184769 -0.34803858 0.18542174 0.927785 -0.029625079
-1.503426 -1.554699 0.045966063 -0.3565181 0.6059565 0.5685878 0.12746096 1.074095
0.446589 1.0208087 -0.3194933 0.45296833 -0.5042434 0.053563893 -0.38163307 0.88118416
-0.3488384 0.5990015 -0.338777 0.6205295 0.55827075 -0.37709194 1.4453793 -0.57112265
0.5668987 -0.48292923 -0.028394282 0.3346573 1.2254081 -1.9347045 -0.5616919 0.91497123
-0.01123574 -0.11252779 -0.0013746619 -0.4408787 0.39785445 0.9217046 -0.04549266 -0.33661982
0.99982494 0.5619307 0.5354932 -0.31985992 0.7121259 0.08727327 0.024815451 -0.051861487
0.01803016 1.48445 -0.9139557 0.28259933 1.1967113 -1.1041142 -1.2948092 -1.5153235
0.08709431 0.18715873 1.5724573 -1.5549366 -0.18487501 0.9753374 -0.057509374 -0.376795
1.0561032 0.073557176 0.22023791 1.3375361 -1.1988996 0.30094415 -0.34619862 -0.57428056
-0.7166262 -0.042875145 0.6036184 -0.09034479 -0.34113538 -0.25579733 0.13106775 -0.2287769
-0.27182204 -0.7264102 0.4185975 0.5282794 1.0982898 -0.27838516 0.2523739 0.061963487
0.97595775 0.1499608 -0.5123081 1.6870489 -0.49050802 -0.25710946 0.59182805 0.35059437
-0.017842123 0.03841749 -0.12473607 0.39528733 1.3138342 -0.04657549 -0.38560045 0.81011707
0.17611739 -0.516379 -0.16887537 -0.36489215 -0.2879077 1.1197187 0.26143733 0.4670251
-0.2588045 0.58167213 0.07595551 -0.29011276 -0.49887052 -0.69523436 0.68882674 0.4204405
00000000: 2cec 0ebf 6abf c8be f80c 7cbe d01e be3e
00000010: 08f9 853f 4761 f0bf 9c7d 0fbf c490 223f
00000020: 8be2 163f f13f 413f 31ba b4be b45b 353f
00000030: d0b3 683f 5b7d abbe 8b7a ec3e 4cd8 153f
00000040: d88f 963f 7ed7 e4bf e80c c73d d4e8 ccbe
00000050: 305d 15be f791 dfbe 78d6 0c3f 820d 083f
00000060: c4d6 9e3f 4728 c9be 7b6a f23e 03db 50bf
00000070: 0de0 433f 015d 133f de42 72be e32e d43f
00000080: 40a1 47bf 0fc8 e3bd d21a 383f 59f0 d33e
00000090: 253f d8bf 8a56 e6bf 88cf 683d f88e 243e
000000a0: f672 2cbe e088 87be 88f6 6bbe 959d 883f
000000b0: a7c7 093e eae8 bbbd cec1 cf3f b244 85bf
000000c0: 4022 7b3d 7dd9 aebe 15a3 97be d193 2dbf
000000d0: 7910 523f e9db 853e 078c 9b3d 5a77 ab3f
000000e0: 36f1 d1bf 7c48 1fbe 8e0e c5be c097 b6bd
000000f0: ac21 82bf 3f95 983f 7115 2f3d de43 3a3f
00000100: d862 c0be cb5a 383f 1fc9 a03e 231f c63c
00000110: 1d32 b2be 32df 3d3e 5183 6d3f 4bb0 f2bc
00000120: 4370 c0bf 6000 c7bf e946 3c3d 8a89 b6be
00000130: f71f 1b3f f88e 113f 2085 023e f27b 893f
00000140: 50a7 e43e dca9 823f a094 a3be 77eb e73e
00000150: 1816 01bf d065 5b3d 6965 c3be 4995 613f
00000160: f29a b2be 2a58 193f 2e74 adbe 05db 1e3f
00000170: d5ea 0e3f 3212 c1be 3002 b93f 1835 12bf
00000180: 4620 113f 8042 f7be 209b e8bc 3458 ab3e
00000190: 2cda 9c3f 66a4 f7bf 0acb 0fbf 8e3b 6a3f
000001a0: 1c16 38bc f874 e6bd 002e b4ba daba e1be
000001b0: 94b3 cb3e d5f4 6b3f 8356 3abd 6f59 acbe
000001c0: 87f4 7f3f b1da 0f3f 1516 093f aec4 a3be
000001d0: e24d 363f 54bc b23d c649 cb3c b66c 54bd
000001e0: fcb3 933c 7502 be3f 00f9 69bf dcb0 903e
000001f0: d62d 993f 9d53 8dbf 4fbc a5bf 1ff6 c1bf
00000200: 805e b23d 8aa6 3f3e 4846 c93f 2a08 c7bf
00000210: e04f 3dbe b6af 793f f38e 6bbd 46eb c0be
00000220: 642e 873f 25a5 963d 0c86 613e 6234 ab3f
00000230: 8b75 99bf 5a15 9a3e f240 b1be 0d04 13bf
00000240: d174 37bf d99d 2fbd bc86 1a3f b006 b9bd
00000250: 4ca9 aebe def7 82be a036 063e 7e44 6abe
00000260: 422c 8bbe 05f6 39bf 6952 d63e 523d 073f
00000270: c394 8c3f 8088 8ebe 2737 813e 6dcd 7d3d
00000280: 5ed8 793f 538f 193e a026 03bf 38f1 d73f
00000290: de23 fbbe daa3 83be 0b82 173f 1b81 b33e
000002a0: a529 92bc a85b 1d3d a075 ffbd 1a63 ca3e
000002b0: b82b a83f f1c5 3ebd 6c6d c5be d563 4f3f
000002c0: 1e58 343e 6a31 04bf aaed 2cbe 25d3 babe
000002d0: a368 93be f152 8f3f 1ddb 853e ea1d ef3e
000002e0: 0682 84be 77e8 143f 908e 9b3d a989 94be
000002f0: f56b ffbe e1fa 31bf f356 303f fa43 d73e

fc1.bias f4 [64]
0.14464414 0.12118617 1.289648 -0.087087385 0.11131277 0.17041388 0.2760433 0.77639484
0.17976624 0.4747444 1.4389101 1.142822 0.11672153 0.4368651 0.8220823 0.7322651
0.15073377 0.4270609 0.68934137 0.12664813 1.0096982 -0.02972779 -0.19224134 1.0242748
0.84873414 0.7975063 0.53538465 -0.21345325 -0.52878445 -0.19830891 1.4512146 2.0159805
-0.20084319 -0.14341603 1.0042963 0.14031893 1.7845443 1.2315556 -0.43957964 -0.35408753
1.4094471 1.1342684 2.0713873 -0.11769241 0.2611144 0.40156996 0.53900385 -0.024848342
1.8851982 0.5500202 0.28593153 1.1953361 0.10360274 1.2575171 1.4929037 0.9953078
0.0336005 1.0204399 1.4084876 0.087251544 0.5749397 -0.42459708 0.2789076 0.7633542
00000000: 981d 143e 7430 f83d 3013 a53f df5a b2bd
00000010: f3f7 e33d fa80 2e3e 8c55 8d3e d0c1 463f
00000020: a414 383e b311 f33e 352e b83f fe47 923f
00000030: b30b ef3d c8ac df3e fc73 523f ba75 3b3f
00000040: f459 1a3e baa7 da3e ad78 303f 0cb0 013e
00000050: ca3d 813f b287 f3bc eada 44be 701b 833f
00000060: a446 593f 5f29 4c3f f80e 093f 7d93 5abe
00000070: 6b5e 07bf 7e11 4bbe 66c1 b93f d305 0140
00000080: d6a9 4dbe a7db 12be c88c 803f c4af 0f3e
00000090: f36b e43f 9da3 9d3f 9510 e1be f64a b5be
000000a0: c368 b43f b52f 913f 9c91 0440 b808 f1bd
000000b0: c9b0 853e 949a cd3e 28fc 093f c08e cbbc
000000c0: 2d4e f13f 20ce 0c3f 9e65 923e c600 993f
000000d0: ac2d d43d 52f6 a03f 7817 bf3f 7ecc 7e3f
000000e0: aea0 093d c69d 823f 5249 b43f f0b0 b23d
000000f0: 402f 133f ca64 d9be facc 8e3e 2e6b 433f

fc2.weight f4 [64, 64]
0.0106969625 0.022692412 -0.09058623 0.069601506 0.04329583 -0.119608924 0.036803216 -0.0100630075
-0.112507954 -0.11046077 0.082867384 -0.023152992 -0.004103124 0.1048293 0.07366048 0.098725885
0.02596502 0.09761979 -0.11376096 0.012327105 -0.06835835 0.042864904 -0.062406793 -0.08267474
-0.055304155 -0.07723206 -0.021622568 0.025654852 -0.025903538 -0.06759524 0.018876344 -0.07359116
-0.01357384 -0.0007094294 0.09860431 0.070966214 -0.05985552 -0.025307536 -0.07614973 -0.0037882328
-0.02975656 -0.1153636 -0.0425054 0.06124991 -0.016675115 0.10833825 0.052144215 -0.025776684
-0.003087446 0.0066925436 0.008237705 0.09540039 -0.08944948 0.022932142 -0.05016777 -0.01243861
0.05264698 0.013523266 0.06297757 0.056016058 -0.031285778 0.018967196 0.001250416 -0.050499037
0.1082346 0.09558706 -0.005638838 0.0069877505 -0.08324283 -0.11383487 -0.07784386 -0.025677323
0.11119373 -0.043898895 -0.04182452 -0.12184125 -0.08585392 0.043596283 0.10136761 -0.11435233
0.030718774 0.12241231 -0.0916675 0.082638025 -0.0090055615 -0.09923591 0.03016974 -0.10984574
-0.051583543 -0.11874412 -0.024221644 0.10557033 0.09903613 0.115155846 -0.10943811 0.054685935
0.011772931 -0.0027289987 0.0685152 0.093275025 0.08016519 -0.05695793 -0.028336838 -0.074789956
-0.02951315 0.056797102 0.120843485 0.055364057 0.12464328 -0.066456854 -0.066229 -0.107069805
0.04418242 -0.029493928 0.09132898 -0.032757893 -0.08533442 -0.016095072 -0.04408519 -0.0011442751
0.038257718 -0.06805523 -0.0043866634 -0.020148024 -0.028183326 -0.07086842 0.092850834 -0.07803917
0.089152575 -0.05556257 0.08312158 0.04605393 -0.043675408 0.11782995 0.11956824 -0.06530033
-0.034429282 0.014662847 -0.09389447 -0.052412108 -0.069659084 -0.089474946 0.07366887 -0.01306729
-0.030117065 -0.093140736 0.09204589 0.04315543 -0.0076987445 0.025656804 -0.10181631 -0.06797169
-0.08553757 0.03905058 -0.0015559345 -0.013917446 0.02775748 -0.06331012 -0.084926024 -0.08531916
-0.07724877 -0.09714091 -0.014289185 -0.06003551 0.076673806 0.034928635 0.11986509 0.011938155
-0.0937397 0.0946662 -0.10253501 -0.066784695 -0.054611146 0.06132719 -0.043320358 0.09495087
-0.029713586 0.10561323 0.12358463 -0.082699805 -0.014331907 -0.08276771 -0.082682595 0.056254596
-0.09132972 0.069137424 -0.105484486 -0.0006316006 -0.10962623 -0.036662877 -0.090258434 0.049813762
-0.059571296 -2.9077904 -0.077734455 0.030477356 0.056018602 -1.554415 0.07825023 0.10599437
0.14118317 -0.0055558537 0.3825006 -0.021239415 -0.69320375 0.11315398 0.060194466 0.2363551
-0.05006492 -0.00027574622 -1.1643089 -0.017390624 -0.22228855 -0.031532068 0.08625978 0.33942917
-0.6187431 0.045963425 -0.04077497 0.00591361 0.033252046 0.1385629 0.118284404 0.3753838
-0.0745431 -2.62475 0.20413323 0.123116314 0.42331234 0.042822894 0.031571783 0.02170166
0.5171777 0.1614008 -1.137835 -0.43290198 0.43353269 0.030568225 -0.15875913 0.056296587
-0.050455645 -0.07191849 0.08700286 -0.12826532 0.11843239 0.093774 0.23619287 -0.018617442
0.022257272 0.4997598 -0.059387047 0.0052482784 0.14837992 0.024811871 0.12090832 0.015314549
00000000: 5042 2f3c 70e5 b93c 4685 b9bd 3c8b 8e3d
00000010: f856 313d 86f5 f4bd f8be 163d 50df 24bc
00000020: 926a e6bd 4239 e2bd 60b6 a93d 58ab bdbc
00000030: 8073 86bb beb0 d63d 4edb 963d cc30 ca3d
00000040: 98b4 d43c e2ec c73d 82fb e8bd a0f7 493c
00000050: 76ff 8bbd 1c93 2f3d 449e 7fbd 6051 a9bd
00000060: 9c86 62bd d82b 9ebd d021 b1bc 202a d23c
00000070: a833 d4bc 606f 8abd 90a2 9a3c f6b6 96bd
00000080: d064 5ebc 00f9 39ba 0ef1 c93d bc56 913d
00000090: 102b 75bd c051 cfbc 64f4 9bbd 0044 78bb
000000a0: 08c4 f3bc c043 ecbd 241a 2ebd 30e1 7a3d
000000b0: 409a 88bc 72e0 dd3d 2c95 553d a029 d3bc
000000c0: c056 4abb 204d db3b 70f7 063c 4861 c33d
000000d0: 4a31 b7bd 30dc bb3c b87c 4dbd 50cb 4bbc
000000e0: 5ca4 573d b090 5d3c 62fa 803d 1871 653d
000000f0: 8425 00bd 1861 9b3c 00e5 a33a 14d8 4ebd
00000100: 1aaa dd3d 26c3 c33d 00c6 b8bb 80f9 e43b
00000110: 387b aabd 4222 e9bd 9a6c 9fbd 4059 d2bc
00000120: 8ab9 e33d 54cf 33bd 3050 2bbd e887 f9bd
00000130: 2ed4 afbd 0492 323d d299 cf3d 8e31 eabd
00000140: f0a5 fb3c 4eb3 fa3d 2cbc bbbd 203e a93d
00000150: 108c 13bc 323c cbbd 8826 f73c cef6 e0bd
00000160: 4449 53bd 1e30 f3bd 786c c6bc 4235 d83d
00000170: 74d3 ca3d d4d6 eb3d 1621 e0bd 5cfe 5f3d
00000180: 40e3 403c 00d9 32bb b251 8c3d fa06 bf3d
00000190: a62d a43d b84c 69bd a822 e8bc 7a2b 99bd
000001a0: 90c5 f1bc 14a4 683d ca7c f73d 6cc5 623d
000001b0: fa44 ff3d 881a 88bd 12a3 87bd 6a47 dbbd
000001c0: a0f8 343d 409d f1bc b00a bb3d 242d 06bd
000001d0: d0c3 aebd d0d9 83bc ac92 34bd 80fb 95ba
000001e0: 20b4 1c3d 8a60 8bbd 00be 8fbb 780d a5bc
000001f0: b8e0 e6bc 7623 91bd 9428 be3d 00d3 9fbd
00000200: a095 b63d 9495 63bd a63b aa3d 0ca3 3c3d
00000210: fce4 32bd d450 f13d 32e0 f43d 2ebc 85bd
00000220: b805 0dbd 703c 703c be4b c0bd 14ae 56bd
00000230: 6ca9 8ebd a43e b7bd b4df 963d 3018 56bc
00000240: 10b8 f6bc 92c0 bebd 8e82 bc3d c0c3 303d
00000250: c045 fcbb 382e d23c 1285 d0bd be34 8bbd
00000260: 522e afbd 80f3 1f3d 80f0 cbba 0006 64bc
00000270: a863 e33c bca8 81bd b2ed adbd d0bb aebd
00000280: 9a34 9ebd d0f1 c6bd 301d 6abc cce7 75bd
00000290: 2807 9d3d 5411 0f3d d47b f53d 4098 433c
000002a0: 9afa bfbd 5ae0 c13d e0fd d1bd 6ac6 88bd
000002b0: f0af 5fbd 3832 7b3d b070 31bd 9a75 c23d
000002c0: e869 f3bc c04b d83d f019 fd3d 845e a9bd
000002d0: 60d0 6abc 1e82 a9bd 7e55 a9bd 386b 663d
000002e0: 140b bbbd ec97 8d3d 4008 d8bd 0092 25ba
000002f0: b883 e0bd d02b 16bd 6ad9 b8bd 8409 4c3d
00000300: 0801 74bd 3d19 3ac0 3e33 9fbd a6ab f93c
00000310: c373 653d 12f7 c6bf a841 a03d 9413 d93d
00000320: 5292 103e e10d b6bb 1ed7 c33e 48fe adbc
00000330: cd75 31bf 46bd e73d 798e 763d 1207 723e
00000340: e010 4dbd 0892 90b9 1308 95bf c876 8ebc
00000350: 9c9f 63be c527 01bd f8a8 b03d a9c9 ad3e
00000360: f365 1ebf 2544 3c3d a803 27bd f5c6 c13b
00000370: 4c33 083d 6fe3 0d3e 183f f23d 4e32 c03e
00000380: 0eaa 98bd e7fb 27c0 4d08 513e 6824 fc3d
00000390: 65bc d83e 0f67 2f3d 6a51 013d aec7 b13c
000003a0: c265 043f 4046 253e 94a4 91bf 54a5 ddbe
000003b0: fff7 dd3e 376a fa3c c191 22be 4097 663d
000003c0: 94aa 4ebd 004a 93bd 8e2e b23d fc57 03be
000003d0: ae8c f23d 950c c03d 8bdc 713e 9b83 98bc
000003e0: e254 b63c 84e0 ff3e d53f 73bd c0f9 ab3b
000003f0: e8f0 173e 4442 cb3c c89e f73d e0e9 7a3c

fc2.bias f4 [64]
-0.06374028 -0.06491457 0.036493346 -0.15894398 0.6798757 -0.116909236 -0.35974184 0.7835942
-0.015894463 0.8858083 -0.39416376 0.010167768 1.1044698 -0.3302208 -0.0959591 -0.118801676
0.71148807 0.673081 0.767832 0.046241812 -3.6880374e-05 -0.03109014 0.07317814 0.6421078
-0.027694317 0.7233013 0.9646368 -0.024536667 -0.09441968 0.02332345 -0.013504833 -0.11878526
0.07599932 0.5124215 0.59916866 -0.0687743 -0.08642361 0.93809545 0.59126216 -0.025515158
-0.4254301 0.06456458 -0.08467707 0.45847192 1.0385939 0.69611377 0.56401885 -0.07517105
0.9566109 0.063942194 -0.11749024 0.80442023 0.05302906 0.7618581 -0.08881028 -0.12654126
0.69438386 0.0021787353 1.5254432 0.7382239 -0.5659534 -0.0699064 0.074005924 0.66716236
00000000: 448a 82bd eef1 84bd 0c7a 153d 36c2 22be
00000010: 550c 2e3f 1c6e efbd 1530 b8be a199 483f
00000020: 1b35 82bc 55c4 623f d5cf c9be b696 263c
00000030: 445f 8d3f b312 a9be 3486 c4bd 4b4e f3bd
00000040: 1524 363f 094f 2c3f a390 443f 0e68 3d3d
00000050: 00b0 1ab8 c0b0 febc 6cde 953d 2d61 243f
00000060: 31df e2bc 462a 393f 70f2 763f 1f01 c9bc
00000070: 1b5f c1bd d210 bf3c 6043 5dbc b045 f3bd
00000080: 88a5 9b3d 0e2e 033f 1e63 193f 8ad9 8cbd
00000090: ddfe b0bd 0627 703f f55c 173f 2a05 d1bc
000000a0: f9d1 d9be 6f3a 843d 2c6b adbd d5bc ea3e
000000b0: a5f0 843f 8334 323f 8a63 103f 48f3 99bd
000000c0: 74e4 743f 20f4 823d b99e f0bd 7cee 4d3f
000000d0: 0035 593d 2209 433f 2ae2 b5bd 0894 01be
000000e0: 24c3 313f 1dc9 0e3b b941 c33f 3efc 3c3f
000000f0: 52e2 10bf 162b 8fbd 6b90 973d 27cb 2a3f

fc3.weight f4 [4, 64]
-0.06131272 0.03659673 0.0049116462 0.40467313 0.4320711 0.11556426 0.27829114 -0.8248599
0.04014433 -0.8308658 0.37229994 -0.1044734 -0.7658884 0.5017891 0.10939483 0.06730079
-0.71568924 -0.89416283 -0.7686355 0.10010056 -0.08411144 0.12227914 0.041300967 0.43075168
0.051129147 -0.7918511 -0.849045 -0.1150475 0.016473636 -1.4207622 -0.053276107 -0.09185815
0.01719043 -0.81757265 -0.86290705 0.059851423 0.023745878 -0.7562895 -0.7858578 0.082946986
-1.6692321 -0.0016647147 0.052020255 -0.88810766 -0.91636145 -0.89654166 -0.72411454 0.08712031
-0.9909323 0.072310776 0.086412504 -0.7092158 0.007512778 -0.84177995 0.07058406 0.045037344
-0.7545221 0.03796333 -1.219831 -0.8602598 -1.4880288 -0.06158246 -0.011484272 -0.74251866
0.095874384 0.0026189685 0.05163379 0.13686237 0.043246333 -0.014261201 0.18124849 -0.831455
-0.08477939 -0.5267125 0.38972673 -0.009710863 -0.7477618 0.27375656 0.060077026 0.018809924
-0.508498 -0.8999996 -0.375791 -0.037131954 -0.0053035766 -0.05901061 0.08167839 0.044635814
0.097448856 -0.78290725 -0.69386435 0.083049685 -0.043551013 -2.5510347 -0.09910408 0.032398164
-0.024259835 -0.61755997 -0.53770816 -0.11750248 0.074828565 -0.5117692 -0.6442545 -0.05383252
-2.7309217 -0.041493207 0.02940434 -0.36365685 -0.9014232 -0.6905595 -0.4484826 -0.010422114
-0.7887346 -0.08768369 0.0887265 -0.5815876 -0.093721196 -0.61706865 0.024100974 0.08188625
-0.7442078 -0.023108557 -2.554084 -0.7382317 -2.7915082 0.01715529 0.08510144 -0.5763109
0.032237843 0.051147565 0.09405866 0.19363119 0.39284402 0.019224646 0.21528548 -0.971894
0.055845104 -0.49172536 0.3983648 -0.057826728 -0.6260761 0.3688203 0.0497666 -0.034280322
-0.70355916 -0.9327504 -0.49513763 0.0059338114 -0.11753933 -0.064168915 -0.01836144 0.37512517
-0.003811428 -0.9985542 -0.5644444 0.0022698338 -0.0116335 -1.5897045 -0.06925121 0.0014833075
-0.11226469 -0.8962228 -0.6753412 0.014181942 -0.0036106496 -0.49078766 -0.90862197 -0.005848642
-3.8568375 -0.10811968 0.0067344657 -0.7354158 -0.6962622 -0.8812104 -0.6751543 0.05035481
-0.5564542 0.07629636 -0.026710048 -0.57974166 0.108024105 -0.703486 -0.0657506 -0.03839606
-0.8525564 -0.032771137 -1.5523086 -0.8290919 -2.6292865 0.054906234 0.04382217 -0.8300219
-0.025556937 0.091626585 -0.039381057 -0.18717164 -0.4176727 0.061732218 -0.06338379 -0.49896842
0.10283638 -0.8882302 0.42045227 0.115734294 -1.0910653 0.43066308 -0.037717953 0.020700172
-0.36109707 -0.6669032 -0.6557523 0.09466638 -0.07851902 0.03548989 0.07788682 -0.48528957
0.052711364 -0.28812614 -1.0437939 0.004904598 -0.045501746 -2.543305 0.014201671 -0.08985773
0.0872564 -0.30747297 -0.5917137 -0.0012963265 0.10569837 -0.5761274 -0.47073814 0.0130252605
-1.6141254 0.10479199 -0.04562829 -0.37623063 -1.0639908 -0.32603452 -0.50791705 0.07311019
-1.4502699 -0.037068605 0.11745554 -0.60117805 0.044171855 -0.65262794 0.051426813 0.04249172
-0.6414403 0.032710895 -2.5960608 -0.67308897 -1.7332509 -0.05138214 -0.047881488 -0.5580525
00000000: 0c23 7bbd 74e6 153d e0f1 a03b 5131 cf3e
00000010: 6c38 dd3e f4ac ec3d 2d7c 8e3e 052a 53bf
00000020: 626e 243d 9fb3 54bf 199e be3e 26f6 d5bd
00000030: 4311 44bf 4075 003f 660a e03d ffd4 893d
00000040: 6937 37bf dbe7 64bf 4cc5 44bf 8601 cd3d
00000050: 9e42 acbd 7c6d fa3d 342b 293d 7c8b dc3e
00000060: cc6c 513d c1b6 4abf 035b 59bf 069e ebbd
00000070: b8f3 863c 89db b5bf 0c38 5abd 2020 bcbd
00000080: f2d2 8c3c 714c 51bf 7ae7 5cbf c426 753d
00000090: b786 c23c 309c 41bf fa2d 49bf 1ce0 a93d
000000a0: 66a9 d5bf 8e32 daba 3113 553d 065b 63bf
000000b0: aa96 6abf c183 65bf 925f 39bf 226c b23d
000000c0: bdad 7dbf ac17 943d 0af9 b03d 2b8f 35bf
000000d0: c02d f63b e47e 57bf 608e 903d 1479 383d
000000e0: 5c28 41bf 707f 1b3d 6c23 9cbf fc39 5cbf
000000f0: ba77 bebf e43d 7cbd 8728 3cbc b415 3ebf
00000100: ca59 c43d 00a3 2b3b f47d 533d a625 0c3e
00000110: 1123 313d d0a7 69bc 3499 393e 3cda 54bf
00000120: d1a0 adbd a1d6 06bf 438a c73e 501a 1fbc
00000130: 516d 3fbf d229 8c3e 5413 763d 4517 9a3c
00000140: ed2c 02bf 6066 66bf ae67 c0be ad17 18bd
00000150: a0c9 adbb 1cb5 71bd 0047 a73d 0bd4 363d
00000160: 4493 c73d 9c6c 48bf 18a1 31bf f415 aa3d
00000170: 8c62 32bd 2744 23c0 14f7 cabd f0b3 043d
00000180: 90bc c6bc 6918 1ebf 3ea7 09bf 24a5 f0bd
00000190: b83f 993d 4e03 03bf dded 24bf 7d7f 5cbd
000001a0: 6cc7 2ec0 c8f4 29bd 5fe1 f03c 3b31 babe
000001b0: acc3 66bf 82c8 30bf 839f e5be 84c1 2abc
000001c0: 83ea 49bf 8293 b3bd 3db6 b53d ede2 14bf
000001d0: e6f0 bfbd 36f8 1dbf 686f c53c fab3 a73d
000001e0: 6784 3ebf 284e bdbc 1d76 23c0 c1fc 3cbf
000001f0: 12a8 32c0 4089 8c3c aa49 ae3d 1c89 13bf
00000200: d40b 043d 1c80 513d d4a1 c03d 4147 463e
00000210: da22 c93e 017d 9d3c cc73 5c3e 0cce 78bf
00000220: d6bd 643d 6dc3 fbbe 79f6 cb3e b8db 6cbd
00000230: 8646 20bf 04d6 bc3e 10d8 4b3d 8669 0cbd
00000240: 741c 34bf bbc8 6ebf ae82 fdbe 6b70 c23b
00000250: 76b8 f0bd fe6a 83bd bb6a 96bc 6810 c03e
00000260: 27c9 79bb 40a1 7fbf 6e7f 10bf 7ec1 143b
00000270: 709a 3ebc 707b cbbf 94d3 8dbd 8a6b c23a
00000280: 08eb e5bd db6e 65bf 29e3 2cbf 605b 683c
00000290: a6a0 6cbb 8548 fbbe 739b 68bf f7a5 bfbb
000002a0: 6dd6 76c0 da6d ddbd cbac dc3b 3644 3cbf
000002b0: 3d3e 32bf 0197 61bf ead6 2cbf d840 4e3d
000002c0: c873 0ebf 4441 9c3d 08cf dabc f369 14bf
000002d0: be3b dd3d a917 34bf 40a8 86bd 3045 1dbd
000002e0: 2341 5abf 073b 06bd 0cb2 c6bf 5e3f 54bf
000002f0: 3b46 28c0 5ce5 603d e07e 333d 517c 54bf
00000300: c85c d1bc b8a6 bb3d 084e 21bd eca9 3fbe
00000310: 32d9 d5be ecda 7c3d 5ccf 81bd ca78 ffbe
00000320: e19b d23d 0e63 63bf 8545 d73e 1a06 ed3d
00000330: 07a8 8bbf df7f dc3e 247e 1abd 6893 a93c
00000340: b7e1 b8be 2bba 2abf 62df 27bf 72e0 c13d
00000350: 94ce a0bd d95d 113d 2083 9f3d e077 f8be
00000360: dfe7 573d 4585 93be 0a9b 85bf c0b6 a03b
00000370: 0a60 3abd 82c5 22c0 20ae 683c 5407 b8bd
00000380: 7cb3 b23d 196d 9dbe 8d7a 17bf 80e9 a9ba
00000390: 6378 d83d 167d 13bf 9704 f1be e767 553c
000003a0: a99b cebf 2f9d d63d bbe4 3abd 4da1 c0be
000003b0: da30 88bf ffed a6be da06 02bf ccba 953d
000003c0: 72a2 b9bf 40d5 17bd 888c f03d cee6 19bf
000003d0: 8ced 343d a012 27bf eca4 523d cc0b 2e3d
000003e0: 6e35 24bf dcfb 053d dc25 26c0 8f4f 2cbf
000003f0: 2adb ddbf 1476 52bd 611f 44bd 87dc 0ebf

fc3.bias f4 [4]
-0.003059798 -0.8710563 0.6259118 -1.4650445
00000000: e486 48bb 8cfd 5ebf c13b 203f 9486 bbbf
