FE+DQN_demo/results/dqn_model_episode_700.pth (torch, 21396 bytes, 6 tensors)

fc1.weight f4 [64, 3]
000000 2c ec 0e bf 6a bf c8 be f8 0c 7c be 46 bb 5a 3e
       -0.5582912 -0.39208537 -0.24614322 0.21360502
000010 83 6e 64 3f 7e 96 0b c0 7a 93 08 bf 68 ae 56 3f
       0.8923113 -2.1810603 -0.5335003 0.8385987
000020 7b dc 0b 3f 1b 20 1c 3f ae 4c f2 be 87 46 2d 3f
       0.546333 0.6098649 -0.47324127 0.6768574
000030 b0 cf 4c 3f fb 49 f4 be 9b 45 e5 3e 0d ac 59 3e
       0.80004406 -0.47712693 0.44779667 0.21257038
000040 d2 05 86 3f e8 9f 0b c0 e8 0c c7 3d d4 e8 cc be
       1.0470526 -2.181635 0.097192585 -0.40021384
000050 30 5d 15 be 7b c4 dc be 8a 11 3b 3f b3 f7 ed 3e
       -0.1458633 -0.43118653 0.7307364 0.46478042
000060 cb 2c 8f 3f 26 9d 12 bf 6f bf e4 3e b7 4b 42 bf
       1.1185545 -0.5727104 0.44677302 -0.7589678
000070 3e 21 72 3f b0 f0 0b 3f 99 72 98 3b cc fa bd 3f
       0.94581974 0.54664135 0.004652333 1.4842162
000080 6f a3 c4 bf 47 30 67 bd e4 e8 6b 3f 06 4a bf 3e
       -1.5362376 -0.056442525 0.9215224 0.37361163
000090 dd 4f dc bf 42 67 ea bf 8e 70 cd 3c f8 8e 24 3e
       -1.7211872 -1.8312762 0.025078084 0.16070163
0000a0 f6 72 2c be e0 88 87 be e8 71 05 be 17 fb a5 3f
       -0.16840729 -0.26471615 -0.13031733 1.2967252
0000b0 1d 0d e6 3d 45 27 bc 3b 62 51 b8 3f eb 22 df bf
       0.1123297 0.005741986 1.4399836 -1.7432531
0000c0 40 22 7b 3d 7d d9 ae be 15 a3 97 be bf ce 19 bf
       0.06131196 -0.34150305 -0.2961661 -0.60081095
0000d0 37 99 84 3f 7f c0 72 3e 7f 13 3f 3e f0 96 92 3f
       1.0359257 0.23706244 0.18659781 1.1452312
0000e0 d4 20 0a c0 7c 48 1f be 8e 0e c5 be c0 97 b6 bd
       -2.1582537 -0.15554994 -0.38487667 -0.08915663
0000f0 25 92 72 bf b5 5f b8 3f 7c ee f1 3c fe 63 16 3f
       -0.9475425 1.4404207 0.029532664 0.58746326
000100 f1 c3 f7 be 8e 89 32 3f 1f c9 a0 3e 23 1f c6 3c
       -0.4839168 0.6974114 0.31403443 0.024184769
000110 1d 32 b2 be 5f 2f db 3e 10 5a b1 3f e4 96 dc bd
       -0.34803858 0.4280958 1.385561 -0.107709676
000120 88 ee c3 bf 52 7d ca bf 97 ca a6 3c 34 ff 9e be
       -1.5307169 -1.5819495 0.020360274 -0.3105408
000130 f8 0e 4b 3f 00 52 06 3f 33 12 6c 3e 03 75 a2 3f
       0.79319715 0.5246887 0.23053817 1.2691959
000140 de c1 d6 3e 66 12 69 3f 17 df 06 bf 81 8c e0 3e
       0.41944784 0.910437 -0.5268416 0.43857196
000150 18 16 01 bf d0 65 5b 3d 69 65 c3 be 42 8d 3f 3f
       -0.5042434 0.053563893 -0.38163307 0.7482492
000160 ab b2 f0 be 73 9b 13 3f 79 16 a3 be 3c e5 50 3f
       -0.47011313 0.5765907 -0.31853083 0.81599784
000170 58 94 fb 3e 4a d0 9b 3d 9a c3 ac 3f 15 a0 a9 bf
       0.49136615 0.07608087 1.3497193 -1.3251978
000180 46 20 11 3f 80 42 f7 be 20 9b e8 bc c3 48 bb 3d
       0.5668987 -0.48292923 -0.028394282 0.091447376
000190 4a 45 89 3f 3a 3b 0f c0 33 08 f8 be e8 4f 97 3f
       1.072427 -2.23799 -0.48443756 1.182126
0001a0 57 0d a9 bd f8 74 e6 bd 00 2e b4 ba da ba e1 be
       -0.082544975 -0.11252779 -0.0013746619 -0.4408787
0001b0 63 c5 eb 3d 2a fe cf 3f ef 45 48 bf 9f a7 86 be
       0.11512258 1.624944 -0.7823171 -0.2629976
0001c0 c9 df 98 3f 4f a4 08 3f 09 76 d0 3e 7b 9d e3 be
       1.1943294 0.53375715 0.40715054 -0.44456086
0001d0 24 78 32 3f 54 bc b2 3d c6 49 cb 3c b6 6c 54 bd
       0.6971457 0.08727327 0.024815451 -0.051861487
0001e0 e6 48 9a 3d 1a fa ab 3f df 86 cb bf b1 2f 4e 3e
       0.075334355 1.34357 -1.5900534 0.2013538
0001f0 95 8c 8c 3f 86 54 d3 bf c3 03 bb bf 12 ff d5 bf
       1.0980402 -1.651017 -1.4610523 -1.6718466
000200 e6 e6 d9 3d 36 ff 23 3e b0 e8 b1 3f 58 ec 0a c0
       0.106397435 0.16015324 1.3899136 -2.1706753
000210 63 48 8e 3d 6f 66 bc 3f bc 73 5e bf 25 4b 8b be
       0.069474004 1.471876 -0.86895347 -0.27205768
000220 71 ef a4 3f 73 f5 56 3d e3 45 29 3e 63 a5 99 3f
       1.2885572 0.052480172 0.16530566 1.2003597
000230 76 90 e8 bf 5a 15 9a 3e f2 40 b1 be 0d 04 13 bf
       -1.8169086 0.30094415 -0.34619862 -0.57428056
000240 15 c9 af bf 03 e7 12 bd 78 47 f4 3e b0 06 b9 bd
       -1.373324 -0.03586484 0.47710776 -0.09034479
000250 4c a9 ae be de f7 82 be a0 36 06 3e 7e 44 6a be
       -0.34113538 -0.25579733 0.13106775 -0.2287769
000260 42 2c 8b be 95 a0 43 bf a0 34 22 3f d3 bd f0 3e
       -0.27182204 -0.76416904 0.6336155 0.47019824
000270 e5 15 80 3f 3f 03 29 bf 62 08 65 3e d7 b4 29 3e
       1.0006682 -0.6602058 0.22366479 0.16572891
000280 cd 30 99 3f e0 ed f5 3d 55 7e c0 bd 58 b3 cf 3f
       1.1968018 0.12008262 -0.09399096 1.6226606
000290 2c 63 9e bf 93 15 6f be 45 bc 4d 3f 4c 08 8a 3e
       -1.2374015 -0.23348074 0.803654 0.26959455
0002a0 a5 29 92 bc a8 5b 1d 3d a0 75 ff bd f1 09 1a 3f
       -0.017842123 0.03841749 -0.12473607 0.6017142
0002b0 e9 46 cf 3f f5 f4 64 bd d8 1b 9c be 34 f5 84 3f
       1.6193515 -0.05589767 -0.30489993 1.038733
0002c0 6f 0a 18 3e 6a 31 04 bf aa ed 2c be 25 d3 ba be
       0.1484773 -0.516379 -0.16887537 -0.36489215
0002d0 ba 01 3a be 4a 0f aa 3f c1 27 73 3e 5c bc af 3e
       -0.18164721 1.3285916 0.23745634 0.34323394
0002e0 89 a1 c0 be c6 39 11 3f 90 8e 9b 3d a9 89 94 be
       -0.37623242 0.5672878 0.07595551 -0.29011276
0002f0 f5 6b ff be b5 3a 28 bf 53 ab 63 3f 3e d7 c6 3e
       -0.49887052 -0.6571458 0.88933295 0.38836092

fc1.bias f4 [64]
000000 98 1d 14 3e 92 97 dc bd 0d 79 07 3f 6a 6e 17 3f
       0.14464414 -0.10771097 0.52919084 0.59152853
000010 70 ae 66 3f fe ef 4c bd 8c 55 8d 3e bb 28 74 bd
       0.9010992 -0.050033562 0.2760433 -0.059609156
000020 95 b4 5e 3f 7b 39 bc be c3 2d 70 3f eb 87 b6 3e
       0.86994296 -0.36762604 0.93819827 0.35650572
000030 09 00 ae 3d c8 ac df 3e e5 2d 8a 3d d6 4b 94 3e
       0.084961005 0.4368651 0.06747035 0.28964108
000040 f4 59 1a 3e 57 3e ad be 1e b4 91 3e 0c b0 01 3e
       0.15073377 -0.33836624 0.2845773 0.12664813
000050 4a 48 b5 3e b4 ae 34 3f ea da 44 be 78 73 0e bd
       0.35406715 0.70579076 -0.19224134 -0.03477809
000060 f6 9a 52 3f 42 7d 42 bd c0 96 a4 be 91 c1 05 3f
       0.822677 -0.047482736 -0.32146263 0.52248484
000070 6b 5e 07 bf 82 c4 0d 3f 44 a4 26 3f 7e 21 c0 3f
       -0.52878445 0.5537797 0.650944 1.5010221
000080 d6 a9 4d be 92 f0 b7 be 25 58 73 3e c4 af 0f 3e
       -0.20084319 -0.35925728 0.23764093 0.14031893
000090 14 71 26 40 33 41 d2 3e c2 0c b7 3e f6 4a b5 be
       2.6006517 0.41065368 0.3575192 -0.35408753
0000a0 02 1c 85 3f 99 2e 64 3f b3 75 0a 40 ba 32 00 bf
       1.0399172 0.891336 2.1634338 -0.500774
0000b0 9a 11 91 3f 58 3b b1 be 95 7d 58 3e c0 8e cb bc
       1.1333497 -0.34615588 0.21141656 -0.024848342
0000c0 06 70 c9 3f 20 ce 0c 3f 9e 65 92 3e db 15 01 3f
       1.5737312 0.5500202 0.28593153 0.50423974
0000d0 44 5a 18 3f b3 14 f5 3e a4 4a 86 3f 44 ed 86 3e
       0.59512734 0.47867355 1.0491529 0.26352894
0000e0 ae a0 09 3d 2f 8b 2a be 4c 38 2e 3f f0 b0 b2 3d
       0.0336005 -0.16654657 0.6805465 0.087251544
0000f0 84 37 78 be 65 6a bd 3e fa cc 8e 3e 55 6f a8 3b
       -0.24239928 0.36995235 0.2789076 0.005140225

fc2.weight f4 [64, 64]
000000 50 42 2f 3c 70 e5 b9 3c 46 85 b9 bd 3c 8b 8e 3d
       0.0106969625 0.022692412 -0.09058623 0.069601506
000010 f8 56 31 3d 86 f5 f4 bd f8 be 16 3d 50 df 24 bc
       0.04329583 -0.119608924 0.036803216 -0.0100630075
000020 92 6a e6 bd 42 39 e2 bd 60 b6 a9 3d 58 ab bd bc
       -0.112507954 -0.11046077 0.082867384 -0.023152992
000030 80 73 86 bb be b0 d6 3d 4e db 96 3d cc 30 ca 3d
       -0.004103124 0.1048293 0.07366048 0.098725885
000040 98 b4 d4 3c e2 ec c7 3d 82 fb e8 bd a0 f7 49 3c
       0.02596502 0.09761979 -0.11376096 0.012327105
000050 76 ff 8b bd 1c 93 2f 3d 44 9e 7f bd 60 51 a9 bd
       -0.06835835 0.042864904 -0.062406793 -0.08267474
000060 9c 86 62 bd d8 2b 9e bd d0 21 b1 bc 20 2a d2 3c
       -0.055304155 -0.07723206 -0.021622568 0.025654852
000070 a8 33 d4 bc 60 6f 8a bd 90 a2 9a 3c f6 b6 96 bd
       -0.025903538 -0.06759524 0.018876344 -0.07359116
000080 d0 64 5e bc 00 f9 39 ba 0e f1 c9 3d bc 56 91 3d
       -0.01357384 -0.0007094294 0.09860431 0.070966214
000090 10 2b 75 bd c0 51 cf bc 64 f4 9b bd 00 44 78 bb
       -0.05985552 -0.025307536 -0.07614973 -0.0037882328
0000a0 08 c4 f3 bc c0 43 ec bd 24 1a 2e bd 30 e1 7a 3d
       -0.02975656 -0.1153636 -0.0425054 0.06124991
0000b0 40 9a 88 bc 72 e0 dd 3d 2c 95 55 3d a0 29 d3 bc
       -0.016675115 0.10833825 0.052144215 -0.025776684
0000c0 c0 56 4a bb 20 4d db 3b 70 f7 06 3c 48 61 c3 3d
       -0.003087446 0.0066925436 0.008237705 0.09540039
0000d0 4a 31 b7 bd 30 dc bb 3c b8 7c 4d bd 50 cb 4b bc
       -0.08944948 0.022932142 -0.05016777 -0.01243861
0000e0 5c a4 57 3d b0 90 5d 3c 62 fa 80 3d 18 71 65 3d
       0.05264698 0.013523266 0.06297757 0.056016058
0000f0 84 25 00 bd 18 61 9b 3c 00 e5 a3 3a 14 d8 4e bd
       -0.031285778 0.018967196 0.001250416 -0.050499037
000100 1a aa dd 3d 26 c3 c3 3d 00 c6 b8 bb 80 f9 e4 3b
       0.1082346 0.09558706 -0.005638838 0.0069877505
000110 38 7b aa bd 42 22 e9 bd 9a 6c 9f bd 40 59 d2 bc
       -0.08324283 -0.11383487 -0.07784386 -0.025677323
000120 8a b9 e3 3d 54 cf 33 bd 30 50 2b bd e8 87 f9 bd
       0.11119373 -0.043898895 -0.04182452 -0.12184125
000130 2e d4 af bd 04 92 32 3d d2 99 cf 3d 8e 31 ea bd
       -0.08585392 0.043596283 0.10136761 -0.11435233
000140 f0 a5 fb 3c 4e b3 fa 3d 2c bc bb bd 20 3e a9 3d
       0.030718774 0.12241231 -0.0916675 0.082638025
000150 10 8c 13 bc 32 3c cb bd 88 26 f7 3c ce f6 e0 bd
       -0.0090055615 -0.09923591 0.03016974 -0.10984574
000160 44 49 53 bd 1e 30 f3 bd 78 6c c6 bc 42 35 d8 3d
       -0.051583543 -0.11874412 -0.024221644 0.10557033
000170 74 d3 ca 3d d4 d6 eb 3d 16 21 e0 bd 5c fe 5f 3d
       0.09903613 0.115155846 -0.10943811 0.054685935
000180 40 e3 40 3c 00 d9 32 bb b2 51 8c 3d fa 06 bf 3d
       0.011772931 -0.0027289987 0.0685152 0.093275025
000190 a6 2d a4 3d b8 4c 69 bd a8 22 e8 bc 7a 2b 99 bd
       0.08016519 -0.05695793 -0.028336838 -0.074789956
0001a0 90 c5 f1 bc 14 a4 68 3d ca 7c f7 3d 6c c5 62 3d
       -0.02951315 0.056797102 0.120843485 0.055364057
0001b0 fa 44 ff 3d 88 1a 88 bd 12 a3 87 bd 6a 47 db bd
       0.12464328 -0.066456854 -0.066229 -0.107069805
0001c0 a0 f8 34 3d 40 9d f1 bc b0 0a bb 3d 24 2d 06 bd
       0.04418242 -0.029493928 0.09132898 -0.032757893
0001d0 d0 c3 ae bd d0 d9 83 bc ac 92 34 bd 80 fb 95 ba
       -0.08533442 -0.016095072 -0.04408519 -0.0011442751
0001e0 20 b4 1c 3d 8a 60 8b bd 00 be 8f bb 78 0d a5 bc
       0.038257718 -0.06805523 -0.0043866634 -0.020148024
0001f0 b8 e0 e6 bc 76 23 91 bd 94 28 be 3d 00 d3 9f bd
       -0.028183326 -0.07086842 0.092850834 -0.07803917
000200 a0 95 b6 3d 94 95 63 bd a6 3b aa 3d 0c a3 3c 3d
       0.089152575 -0.05556257 0.08312158 0.04605393
000210 fc e4 32 bd d4 50 f1 3d 32 e0 f4 3d 2e bc 85 bd
       -0.043675408 0.11782995 0.11956824 -0.06530033
000220 b8 05 0d bd 70 3c 70 3c be 4b c0 bd 14 ae 56 bd
       -0.034429282 0.014662847 -0.09389447 -0.052412108
000230 6c a9 8e bd a4 3e b7 bd b4 df 96 3d 30 18 56 bc
       -0.069659084 -0.089474946 0.07366887 -0.01306729
000240 10 b8 f6 bc 92 c0 be bd 8e 82 bc 3d c0 c3 30 3d
       -0.030117065 -0.093140736 0.09204589 0.04315543
000250 c0 45 fc bb 38 2e d2 3c 12 85 d0 bd be 34 8b bd
       -0.0076987445 0.025656804 -0.10181631 -0.06797169
000260 52 2e af bd 80 f3 1f 3d 80 f0 cb ba 00 06 64 bc
       -0.08553757 0.03905058 -0.0015559345 -0.013917446
000270 a8 63 e3 3c bc a8 81 bd b2 ed ad bd d0 bb ae bd
       0.02775748 -0.06331012 -0.084926024 -0.08531916
000280 9a 34 9e bd d0 f1 c6 bd 30 1d 6a bc cc e7 75 bd
       -0.07724877 -0.09714091 -0.014289185 -0.06003551
000290 28 07 9d 3d 54 11 0f 3d d4 7b f5 3d 40 98 43 3c
       0.076673806 0.034928635 0.11986509 0.011938155
0002a0 9a fa bf bd 5a e0 c1 3d e0 fd d1 bd 6a c6 88 bd
       -0.0937397 0.0946662 -0.10253501 -0.066784695
0002b0 f0 af 5f bd 38 32 7b 3d b0 70 31 bd 9a 75 c2 3d
       -0.054611146 0.06132719 -0.043320358 0.09495087
0002c0 e8 69 f3 bc c0 4b d8 3d f0 19 fd 3d 84 5e a9 bd
       -0.029713586 0.10561323 0.12358463 -0.082699805
0002d0 60 d0 6a bc 1e 82 a9 bd 7e 55 a9 bd 38 6b 66 3d
       -0.014331907 -0.08276771 -0.082682595 0.056254596
0002e0 14 0b bb bd ec 97 8d 3d 40 08 d8 bd 00 92 25 ba
       -0.09132972 0.069137424 -0.105484486 -0.0006316006
0002f0 b8 83 e0 bd d0 2b 16 bd 6a d9 b8 bd 84 09 4c 3d
       -0.10962623 -0.036662877 -0.090258434 0.049813762
000300 08 01 74 bd 14 0e 33 c0 71 37 01 be 9e be 66 bc
       -0.059571296 -2.7977343 -0.12618805 -0.014083533
000310 b0 88 e9 3c 48 3e 8f bf a8 41 a0 3d 48 72 6e 3d
       0.02850756 -1.1190882 0.07825023 0.058214456
000320 f6 8e 04 3e 40 f3 86 bd a5 36 41 3e 71 2a 0c bd
       0.1294516 -0.06589365 0.18868501 -0.034220163
000330 6f 64 39 bf 46 bd e7 3d 95 b5 06 3e c8 38 6c 3e
       -0.72418875 0.11315398 0.13155206 0.23068535
000340 e0 10 4d bd a3 f3 3b bd 01 27 a3 bf c8 76 8e bc
       -0.05006492 -0.045886647 -1.2746278 -0.017390624
000350 79 29 84 be e4 04 9e bd f8 a8 b0 3d 93 6e 90 3e
       -0.2581289 -0.077157766 0.08625978 0.2820936
000360 37 df 15 bf 1f ea 96 3b 0e 94 0d bd e1 f6 87 bc
       -0.58543724 0.004605546 -0.034565024 -0.016597213
000370 4c 33 08 3d 7d fd ce 3d 7b 03 a6 3d 4b cf 31 3b
       0.033252046 0.10106943 0.081061326 0.0027131613
000380 0e aa 98 bd 71 fd 1f c0 3e 93 c1 3e 68 24 fc 3d
       -0.0745431 -2.4998438 0.3780765 0.123116314
000390 5a da 7f bf b2 30 85 3c b0 b7 b3 bc ae c7 b1 3c
       -0.99942553 0.016258571 -0.021938175 0.02170166
0003a0 b6 5b bb 3e d6 94 30 3e 75 12 e9 bf 0f 4f 05 bf
       0.36593407 0.17244276 -1.8208758 -0.5207376
0003b0 35 a6 79 bf 4c 03 0d 3e 83 60 6c be 40 97 66 3d
       -0.97519237 0.13770789 -0.23083691 0.056296587
0003c0 67 c3 10 be 00 4a 93 bd 8e 2e b2 3d d7 de 46 be
       -0.1413704 -0.07191849 0.08700286 -0.19420944
0003d0 c7 c6 0a 3e 82 b9 46 3e ec 88 4c be 1a a9 25 bd
       0.1355239 0.19406703 -0.19974107 -0.04044447
0003e0 e2 54 b6 3c 8a 42 47 3f 38 74 37 bd c0 f9 ab 3b
       0.022257272 0.77835906 -0.04478857 0.0052482784
0003f0 91 c1 23 3e 3c 1e f2 bc c8 9e f7 3d 2e b8 22 bd
       0.15991808 -0.029555432 0.12090832 -0.03972643

fc2.bias f4 [64]
000000 44 8a 82 bd ee f1 84 bd 0c 7a 15 3d 8b 3c df 3d
       -0.06374028 -0.06491457 0.036493346 0.109002195
000010 90 77 90 3f 1c 6e ef bd 97 c2 8e 3e 42 19 9b bd
       1.1286488 -0.116909236 0.27882835 -0.07573177
000020 1b 35 82 bc a1 c9 a7 3d b3 9a df 3e b6 96 26 3c
       -0.015894463 0.081927545 0.43672714 0.010167768
000030 1a 27 90 3e 9d 66 d7 3e 34 86 c4 bd 4b 4e f3 bd
       0.28154832 0.42070475 -0.0959591 -0.118801676
000040 35 84 fa bd 36 a9 49 be f0 3c 25 bc 0e 68 3d 3d
       -0.12232248 -0.19693455 -0.010085329 0.046241812
000050 00 b0 1a b8 c0 b0 fe bc 33 60 94 3d 31 82 81 3f
       -3.6880374e-05 -0.03109014 0.07244911 1.0117856
000060 31 df e2 bc e8 37 0f be 98 c0 0e 3e 1f 01 c9 bc
       -0.027694317 -0.1398617 0.13940656 -0.024536667
000070 1b 5f c1 bd ff 26 e7 be 60 43 5d bc b0 45 f3 bd
       -0.09441968 -0.4514694 -0.013504833 -0.11878526
000080 88 a5 9b 3d b6 f4 aa be a0 da 5f be 8a d9 8c bd
       0.07599932 -0.33389825 -0.21860743 -0.0687743
000090 dd fe b0 bd 12 22 d0 3d c2 53 75 be 2a 05 d1 bc
       -0.08642361 0.101627484 -0.23957732 -0.025515158
0000a0 40 4f df be 46 2d a7 40 6b 76 ee bd 82 fd 9a be
       -0.4361515 5.2242765 -0.1164368 -0.30271536
0000b0 95 7b 41 3e 91 b8 25 be fd b0 73 be 48 f3 99 bd
       0.18894799 -0.16183688 -0.23797984 -0.07517105
0000c0 d7 1b 17 3e 20 f4 82 3d b9 9e f0 bd 3b 78 32 bd
       0.14756714 0.063942194 -0.11749024 -0.043571692
0000d0 00 35 59 3d 84 7c 83 bd 2a e2 b5 bd 08 94 01 be
       0.05302906 -0.06420234 -0.08881028 -0.12654126
0000e0 ed ca 1e be 1d c9 0e 3b 65 e4 6d 3f ca 02 c0 bd
       -0.15507098 0.0021787353 0.9292663 -0.09375532
0000f0 4e 71 2d bf 16 2b 8f bd 6b 90 97 3d a7 e5 1b be
       -0.67751014 -0.0699064 0.074005924 -0.15224324

fc3.weight f4 [4, 64]
000000 0c 23 7b bd 74 e6 15 3d e0 f1 a0 3b 0b ba 82 be
       -0.06131272 0.03659673 0.0049116462 -0.25532565
000010 38 ff 9c be f4 ac ec 3d 5c 45 8d be cd c7 e4 be
       -0.30663466 0.11556426 -0.2759198 -0.44683686
000020 62 6e 24 3d 8f 33 72 bf 03 55 b2 3e 26 f6 d5 bd
       0.04014433 -0.9460992 0.34830484 -0.1044734
000030 17 38 56 bf f6 60 fb 3e 66 0a e0 3d ff d4 89 3d
       -0.83679336 0.49097413 0.10939483 0.06730079
000040 30 6c 14 bf 4e ee da be a0 34 4f bf 86 01 cd 3d
       -0.5797758 -0.42759937 -0.80939674 0.10010056
000050 9e 42 ac bd 7c 6d fa 3d 34 2b 29 3d 8e 42 d1 be
       -0.08411144 0.12227914 0.041300967 -0.4087109
000060 cc 6c 51 3d 88 d8 9f be 41 63 66 bf 06 9e eb bd
       0.051129147 -0.31219888 -0.899952 -0.1150475
000070 b8 f3 86 3c 6d 89 bd bf 0c 38 5a bd 20 20 bc bd
       0.016473636 -1.4807564 -0.053276107 -0.09185815
000080 f2 d2 8c 3c f5 4d da be 4a b4 3e bf c4 26 75 3d
       0.01719043 -0.42637601 -0.7449385 0.059851423
000090 b7 86 c2 3c e8 d2 36 bf ea 40 d8 be 1c e0 a9 3d
       0.023745878 -0.7141557 -0.42237025 0.082946986
0000a0 fd 7b dc bf 98 8a 10 c0 31 13 55 3d d2 ce 45 bf
       -1.7225338 -2.258459 0.052020255 -0.7726871
0000b0 fc 14 6a bf 2f 7d 09 bf ee 04 1f bf 22 6c b2 3d
       -0.9143827 -0.5370664 -0.621169 0.08712031
0000c0 2c ae a0 bf ac 17 94 3d 0a f9 b0 3d 5d c6 22 bf
       -1.2553153 0.072310776 0.086412504 -0.6358393
0000d0 c0 2d f6 3b b5 02 36 bf 60 8e 90 3d 14 79 38 3d
       0.007512778 -0.7109788 0.07058406 0.045037344
0000e0 c3 b7 fa be 70 7f 1b 3d 3d de 24 c0 12 81 1e bf
       -0.48968324 0.03796333 -2.5760643 -0.61915696
0000f0 e8 fb c5 bf e4 3d 7c bd 87 28 3c bc c3 73 11 bf
       -1.5467501 -0.06158246 -0.011484272 -0.56817263
000100 ca 59 c4 3d 00 a3 2b 3b f4 7d 53 3d c0 44 4d bd
       0.095874384 0.0026189685 0.05163379 -0.050114393
000110 62 fb 9c bd d0 a7 69 bc 45 cd 30 bd eb 86 45 bf
       -0.07665135 -0.014261201 -0.04316451 -0.77158993
000120 d1 a0 ad bd 98 de 08 bf c0 3b b9 3e 50 1a 1f bc
       -0.08477939 -0.5346465 0.36178398 -0.009710863
000130 a6 40 35 bf bd 55 77 3e 54 13 76 3d 45 17 9a 3c
       -0.7080177 0.241538 0.060077026 0.018809924
000140 fa dd f0 be 6b af 68 bf 87 30 bb be ad 17 18 bd
       -0.47044355 -0.90892667 -0.3656046 -0.037131954
000150 a0 c9 ad bb 1c b5 71 bd 48 7d f8 3d 3e 62 d5 bd
       -0.0053035766 -0.05901061 0.121332705 -0.10419129
000160 44 93 c7 3d cf f7 31 bf b2 93 31 bf f4 15 aa 3d
       0.097448856 -0.6951875 -0.6936599 0.083049685
000170 8c 62 32 bd 6c fc 58 c0 14 f7 ca bd f0 b3 04 3d
       -0.043551013 -3.3904066 -0.09910408 0.032398164
000180 90 bc c6 bc 0a ad 16 bf 63 ed 00 bf 24 a5 f0 bd
       -0.024259835 -0.58857787 -0.50362223 -0.11750248
000190 b8 3f 99 3d 5f b1 f6 be c3 3d 12 bf 7d 7f 5c bd
       0.074828565 -0.48182198 -0.5712549 -0.05383252
0001a0 80 4f 5a c0 d5 83 42 c0 5f e1 f0 3c 42 fe 9e be
       -3.4111023 -3.0392964 0.02940434 -0.31053358
0001b0 42 35 65 bf b2 80 26 bf bb 54 d3 be 84 c1 2a bc
       -0.8953439 -0.65040123 -0.41275582 -0.010422114
0001c0 06 67 56 bf 82 93 b3 bd 3d b6 b5 3d 83 d3 12 bf
       -0.8375095 -0.08768369 0.0887265 -0.5735399
0001d0 e6 f0 bf bd 66 4f 10 bf 68 6f c5 3c fa b3 a7 3d
       -0.093721196 -0.5637115 0.024100974 0.08188625
0001e0 3a ae 37 bf 28 4e bd bc 8d 9a 30 c0 df 87 20 bf
       -0.71750224 -0.023108557 -2.759433 -0.6270732
0001f0 ab 7f 63 c0 40 89 8c 3c aa 49 ae 3d 2a 06 0b bf
       -3.5546672 0.01715529 0.08510144 -0.5430628
000200 d4 0b 04 3d 1c 80 51 3d d4 a1 c0 3d 4c 31 0c 3e
       0.032237843 0.051147565 0.09405866 0.1369068
000210 75 f0 bd 3e 01 7d 9d 3c 34 6c 5a 3e 20 bb 7e bf
       0.37097517 0.019224646 0.21330339 -0.9950428
000220 d6 bd 64 3d 13 79 fb be 6f b4 ca 3e b8 db 6c bd
       0.055845104 -0.4911581 0.39590785 -0.057826728
000230 d4 e6 24 bf b7 ee b7 3e 10 d8 4b 3d 86 69 0c bd
       -0.64414716 0.35924312 0.0497666 -0.034280322
000240 6f b8 39 bf f0 51 74 bf b3 90 f5 be 6b 70 c2 3b
       -0.7254705 -0.95437527 -0.4796196 0.0059338114
000250 76 b8 f0 bd fe 6a 83 bd 9c 97 61 bb d2 04 bd 3e
       -0.11753933 -0.064168915 -0.0034422642 0.3691774
000260 27 c9 79 bb 41 27 81 bf c1 b9 15 bf 7e c1 14 3b
       -0.003811428 -1.0090104 -0.5848656 0.0022698338
000270 70 9a 3e bc 4c fa bd bf 94 d3 8d bd 8a 6b c2 3a
       -0.0116335 -1.484201 -0.06925121 0.0014833075
000280 08 eb e5 bd ab fc 67 bf 3e 91 29 bf 60 5b 68 3c
       -0.11226469 -0.90619916 -0.66237247 0.014181942
000290 a6 a0 6c bb d1 a5 04 bf 70 b6 69 bf f7 a5 bf bb
       -0.0036106496 -0.51815516 -0.91294 -0.005848642
0002a0 0d 62 6a c0 81 af eb bf 69 fe cc bc 20 02 35 bf
       -3.6622345 -1.8412935 -0.025023656 -0.7070637
0002b0 a6 50 37 bf 7a d7 63 bf a2 22 2a bf d8 40 4e 3d
       -0.71607435 -0.89000666 -0.66459095 0.05035481
0002c0 20 a0 13 bf 44 41 9c 3d 08 cf da bc 47 58 15 bf
       -0.57666206 0.07629636 -0.026710048 -0.58337826
0002d0 be 3b dd 3d 8c 22 30 bf 40 a8 86 bd 30 45 1d bd
       0.108024105 -0.68802714 -0.0657506 -0.03839606
0002e0 32 5c 62 bf 07 3b 06 bd 9d 56 00 c0 62 a9 58 bf
       -0.8842193 -0.032771137 -2.0052865 -0.8463346
0002f0 68 64 17 c0 5c e5 60 3d e0 7e 33 3d e5 9b 4d bf
       -2.3655033 0.054906234 0.04382217 -0.80316
000300 c8 5c d1 bc b8 a6 bb 3d 08 4e 21 bd 69 02 55 be
       -0.025556937 0.091626585 -0.039381057 -0.208017
000310 80 1b 2c bf ec da 7c 3d 9f 3a ba be c7 b6 a9 be
       -0.6722946 0.061732218 -0.3637285 -0.3314726
000320 e1 9b d2 3d 31 35 7b bf 3c b3 aa 3e 1a 06 ed 3d
       0.10283638 -0.9812804 0.3333987 0.115734294
000330 53 99 92 bf 0e 53 b4 3e 24 7e 1a bd 68 93 a9 3c
       -1.1453041 0.35219616 -0.037717953 0.020700172
000340 ae f8 ab be 95 5f d8 be f0 a4 37 bf 72 e0 c1 3d
       -0.33588165 -0.42260423 -0.7173605 0.09466638
000350 94 ce a0 bd d9 5d 11 3d 20 83 9f 3d 7a 10 2f bf
       -0.07851902 0.03548989 0.07788682 -0.68384516
000360 df e7 57 3d cc 49 af bd 04 80 8b bf c0 b6 a0 3b
       0.052711364 -0.085589975 -1.0898442 0.004904598
000370 0a 60 3a bd 00 d1 fe bf 20 ae 68 3c 54 07 b8 bd
       -0.045501746 -1.9907532 0.014201671 -0.08985773
000380 7c b3 b2 3d 92 d8 18 be c0 b9 0f bf 80 e9 a9 ba
       0.0872564 -0.14926365 -0.56142807 -0.0012963265
000390 63 78 d8 3d 38 5f 19 bf 9e 2d a3 be e7 67 55 3c
       0.10569837 -0.5991092 -0.3187074 0.0130252605
0003a0 a9 9b ce bf cd e5 1d c0 bb e4 3a bd b8 48 b5 be
       -1.6141254 -2.467151 -0.04562829 -0.35407043
0003b0 ba 61 8a bf e6 37 30 be b7 43 00 bf cc ba 95 3d
       -1.0811074 -0.17208824 -0.50103325 0.07311019
0003c0 5c 5d cf bf 40 d5 17 bd 88 8c f0 3d 9a e7 19 bf
       -1.6200366 -0.037068605 0.11745554 -0.6011902
0003d0 8c ed 34 3d 30 3f 1f bf ec a4 52 3d cc 0b 2e 3d
       0.044171855 -0.6220579 0.051426813 0.04249172
0003e0 ed 50 04 bf dc fb 05 3d f8 a1 6c c0 c2 21 15 bf
       -0.5168598 0.032710895 -3.6973858 -0.58254635
0003f0 2a db dd bf 14 76 52 bd 61 1f 44 bd ed 8d fc be
       -1.7332509 -0.05138214 -0.047881488 -0.4932703

fc3.bias f4 [4]
000000 26 f8 02 be c3 0f fe 3d 35 50 8b 3f 63 0c 02 c0
       -0.12789974 0.1240535 1.0883852 -2.032006
