FE+DQN_demo/results/dqn_model_episode_200.pth (torch, 21396 bytes, 6 tensors)

fc1.weight f4 [64, 3]
0	0xbf0eec2c	-0.5582912
1	0xbec8bf6a	-0.39208537
2	0xbe7c0cf8	-0.24614322
3	0x3e18b551	0.14912917
4	0x3f8ff426	1.1246383
5	0xbfc10b15	-1.5081507
6	0xbf1ab598	-0.6043334
7	0x3f076d67	0.5290131
8	0x3f19b6a2	0.600443
9	0x3f510568	0.81648874
10	0xbeb61708	-0.35564446
11	0x3f355f5a	0.7084862
12	0x3f77ef86	0.9684986
13	0xbe9bb603	-0.304123
14	0x3eebd96e	0.46064323
15	0x3f3ba8a2	0.7330419
16	0x3f97ffb6	1.1874912
17	0xbfc2e158	-1.522502
18	0x3dc70ce8	0.097192585
19	0xbecce8d4	-0.40021384
20	0xbe155d30	-0.1458633
21	0xbef35046	-0.4752218
22	0x3ee0dff5	0.43920866
23	0x3f0c3e94	0.54782987
24	0x3fa674dc	1.3004413
25	0xbeb3ba96	-0.3510329
26	0x3ef2fab9	0.4745691
27	0xbf5cdb4a	-0.8627211
28	0x3f2a2efb	0.66477937
29	0x3f15abef	0.58465475
30	0x3e80c248	0.25148225
31	0x3fca0272	1.5781996
32	0xbf2482b3	-0.6426193
33	0xbe237bbe	-0.15965173
34	0x3f1e8791	0.6192561
35	0x3ed9ff57	0.4257762
36	0xbfd7771c	-1.6833224
37	0xbfe59f66	-1.793927
38	0x3d708eb8	0.058729857
39	0x3e248ef8	0.16070163
40	0xbe2c72f6	-0.16840729
41	0xbe8788e0	-0.26471615
42	0xbe916cbe	-0.28403276
43	0x3f77d898	0.9681487
44	0x3e1299d1	0.14316489
45	0x3d7138a1	0.058891896
46	0x3fc8c5f3	1.5685409
47	0xbf5343ce	-0.82525337
48	0x3d7b2240	0.06131196
49	0xbeaed97d	-0.34150305
50	0xbe97a315	-0.2961661
51	0xbf3a8869	-0.72864395
52	0x3f390e2b	0.72287244
53	0x3e8a4d11	0.27011922
54	0x3e542cf9	0.2072028
55	0x3faeed13	1.3666099
56	0xbfa5290a	-1.2903149
57	0xbe1f487c	-0.15554994
58	0xbec50e8e	-0.38487667
59	0xbdb697c0	-0.08915663
60	0xbf896420	-1.0733681
61	0x3f8bdd85	1.0926977
62	0x3d43917f	0.047746178
63	0x3f49af07	0.78782696
64	0xbebdd996	-0.37080067
65	0x3f3809d7	0.71890014
66	0x3ea0c91f	0.31403443
67	0x3cc61f23	0.024184769
68	0xbeb2321d	-0.34803858
69	0x3dbfdbb5	0.09368078
70	0x3f40c8fc	0.7530668
71	0xbca7bac8	-0.020474806
72	0xbfbfc242	-1.4981158
73	0xbfc6612f	-1.5498408
74	0x3d4338b2	0.04766149
75	0xbecebfd1	-0.4038072
76	0x3eff64ed	0.49881688
77	0x3f14ae9d	0.5807894
78	0x3d9e8f28	0.07742149
79	0x3f795ead	0.9741009
80	0x3ee9c63d	0.45659056
81	0x3f8a342e	1.0797174
82	0xbe8fc6f6	-0.28081483
83	0x3ee751cb	0.4517959
84	0xbf011618	-0.5042434
85	0x3d5b65d0	0.053563893
86	0xbec36569	-0.38163307
87	0x3f70d151	0.9406939
88	0xbea54107	-0.32276174
89	0x3f194b4a	0.59880507
90	0xbec1c8c8	-0.37848496
91	0x3f032305	0.5122531
92	0x3f1334f0	0.5750265
93	0x3d862a3a	0.06551023
94	0x3fab4484	1.3380284
95	0xbee9e753	-0.456843
96	0x3f112046	0.5668987
97	0xbef74280	-0.48292923
98	0xbce89b20	-0.028394282
99	0x3e87160d	0.2638401
100	0x3fabfb98	1.3436155
101	0xbfc626b8	-1.5480566
102	0xbf1f8125	-0.62306434
103	0x3f4fa15c	0.8110559
104	0xbbca2d07	-0.0061699185
105	0xbde674f8	-0.11252779
106	0xbab42e00	-0.0013746619
107	0xbee1bada	-0.4408787
108	0x3e9cd55d	0.30631533
109	0x3f3e393f	0.743061
110	0xbce34545	-0.027742991
111	0xbec5fab4	-0.38667834
112	0x3f665a83	0.8998186
113	0x3f12400c	0.5712898
114	0x3f18791b	0.5955979
115	0xbe9c4752	-0.30523163
116	0x3f35cffc	0.71020484
117	0x3db2bc54	0.08727327
118	0x3ccb49c6	0.024815451
119	0xbd546cb6	-0.051861487
120	0x3eb8d2ba	0.36098272
121	0x3fb580e2	1.4179957
122	0xbf3df533	-0.7420227
123	0x3e87bcc6	0.2651121
124	0x3f94d09d	1.1626164
125	0xbf58de27	-0.8471398
126	0xbfa6690a	-1.3000805
127	0xbfc70577	-1.5548543
128	0x3daa96f0	0.0832957
129	0x3e0b454f	0.13600658
130	0x3fcb777f	1.5895842
131	0xbfa0e49f	-1.256977
132	0xbe90912b	-0.28235754
133	0x3f53e820	0.8277607
134	0xbc3edb58	-0.011648975
135	0xbedb4189	-0.42823437
136	0x3f751c12	0.95745957
137	0x3da82667	0.0821045
138	0x3bd863ca	0.0066036927
139	0x3fa6d66b	1.3034185
140	0xbf6c0a31	-0.9220305
141	0x3e9a155a	0.30094415
142	0xbeb140f2	-0.34619862
143	0xbf13040d	-0.57428056
144	0xbf37d3c3	-0.718075
145	0xbe289f8a	-0.1646711
146	0x3f1c638d	0.610894
147	0xbdb906b0	-0.09034479
148	0xbeaea94c	-0.34113538
149	0xbe82f7de	-0.25579733
150	0x3e0636a0	0.13106775
151	0xbe6a447e	-0.2287769
152	0xbe8b2c42	-0.27182204
153	0xbf439860	-0.7640438
154	0x3e9c8e06	0.30577105
155	0x3f0a5714	0.5403912
156	0x3f9365c4	1.1515431
157	0xbe7231fe	-0.23651883
158	0x3e818680	0.25297928
159	0x3c4f08e6	0.012636399
160	0x3f603c32	0.8759185
161	0x3e2451d9	0.16046847
162	0xbce95202	-0.028481487
163	0x3fcab4c7	1.5836419
164	0xbec717fd	-0.3888549
165	0xbe91ebcd	-0.28500214
166	0x3ef66adc	0.48128402
167	0x3ebd5d1c	0.369851
168	0xbc9229a5	-0.017842123
169	0x3d1d5ba8	0.03841749
170	0xbdff75a0	-0.12473607
171	0x3ea80091	0.32812932
172	0x3f9a214a	1.2041409
173	0xbd03fda2	-0.032224305
174	0xbedfb727	-0.43694422
175	0x3f36287a	0.7115551
176	0x3e3d69f6	0.18497452
177	0xbf04316a	-0.516379
178	0xbe2cedaa	-0.16887537
179	0xbebad325	-0.36489215
180	0xbead9bb9	-0.3390787
181	0x3f82a9bf	1.0208052
182	0x3e8a981b	0.27069172
183	0x3f070446	0.52740896
184	0xbe7972fd	-0.24360271
185	0x3f14658f	0.57967466
186	0x3d9b8e90	0.07595551
187	0xbe9489a9	-0.29011276
188	0xbeff6bf5	-0.49887052
189	0xbf3da6f7	-0.74082893
190	0x3f1711bd	0.5901144
191	0x3edc2bb2	0.43002087

fc1.bias f4 [64]
0	0x3e141d98	0.14464414
1	0x3eca146f	0.39468715
2	0x3fb34e2b	1.400823
3	0xbe92d7fe	-0.28680414
4	0xbd7f8c2f	-0.06238955
5	0x3e85b79d	0.26116648
6	0x3e8d558c	0.2760433
7	0x3f60f68e	0.8787621
8	0x3c876435	0.016527275
9	0x3f189e44	0.59616494
10	0x3f85f978	1.0466757
11	0x3fa20494	1.2657647
12	0x3def145c	0.11673805
13	0x3edfacc8	0.4368651
14	0x3f71a4f8	0.9439235
15	0x3f278bea	0.65447867
16	0x3e1a59f4	0.15073377
17	0x3f0d08bf	0.5509147
18	0x3f551ef1	0.8325034
19	0x3e01b00c	0.12664813
20	0x3f9119e4	1.1336026
21	0xbe626342	-0.22108176
22	0xbe44daea	-0.19224134
23	0x3f912a4e	1.1341035
24	0x3f59469d	0.8487337
25	0x3f695bb6	0.91155565
26	0x3f280d83	0.6564562
27	0xbec307ad	-0.38091794
28	0xbf075e6b	-0.52878445
29	0xbebf1658	-0.37321734
30	0x3fc75cd2	1.5575202
31	0x3fcb48e1	1.5881616
32	0xbe4da9d6	-0.20084319
33	0x3e12b42b	0.14326541
34	0x3f8ff4f6	1.1246631
35	0x3e0fafc4	0.14031893
36	0x3ff2daf6	1.8973072
37	0x3fad6388	1.3546
38	0xbf2045ea	-0.6260668
39	0xbeb54af6	-0.35408753
40	0x3f95a5db	1.169124
41	0x3f990caf	1.1956996
42	0x3fe64467	1.7989625
43	0x3d37b7d5	0.04485305
44	0x3edd0194	0.43165267
45	0x3f0580ed	0.5214985
46	0x3f32e2c9	0.69877297
47	0xbccb8ec0	-0.024848342
48	0x3fed576c	1.8542304
49	0x3f0cce20	0.5500202
50	0x3e92659e	0.28593153
51	0x3fa59770	1.293684
52	0xbd69ed2e	-0.057110958
53	0x3fb0279a	1.3762085
54	0x3f7ff8ed	0.99989206
55	0x3f8b0bfc	1.0863032
56	0x3d09a0ae	0.0336005
57	0x3f93f4bf	1.1559066
58	0x3fc3e4b8	1.5304174
59	0x3db2b0f0	0.087251544
60	0x3f324a71	0.6964484
61	0xbf1c368b	-0.61020726
62	0x3e8eccfa	0.2789076
63	0x3f62a3cb	0.8853118

fc2.weight f4 [64, 64]
0	0x3c2f4250	0.0106969625
1	0x3cb9e570	0.022692412
2	0xbdb98546	-0.09058623
3	0x3d8e8b3c	0.069601506
4	0x3d3156f8	0.04329583
5	0xbdf4f586	-0.119608924
6	0x3d16bef8	0.036803216
7	0xbc24df50	-0.0100630075
8	0xbde66a92	-0.112507954
9	0xbde23942	-0.11046077
10	0x3da9b660	0.082867384
11	0xbcbdab58	-0.023152992
12	0xbb867380	-0.004103124
13	0x3dd6b0be	0.1048293
14	0x3d96db4e	0.07366048
15	0x3dca30cc	0.098725885
16	0x3cd4b498	0.02596502
17	0x3dc7ece2	0.09761979
18	0xbde8fb82	-0.11376096
19	0x3c49f7a0	0.012327105
20	0xbd8bff76	-0.06835835
21	0x3d2f931c	0.042864904
22	0xbd7f9e44	-0.062406793
23	0xbda95160	-0.08267474
24	0xbd62869c	-0.055304155
25	0xbd9e2bd8	-0.07723206
26	0xbcb121d0	-0.021622568
27	0x3cd22a20	0.025654852
28	0xbcd433a8	-0.025903538
29	0xbd8a6f60	-0.06759524
30	0x3c9aa290	0.018876344
31	0xbd96b6f6	-0.07359116
32	0xbc5e64d0	-0.01357384
33	0xba39f900	-0.0007094294
34	0x3dc9f10e	0.09860431
35	0x3d9156bc	0.070966214
36	0xbd752b10	-0.05985552
37	0xbccf51c0	-0.025307536
38	0xbd9bf464	-0.07614973
39	0xbb784400	-0.0037882328
40	0xbcf3c408	-0.02975656
41	0xbdec43c0	-0.1153636
42	0xbd2e1a24	-0.0425054
43	0x3d7ae130	0.06124991
44	0xbc889a40	-0.016675115
45	0x3ddde072	0.10833825
46	0x3d55952c	0.052144215
47	0xbcd329a0	-0.025776684
48	0xbb4a56c0	-0.003087446
49	0x3bdb4d20	0.0066925436
50	0x3c06f770	0.008237705
51	0x3dc36148	0.09540039
52	0xbdb7314a	-0.08944948
53	0x3cbbdc30	0.022932142
54	0xbd4d7cb8	-0.05016777
55	0xbc4bcb50	-0.01243861
56	0x3d57a45c	0.05264698
57	0x3c5d90b0	0.013523266
58	0x3d80fa62	0.06297757
59	0x3d657118	0.056016058
60	0xbd002584	-0.031285778
61	0x3c9b6118	0.018967196
62	0x3aa3e500	0.001250416
63	0xbd4ed814	-0.050499037
64	0x3dddaa1a	0.1082346
65	0x3dc3c326	0.09558706
66	0xbbb8c600	-0.005638838
67	0x3be4f980	0.0069877505
68	0xbdaa7b38	-0.08324283
69	0xbde92242	-0.11383487
70	0xbd9f6c9a	-0.07784386
71	0xbcd25940	-0.025677323
72	0x3de3b98a	0.11119373
73	0xbd33cf54	-0.043898895
74	0xbd2b5030	-0.04182452
75	0xbdf987e8	-0.12184125
76	0xbdafd42e	-0.08585392
77	0x3d329204	0.043596283
78	0x3dcf99d2	0.10136761
79	0xbdea318e	-0.11435233
80	0x3cfba5f0	0.030718774
81	0x3dfab34e	0.12241231
82	0xbdbbbc2c	-0.0916675
83	0x3da93e20	0.082638025
84	0xbc138c10	-0.0090055615
85	0xbdcb3c32	-0.09923591
86	0x3cf72688	0.03016974
87	0xbde0f6ce	-0.10984574
88	0xbd534944	-0.051583543
89	0xbdf3301e	-0.11874412
90	0xbcc66c78	-0.024221644
91	0x3dd83542	0.10557033
92	0x3dcad374	0.09903613
93	0x3debd6d4	0.115155846
94	0xbde02116	-0.10943811
95	0x3d5ffe5c	0.054685935
96	0x3c40e340	0.011772931
97	0xbb32d900	-0.0027289987
98	0x3d8c51b2	0.0685152
99	0x3dbf06fa	0.093275025
100	0x3da42da6	0.08016519
101	0xbd694cb8	-0.05695793
102	0xbce822a8	-0.028336838
103	0xbd992b7a	-0.074789956
104	0xbcf1c590	-0.02951315
105	0x3d68a414	0.056797102
106	0x3df77cca	0.120843485
107	0x3d62c56c	0.055364057
108	0x3dff44fa	0.12464328
109	0xbd881a88	-0.066456854
110	0xbd87a312	-0.066229
111	0xbddb476a	-0.107069805
112	0x3d34f8a0	0.04418242
113	0xbcf19d40	-0.029493928
114	0x3dbb0ab0	0.09132898
115	0xbd062d24	-0.032757893
116	0xbdaec3d0	-0.08533442
117	0xbc83d9d0	-0.016095072
118	0xbd3492ac	-0.04408519
119	0xba95fb80	-0.0011442751
120	0x3d1cb420	0.038257718
121	0xbd8b608a	-0.06805523
122	0xbb8fbe00	-0.0043866634
123	0xbca50d78	-0.020148024
124	0xbce6e0b8	-0.028183326
125	0xbd912376	-0.07086842
126	0x3dbe2894	0.092850834
127	0xbd9fd300	-0.07803917
128	0x3db695a0	0.089152575
129	0xbd639594	-0.05556257
130	0x3daa3ba6	0.08312158
131	0x3d3ca30c	0.04605393
132	0xbd32e4fc	-0.043675408
133	0x3df150d4	0.11782995
134	0x3df4e032	0.11956824
135	0xbd85bc2e	-0.06530033
136	0xbd0d05b8	-0.034429282
137	0x3c703c70	0.014662847
138	0xbdc04bbe	-0.09389447
139	0xbd56ae14	-0.052412108
140	0xbd8ea96c	-0.069659084
141	0xbdb73ea4	-0.089474946
142	0x3d96dfb4	0.07366887
143	0xbc561830	-0.01306729
144	0xbcf6b810	-0.030117065
145	0xbdbec092	-0.093140736
146	0x3dbc828e	0.09204589
147	0x3d30c3c0	0.04315543
148	0xbbfc45c0	-0.0076987445
149	0x3cd22e38	0.025656804
150	0xbdd08512	-0.10181631
151	0xbd8b34be	-0.06797169
152	0xbdaf2e52	-0.08553757
153	0x3d1ff380	0.03905058
154	0xbacbf080	-0.0015559345
155	0xbc640600	-0.013917446
156	0x3ce363a8	0.02775748
157	0xbd81a8bc	-0.06331012
158	0xbdadedb2	-0.084926024
159	0xbdaebbd0	-0.08531916
160	0xbd9e349a	-0.07724877
161	0xbdc6f1d0	-0.09714091
162	0xbc6a1d30	-0.014289185
163	0xbd75e7cc	-0.06003551
164	0x3d9d0728	0.076673806
165	0x3d0f1154	0.034928635
166	0x3df57bd4	0.11986509
167	0x3c439840	0.011938155
168	0xbdbffa9a	-0.0937397
169	0x3dc1e05a	0.0946662
170	0xbdd1fde0	-0.10253501
171	0xbd88c66a	-0.066784695
172	0xbd5faff0	-0.054611146
173	0x3d7b3238	0.06132719
174	0xbd3170b0	-0.043320358
175	0x3dc2759a	0.09495087
176	0xbcf369e8	-0.029713586
177	0x3dd84bc0	0.10561323
178	0x3dfd19f0	0.12358463
179	0xbda95e84	-0.082699805
180	0xbc6ad060	-0.014331907
181	0xbda9821e	-0.08276771
182	0xbda9557e	-0.082682595
183	0x3d666b38	0.056254596
184	0xbdbb0b14	-0.09132972
185	0x3d8d97ec	0.069137424
186	0xbdd80840	-0.105484486
187	0xba259200	-0.0006316006
188	0xbde083b8	-0.10962623
189	0xbd162bd0	-0.036662877
190	0xbdb8d96a	-0.090258434
191	0x3d4c0984	0.049813762
192	0xbd740108	-0.059571296
193	0xc01e7374	-2.4757967
194	0xbd8da28a	-0.069157675
195	0x3d40108c	0.04689078
196	0x3d9699c1	0.07353545
197	0xbfb360b9	-1.4013892
198	0x3da041a8	0.07825023
199	0x3deca6c8	0.115552485
200	0x3e22ac8c	0.15886134
201	0x3ba32049	0.004978214
202	0x3ee410f5	0.44544187
203	0xbc4a78ba	-0.012357885
204	0xbf2f36ec	-0.6844318
205	0x3de7bd46	0.11315398
206	0x3d8a86a2	0.067639604
207	0x3e909b8b	0.2824367
208	0xbd4d10e0	-0.05006492
209	0x3c02896a	0.007967332
210	0xbf7258ff	-0.9466705
211	0xbc8e76c8	-0.017390624
212	0xbe77cd41	-0.24199392
213	0xbc7c1c2b	-0.015387575
214	0x3db0a8f8	0.08625978
215	0x3eaea691	0.34111455
216	0xbf1ca7e4	-0.6119368
217	0x3d65b62a	0.05608193
218	0xbce13b43	-0.027494079
219	0x3ccc6ea7	0.024955107
220	0x3d08334c	0.033252046
221	0x3e1fbe4e	0.15599939
222	0x3e01b91a	0.12668267
223	0x3f0bac55	0.5455983
224	0xbd98aa0e	-0.0745431
225	0xc01c0198	-2.4375973
226	0x3dcf91ae	0.10135208
227	0x3dfc2468	0.123116314
228	0x3ed1a0bc	0.40942943
229	0x3d59a032	0.05313129
230	0x3d46fb5b	0.048579555
231	0x3cb1c7ae	0.02170166
232	0x3f098429	0.53717285
233	0x3e79b527	0.2438551
234	0xbf760658	-0.9610343
235	0xbeb0ad03	-0.34506997
236	0x3effadc2	0.49937254
237	0x3d1d5e90	0.03842026
238	0xbd0b2793	-0.033973288
239	0x3d669740	0.056296587
240	0xbd3c5fef	-0.045989927
241	0xbd934a00	-0.07191849
242	0x3db22e8e	0.08700286
243	0xbdf87d43	-0.12133267
244	0x3e0f18e2	0.13974336
245	0x3dcbb2bd	0.09946201
246	0x3ec7df0f	0.39037368
247	0xbc34e298	-0.011040352
248	0x3cb654e2	0.022257272
249	0x3f0538db	0.5203988
250	0xbd713a06	-0.058893226
251	0x3babf9c0	0.0052482784
252	0x3e23a778	0.15981853
253	0x3d2e5021	0.042556886
254	0x3df79ec8	0.12090832
255	0x3cc13fcc	0.023589991

fc2.bias f4 [64]
0	0xbd828a44	-0.06374028
1	0xbd84f1ee	-0.06491457
2	0x3d157a0c	0.036493346
3	0xbea863de	-0.32888693
4	0x3ee4095c	0.4453839
5	0xbdef6e1c	-0.116909236
6	0xbf0211ac	-0.50808215
7	0x3f6b4cd8	0.9191413
8	0xbc82351b	-0.015894463
9	0x3f7f661b	0.99765176
10	0xbf049ac5	-0.5179866
11	0x3c2696b6	0.010167768
12	0x3f9ad806	1.2097175
13	0xbeedf64f	-0.4647698
14	0xbdc48634	-0.0959591
15	0xbdf34e4b	-0.118801676
16	0x3f5b19e7	0.855864
17	0x3f4d54d8	0.80207586
18	0x3f662fb2	0.8991653
19	0x3d3d680e	0.046241812
20	0xb81ab000	-3.6880374e-05
21	0xbcfeb0c0	-0.03109014
22	0x3d95de6c	0.07317814
23	0x3ecf86e5	0.40532604
24	0xbce2df31	-0.027694317
25	0x3f5ded63	0.8669035
26	0x3f88de4a	1.0692837
27	0xbcc9011f	-0.024536667
28	0xbdc15f1b	-0.09441968
29	0x3f0116e5	0.5042556
30	0xbc5d4360	-0.013504833
31	0xbdf345b0	-0.11878526
32	0x3d9ba588	0.07599932
33	0x3f29871c	0.66221786
34	0x3f3c091d	0.73451406
35	0xbd8cd98a	-0.0687743
36	0xbdb0fedd	-0.08642361
37	0x3f878f21	1.0590554
38	0x3f3c4f53	0.7355854
39	0xbcd1052a	-0.025515158
40	0xbe5ea3f7	-0.21742235
41	0x3d843a6f	0.06456458
42	0xbdad6b2c	-0.08467707
43	0x3f1eb191	0.61989695
44	0x3f929098	1.1450377
45	0x3f56f413	0.8396618
46	0x3f352821	0.70764357
47	0xbd99f348	-0.07517105
48	0x3f863095	1.0483576
49	0x3d82f420	0.063942194
50	0xbdf09eb9	-0.11749024
51	0x3f6d5591	0.9270869
52	0x3d593500	0.05302906
53	0x3f6463ed	0.89214975
54	0xbdb5e22a	-0.08881028
55	0xbe019408	-0.12654126
56	0x3f53472c	0.82530475
57	0x3d0b06ac	0.03394191
58	0x3f987a87	1.1912392
59	0x3f5e3316	0.867967
60	0xbec6cb2f	-0.38826892
61	0xbd8f2b16	-0.0699064
62	0x3d97906b	0.074005924
63	0x3f4f1a87	0.8089985

fc3.weight f4 [4, 64]
0	0xbd7b230c	-0.06131272
1	0x3d15e674	0.03659673
2	0x3ba0f1e0	0.0049116462
3	0x3ec769ea	0.38947994
4	0x3ec8f6b3	0.39250717
5	0x3decacf4	0.11556426
6	0x3e8e4d68	0.2779343
7	0xbf4ef39f	-0.80840486
8	0x3d246e62	0.04014433
9	0xbf50a672	-0.81503975
10	0x3ec61a1b	0.38691792
11	0xbdd5f626	-0.1044734
12	0xbf396840	-0.724247
13	0x3f03f574	0.51546407
14	0x3de00a66	0.10939483
15	0x3d89d4ff	0.06730079
16	0xbf3032e7	-0.6882767
17	0xbf624532	-0.88386834
18	0xbf41301b	-0.7546403
19	0x3dcd0186	0.10010056
20	0xbdac429e	-0.08411144
21	0x3dfa6d7c	0.12227914
22	0x3d292b34	0.041300967
23	0x3ec0a073	0.37622413
24	0x3d516ccc	0.051129147
25	0xbf477b4e	-0.77922523
26	0xbf52f438	-0.824039
27	0xbdeb9e06	-0.1150475
28	0x3c86f3b8	0.016473636
29	0xbfa24850	-1.2678318
30	0xbd5a380c	-0.053276107
31	0xbdbc2020	-0.09185815
32	0x3c8cd2f2	0.01719043
33	0xbf4f7cd7	-0.81049865
34	0xbf594ff9	-0.84887654
35	0x3d7526c4	0.059851423
36	0x3cc286b7	0.023745878
37	0xbf3c6858	-0.73596716
38	0xbf45be45	-0.77243453
39	0x3da9e01c	0.082946986
40	0xbfbfaf67	-1.4975404
41	0xbada328e	-0.0016647147
42	0x3d551331	0.052020255
43	0xbf5c8900	-0.86146545
44	0xbf629fb3	-0.8852493
45	0xbf63bb82	-0.8895799
46	0xbf33a167	-0.70168155
47	0x3db26c22	0.08712031
48	0xbf7062b4	-0.9390061
49	0x3d9417ac	0.072310776
50	0x3db0f90a	0.086412504
51	0xbf306bbf	-0.6891441
52	0x3bf62dc0	0.007512778
53	0xbf52d8e3	-0.8236219
54	0x3d908e60	0.07058406
55	0x3d387914	0.045037344
56	0xbf3dfeb1	-0.74216753
57	0x3d1b7f70	0.03796333
58	0xbf62e5bc	-0.88631797
59	0xbf572d4b	-0.84053487
60	0xbfa851e8	-1.3149996
61	0xbd7c3de4	-0.06158246
62	0xbc3c2887	-0.011484272
63	0xbf375c14	-0.71624875
64	0x3dc459ca	0.095874384
65	0x3b2ba300	0.0026189685
66	0x3d537df4	0.05163379
67	0x3e2e0198	0.16992795
68	0x3d60ef3b	0.054915648
69	0xbc69a7d0	-0.014261201
70	0x3e4bdd77	0.19908701
71	0xbf4382f9	-0.76371723
72	0xbdada0d1	-0.08477939
73	0xbeef25b3	-0.4670845
74	0x3ec6a9ff	0.38801572
75	0xbc1f1a50	-0.009710863
76	0xbf2da478	-0.67829084
77	0x3e8be701	0.2732468
78	0x3d761354	0.060077026
79	0x3c9a1745	0.018809924
80	0xbefc7198	-0.49305415
81	0xbf3b7c1c	-0.7323625
82	0xbeb1a94b	-0.34699473
83	0xbd1817ad	-0.037131954
84	0xbbadc9a0	-0.0053035766
85	0xbd71b51c	-0.05901061
86	0x3da74700	0.08167839
87	0x3d8a77d9	0.067611404
88	0x3dc79344	0.097448856
89	0xbf3a9026	-0.72876203
90	0xbf1fa407	-0.6235966
91	0x3daa15f4	0.083049685
92	0xbd32628c	-0.043551013
93	0xc010fb60	-2.2653427
94	0xbdcaf714	-0.09910408
95	0x3d04b3f0	0.032398164
96	0xbcc6bc90	-0.024259835
97	0xbf0f3923	-0.5594656
98	0xbeff02c3	-0.49806795
99	0xbdf0a524	-0.11750248
100	0x3d993fb8	0.074828565
101	0xbefd0ebd	-0.49425307
102	0xbf15a6db	-0.58457726
103	0xbd5c7f7d	-0.05383252
104	0xc0218cf9	-2.5242293
105	0xbd29f4c8	-0.041493207
106	0x3cf0e15f	0.02940434
107	0xbeb15372	-0.34633976
108	0xbf4981c9	-0.7871366
109	0xbf250b38	-0.64470243
110	0xbed970cd	-0.42468873
111	0xbc2ac184	-0.010422114
112	0xbf3311a4	-0.6994879
113	0xbdb39382	-0.08768369
114	0x3db5b63d	0.0887265
115	0xbf0cb9f1	-0.54971224
116	0xbdbff0e6	-0.093721196
117	0xbf0e9e12	-0.55709946
118	0x3cc56f68	0.024100974
119	0x3da7b3fa	0.08188625
120	0xbf2bc1a5	-0.67092353
121	0xbcbd4e28	-0.023108557
122	0xc010d109	-2.2627585
123	0xbf2e9a5a	-0.6820427
124	0xc01a64b6	-2.412397
125	0x3c8c8940	0.01715529
126	0x3dae49aa	0.08510144
127	0xbf08feef	-0.53514
128	0x3d040bd4	0.032237843
129	0x3d51801c	0.051147565
130	0x3dc0a1d4	0.09405866
131	0x3e7607c6	0.24026403
132	0x3edc067c	0.42973697
133	0x3c9d7d01	0.019224646
134	0x3e77ee85	0.24212082
135	0xbf71229e	-0.94193447
136	0x3d64bdd6	0.055845104
137	0xbeee487f	-0.46539685
138	0x3ecf4906	0.404854
139	0xbd6cdbb8	-0.057826728
140	0xbf15ae7d	-0.58469373
141	0x3ec07338	0.37587905
142	0x3d4bd810	0.0497666
143	0xbd0c6986	-0.034280322
144	0xbf307bad	-0.68938714
145	0xbf65b364	-0.89726853
146	0xbef5c052	-0.4799829
147	0x3bc2706b	0.0059338114
148	0xbdf0b876	-0.11753933
149	0xbd836afe	-0.064168915
150	0xbc966abb	-0.01836144
151	0x3ed51530	0.41617727
152	0xbb79c927	-0.003811428
153	0xbf79d617	-0.975923
154	0xbf07f8cb	-0.53114
155	0x3b14c17e	0.0022698338
156	0xbc3e9a70	-0.0116335
157	0xbfbb58f7	-1.4636525
158	0xbd8dd394	-0.06925121
159	0x3ac26b8a	0.0014833075
160	0xbde5eb08	-0.11226469
161	0xbf6115a6	-0.8792366
162	0xbf286ce2	-0.6579114
163	0x3c685b60	0.014181942
164	0xbb6ca0a6	-0.0036106496
165	0xbef19941	-0.47187236
166	0xbf636941	-0.8883248
167	0xbbbfa5f7	-0.005848642
168	0xc046fd07	-3.1091936
169	0xbddd6dda	-0.10811968
170	0x3bdcaccb	0.0067344657
171	0xbf396691	-0.7242213
172	0xbf289815	-0.6585706
173	0xbf5e0f89	-0.86742455
174	0xbf294f7e	-0.6613692
175	0x3d4e40d8	0.05035481
176	0xbf00ee77	-0.5036387
177	0x3d9c4144	0.07629636
178	0xbcdacf08	-0.026710048
179	0xbf0e178e	-0.5550469
180	0x3ddd3bbe	0.108024105
181	0xbf2e047c	-0.6797559
182	0xbd86a840	-0.0657506
183	0xbd1d4530	-0.03839606
184	0xbf53d1ad	-0.82741815
185	0xbd84237c	-0.064520806
186	0xbf9266fc	-1.1437678
187	0xbf4ded91	-0.8044062
188	0xc005036d	-2.078334
189	0x3d60e55c	0.054906234
190	0x3d337ee0	0.04382217
191	0xbf4d7fed	-0.80273324
192	0xbcd15cc8	-0.025556937
193	0x3dbba6b8	0.091626585
194	0xbd214e08	-0.039381057
195	0xbdbdb276	-0.09262554
196	0xbea2e25e	-0.3181333
197	0x3d7cdaec	0.061732218
198	0x3bdf8cb4	0.006822193
199	0xbf033cb1	-0.5126448
200	0x3dd29be1	0.10283638
201	0xbf58749f	-0.8455295
202	0x3eea9917	0.45819923
203	0x3ded061a	0.115734294
204	0xbf85b46e	-1.0445688
205	0x3eef981b	0.46795735
206	0xbd1a7e24	-0.037717953
207	0x3ca99368	0.020700172
208	0xbeb4ad1e	-0.35288328
209	0xbf34004d	-0.7031296
210	0xbf212fb1	-0.62963396
211	0x3dc1e072	0.09466638
212	0xbda0ce94	-0.07851902
213	0x3d115dd9	0.03548989
214	0x3d9f8320	0.07788682
215	0xbec0c41c	-0.3764962
216	0x3d57e7df	0.052711364
217	0xbea00c86	-0.31259555
218	0xbf817609	-1.0114146
219	0x3ba0b6c0	0.004904598
220	0xbd3a600a	-0.045501746
221	0xc006cf2c	-2.1063948
222	0x3c68ae20	0.014201671
223	0xbdb80754	-0.08985773
224	0x3db2b37c	0.0872564
225	0xbea67d41	-0.32517436
226	0xbf1597e4	-0.5843489
227	0xbaa9e980	-0.0012963265
228	0x3dd87863	0.10569837
229	0xbf0daa77	-0.55338234
230	0xbefd314f	-0.49451682
231	0x3c5567e7	0.0130252605
232	0xbfce9ba9	-1.6141254
233	0x3dd69d2f	0.10479199
234	0xbd3ae4bb	-0.04562829
235	0xbebc62c2	-0.36794096
236	0xbf837db3	-1.0272735
237	0xbeaec228	-0.34132504
238	0xbefe89f6	-0.4971463
239	0x3d95bacc	0.07311019
240	0xbfad2081	-1.3525544
241	0xbd17d540	-0.037068605
242	0x3df08c88	0.11745554
243	0xbf14098e	-0.5782708
244	0x3d34ed8c	0.044171855
245	0xbf240a19	-0.6407791
246	0x3d52a4ec	0.051426813
247	0x3d2e0bcc	0.04249172
248	0xbf26a5c3	-0.6509668
249	0x3d05fbdc	0.032710895
250	0xc0032827	-2.0493257
251	0xbf2f1e33	-0.68405455
252	0xbfdddb2a	-1.7332509
253	0xbd527614	-0.05138214
254	0xbd441f61	-0.047881488
255	0xbf0ce368	-0.55034494

fc3.bias f4 [4]
0	0xbe20c069	-0.15698399
1	0xbf6a0c75	-0.9142526
2	0x3ed55413	0.41665706
3	0xbfb12528	-1.3839464
